aes_rl/checkpoint/diseasemutation_seed1_bcq_bc.ckpt (torch, 72471 bytes, 6 tensors)

i1.weight f4 [128, 6]
-0.02857554 -0.4413934 0.38639235 0.15956075 0.5396054 -0.21109647 0.020224443 0.11316581
-0.004832788 -0.00042263273 -0.013706424 0.018699054 0.28682357 -0.24917102 0.05426517 0.011820278
0.05830037 -0.14158967 -0.07285915 0.008181859 0.09831016 0.36257446 0.087406054 -0.009306553
-0.26823214 -0.24263129 0.43270728 -0.34186724 0.20808211 0.1205085 -0.32069513 0.11497078
0.103767686 -0.071267724 -0.16698211 0.049074195 -0.08941087 0.36475283 0.32047465 -0.30085298
-0.47708192 0.25253713 0.7772266 -0.110608704 0.39758736 0.10472747 -0.45075375 0.036465652
0.53381073 0.2681685 0.38578537 -0.45202965 -0.111950256 -0.29518476 0.21400993 -0.21154311
-0.07200052 0.5268059 0.3333431 -0.2518361 0.06260541 -0.25455984 -0.28390828 0.44903472
-0.23580728 0.020370446 0.19944198 -0.20573549 0.11277989 -0.08670172 0.1394779 -0.01150785
-0.7249505 -0.085339755 -0.53905064 0.3205472 0.10608899 0.60125387 0.019039987 -0.20812057
0.15332477 -0.2663966 0.18069509 -0.19456634 -0.0016389701 -0.23873517 -0.011303292 0.021499703
-0.0047719376 -0.02417298 0.41004217 -0.21209078 0.111251384 0.41507062 0.2741384 -0.15139984
0.062441014 -0.09672514 -0.10138635 0.1334393 0.1268012 0.037231583 -0.09392673 0.1574037
-0.053936105 0.04762746 -0.10343671 -0.071076326 -0.007857293 0.17796715 -0.3590607 -0.2936429
0.41306782 -0.66636676 0.24657789 -0.27769098 -0.023260213 0.55239 0.11811806 0.057190374
-0.27277872 0.33828658 0.08607517 -0.20670412 -0.7369205 0.5147393 0.8771984 0.059793536
0.36009592 -0.43877557 -0.07196804 -0.37445918 0.010406181 0.28173923 0.15974508 -0.22472984
-0.06013742 0.12890254 -0.25666338 0.32468122 0.19994 -0.42715943 -0.6435271 0.41473266
-0.060619485 -0.20774008 0.004123062 0.21789092 -0.20437826 0.045731 -0.36611384 -0.01790064
0.23121233 0.35131428 0.0181289 -0.347571 0.21585593 -0.37740844 -0.29153568 0.3573614
-0.053049743 -0.03364414 -0.42442533 -0.27574903 -0.09261468 0.36821935 0.15637846 0.040740814
0.24446109 -0.0798534 0.4563723 0.34331456 -0.33550307 0.72434324 0.02203881 0.13134079
0.019041682 0.033680756 -0.013582548 0.015005368 0.046961848 -0.15491432 0.1740842 0.12921785
-0.25115472 0.2119635 0.44612208 0.35057634 -0.19716147 0.23956466 -0.15287746 -0.31006834
-0.018423593 0.07441533 0.05952666 -0.055191193 -0.07019665 0.056058675 -0.013386096 -0.2120516
-0.05676315 0.14432333 -0.22797854 -0.11790152 -0.5537873 -0.26248243 0.3634071 0.70845014
0.26247677 -0.42660457 -0.008431076 0.120766394 -0.20514716 0.22910438 0.045441445 -0.11096948
0.23792048 -0.008818557 0.47859433 0.030426985 -0.4983497 -0.20992063 -0.13260408 -0.25140497
-0.45637816 -0.10483222 0.21244621 0.31146875 -0.21401365 0.15710399 -0.46735117 0.17290033
0.30387524 -0.24681461 0.136271 0.10425633 0.14376326 -0.24934725 -0.25493583 0.12060073
0.0058903955 -0.075837605 -0.0062920093 -0.01961276 0.011132368 0.015753077 -0.2673775 0.3515672
-0.18394011 0.24479239 0.020905305 -0.20974982 -0.00701642 -0.0012456233 -0.008387322 -0.018153025
00000000: 4017 eabc 51fe e1be 38d5 c53e e563 233e
00000010: 9423 0a3f ac29 58be bbad a53c 7ac3 e73d
00000020: 5d5c 9ebb ce94 ddb9 e990 60bc c22e 993c
00000030: 8ada 923e b026 7fbe 2845 5e3d d7a9 413c
00000040: 5ecc 6e3d e2fc 10be 2e37 95bd 340d 063c
00000050: d656 c93d 5ca3 b93e f201 b33d 837a 18bc
00000060: b955 89be 5674 78be cf8b dd3e 3909 afbe
00000070: 7a13 553e 29cd f63d 2732 a4be cd75 eb3d
00000080: 2784 d43d d0f4 91bd 5cfd 2abe 0602 493d
00000090: 0c1d b7bd e2c0 ba3e 4115 a43e 6709 9abe
000000a0: 1544 f4be 8c4c 813e 53f8 463f d186 e2bd
000000b0: 9290 cb3e 5b7b d63d 32c9 e6be 025d 153d
000000c0: d2a7 083f 624d 893e a985 c53e 6e70 e7be
000000d0: 2d46 e5bd 7522 97be 6b25 5b3e c29e 58be
000000e0: 0275 93bd c0dc 063f f2ab aa3e a9f0 80be
000000f0: 4437 803d ab55 82be 6d5c 91be e1e7 e53e
00000100: 7777 71be ecdf a63c 853a 4c3e 53ac 52be
00000110: 25f9 e63d ac90 b1bd 4bd3 0e3e 6c8b 3cbc
00000120: 5b96 39bf 9cc6 aebd 39ff 09bf c31e a43e
00000130: 2f45 d93d c6eb 193f bff9 9b3c 8f1d 55be
00000140: 2b01 1d3e 2365 88be 2208 393e 663c 47be
00000150: b6d2 d6ba fe76 74be 7131 39bc 2520 b03c
00000160: ea5d 9cbb 6a06 c6bc 0cf1 d13e 532e 59be
00000170: c4d7 e33d 2384 d43e de5b 8c3e 8f08 1bbe
00000180: 26c2 7f3d d517 c6bd a6a3 cfbd 50a4 083e
00000190: 2cd8 013e 2580 183d a85c c0bd 6f2e 213e
000001a0: 1bec 5cbd 0315 433d a0d6 d3bd 7790 91bd
000001b0: e0bb 00bc 053d 363e ced6 b7be 5d58 96be
000001c0: a07d d33e 0397 2abf ea7e 7c3e 832d 8ebe
000001d0: 348c bebc 6e69 0d3f e2e7 f13d 7440 6a3d
000001e0: a7a9 8bbe e633 ad3e 2e48 b03d 3faa 53be
000001f0: d2a6 3cbf f4c5 033f 1390 603f 11ea 743d
00000200: 7e5e b83e 31a7 e0be fb63 93bd 1db9 bfbe
00000210: b07e 2a3c 2040 903e 3794 233e 941f 66be
00000220: a852 76bd 07ff 033e 6269 83be 9e3c a63e
00000230: 12bd 4c3e a4b4 dabe 31be 24bf d757 d43e
00000240: 234c 78bd d1b9 54be c01a 873b cc1e 5f3e
00000250: 8948 51be 6e50 3b3d 4673 bbbe 5da4 92bc
00000260: edc2 6c3e 77df b33e 0f83 943c d3f4 b1be
00000270: 5609 5d3e ae3b c1be 2a44 95be 13f8 b63e
00000280: b04a 59bd 70ce 09bd 474e d9be fa2e 8dbe
00000290: c4ac bdbd 3f87 bc3e ad21 203e d7df 263d
000002a0: 0254 7a3e 2e8a a3bd a1a9 e93e edc6 af3e
000002b0: 0fc7 abbe 8f6e 393f bc8a b43c 337e 063e
000002c0: 4dfd 9b3c d5f4 093d 5689 5ebc 13d9 753c
000002d0: 115b 403d dca1 1ebe 2143 323e af51 043e
000002e0: 5a97 80be f60c 593e 1d6a e43e be7e b33e
000002f0: b2e4 49be 7050 753e e98b 1cbe 47c1 9ebe
00000300: 13ed 96bc 1167 983d 3ad2 733d 2910 62bd
00000310: 43c3 8fbd c89d 653d 5b51 5bbc 0e24 59be
00000320: 7a80 68bd 7fc9 133e 3573 69be 5a76 f1bd
00000330: 01c5 0dbf 1964 86be 7f10 ba3e fd5c 353f
00000340: 5b63 863e ea6b dabe 7f22 0abc 5f54 f73d
00000350: 1912 52be 579a 6a3e cf20 3a3d f743 e3bd
00000360: 6da1 733e b57b 10bc 510a f53e 0342 f93c
00000370: b127 ffbe 6ff5 56be 5dc9 07be 27b8 80be
00000380: 66aa e9be 46b2 d6bd 808b 593e d578 9f3e
00000390: 6526 5bbe dedf 203e a748 efbe c90c 313e
000003a0: 8995 9b3e f8bc 7cbe a08a 0b3e 5884 d53d
000003b0: ad36 133e e354 7fbe f386 82be 84fd f63d
000003c0: 3804 c13b bf50 9bbd 332d cebb f0aa a0bc
000003d0: 8964 363c 990c 813c b4e5 88be 9e00 b43e
000003e0: cc5a 3cbe dbaa 7a3e 9a41 ab3c a8c8 56be
000003f0: ffe9 e5bb 2f44 a3ba fa6a 09bc a7b5 94bc

i1.bias f4 [128]
-0.3808054 -0.12021695 -0.21268982 -0.26956964 0.034256496 0.31395072 -0.15347591 0.18726198
0.048423216 -0.21402787 0.3131946 -0.08501277 -0.44190022 0.23261705 0.25009942 -0.45802182
-0.07171224 0.04224151 0.010146955 -0.27124804 0.24312672 0.13919373 -0.27181602 0.1385387
0.20742473 0.08136595 0.30215564 0.19748692 -0.11673002 -0.17069903 0.047832 -0.2812184
-0.013978671 0.42221943 0.1876197 -0.06710389 0.1684173 -0.046332702 0.097678944 -0.024190258
0.06338292 -0.096123815 0.019895263 -0.36406782 -0.22065797 0.03520379 -0.051921148 0.081639305
-0.14911306 -0.3933259 0.13778077 -0.15855527 0.19032438 -0.55113107 -0.028599089 -0.0832687
-0.16304098 0.16530341 -0.23173302 0.023121858 -0.20570144 -0.21604696 0.17472164 -0.32352698
0.42568582 0.024891296 -0.11291211 0.263251 -0.10113497 0.06121831 -0.15634981 0.3094526
0.08322565 -0.1258024 0.02819594 0.17625755 0.14965792 -0.46382546 -0.15714073 0.046583176
0.051239662 -0.15715387 0.36805663 0.26633528 -0.369817 -0.19369245 -0.067405544 -0.38267076
0.08103201 0.06394721 -0.22776125 0.29630274 -0.3282497 -0.23798762 0.12107305 0.3456264
0.45688447 -0.09930456 0.12174849 -0.053623896 0.046662364 -0.06604911 0.0895287 0.18231444
0.2018914 0.017637132 -0.06282752 -0.2263922 0.22938865 -0.10776818 -0.13990493 0.20993485
0.45005417 -0.17317677 -0.27243862 -0.2473461 -0.236766 0.15159428 -0.028881785 -0.046330847
-0.024839789 -0.24998799 0.03673317 0.47511438 -0.13237509 -0.39288384 -0.111766264 -0.2344536
00000000: edf8 c2be 4e34 f6bd 5ccb 59be 0805 8abe
00000010: 8a50 0c3d 26be a03e ca28 1dbe 9bc1 3f3e
00000020: 6c57 463d 1f2a 5bbe 0b5b a03e 2d1b aebd
00000030: bf40 e2be 2a33 6e3e 080d 803e d681 eabe
00000040: dedd 92bd 6f05 2d3d 6a3f 263c 06e1 8abe
00000050: 36f6 783e cd88 0e3e 782b 8bbe 17dd 0d3e
00000060: 2667 543e 31a3 a63d 25b4 9a3e 033a 4a3e
00000070: 2610 efbd bacb 2ebe 7deb 433d dcfb 8fbe
00000080: cc06 65bc 252d d83e 611f 403e c46d 89bd
00000090: 9675 2c3e 5cc7 3dbd e60b c83d a62a c6bc
000000a0: e8ce 813d 90dc c4bd 64fb a23c 1967 babe
000000b0: 2af4 61be d931 103d 45ab 54bd 8232 a73d
000000c0: 18b1 18be 0362 c9be 6716 0d3e 505c 22be
000000d0: 65e4 423e ed16 0dbf a348 eabc c888 aabd
000000e0: 37f4 26be 4c45 293e 6c4b 6dbe 0d6a bd3c
000000f0: 66a3 52be 6a3b 5dbe 3bea 323e 54a5 a5be
00000100: 7ef3 d93e d5e8 cb3c 773e e7bd d6c8 863e
00000110: da1f cfbd 0dc0 7a3d 2a1a 20be 9270 9e3e
00000120: 3672 aa3d 58d2 00be 2cfb e63c dc7c 343e
00000130: ed3f 193e 887a edbe 80e9 20be 00ce 3e3d
00000140: aee0 513d f2ec 20be eb71 bc3e 195d 883e
00000150: a758 bdbe 5057 46be eb0b 8abd 6ced c3be
00000160: 1cf4 a53d c1f6 823d 3f3a 69be feb4 973e
00000170: 5810 a8be 07b3 73be 26f5 f73d f2f5 b03e
00000180: c3ec e93e 3060 cbbd 4657 f93d bba4 5bbd
00000190: 0921 3f3d c144 87bd d35a b73d a3b0 3a3e
000001a0: 9fbc 4e3e bf7b 903c b7ab 80bd 5bd3 67be
000001b0: dce4 6a3e 90b5 dcbd 3d43 0fbe 29f9 563e
000001c0: 806d e63e 4055 31be 137d 8bbe 4c48 7dbe
000001d0: c972 72be 883b 1b3e 7e99 ecbc 6ac5 3dbd
000001e0: d07c cbbc dafc 7fbe 8575 163d 3142 f33e
000001f0: 568d 07be 1228 c9be b6e5 e4bd 9b14 70be

i2.weight f4 [128, 128]
-0.05893576 0.023752041 -0.026882984 -0.043874986 0.02254731 0.032848295 0.07358041 -0.036522172
-0.023542382 0.0065527167 -0.024779076 -0.007822039 0.0060974346 0.0597419 -0.02406052 0.02134165
-0.07023428 -0.008716104 -0.015328138 0.053477794 -0.020761479 0.065389924 -0.030461315 0.012339701
0.06132547 -0.023648331 -0.035952788 -0.05584165 0.022652004 0.010946542 -0.03589047 -0.046956256
-0.05960517 0.035546854 -0.036596723 0.021707145 -0.032332845 -0.010978396 0.058618337 -0.07052603
0.03630808 -0.03751248 -0.03140786 -0.017340785 -0.034164306 0.021205565 0.036498345 0.012676668
-0.070959896 0.06978272 -0.02536459 0.017332314 -0.04709005 0.067927666 0.0004968736 0.10643545
-0.05217019 -0.012006011 -0.042617787 0.005095083 0.050461568 -0.08213116 0.028999249 0.03756607
0.016797537 0.013061272 -0.05787269 0.029248977 0.0037828053 -0.06292794 0.077905536 -0.026899366
0.016640035 0.08008843 0.0047212676 0.035934404 -0.04132128 -0.08304976 -0.07439921 0.056735754
0.0039856527 0.06648233 -0.00077111385 -0.05539051 0.006344708 0.04568197 -0.06324757 -0.009813667
0.02200204 -0.014311403 0.013425793 -0.018769266 0.05046024 -0.026286174 -0.009105133 0.0041254624
0.039072048 -0.005552974 -0.010905211 0.011539156 0.071558826 0.03150103 0.04009956 0.033292048
-0.09041758 -0.0715734 0.09046797 0.07966982 0.0077366964 0.043553665 0.018445121 -0.058514312
-0.052495148 0.028032254 0.00570146 0.006922698 0.08134933 -0.020699693 0.016439795 0.034006223
-0.023885027 -0.03136779 -0.0039645894 0.023139102 -0.036216833 -0.05459303 0.0474713 0.016687406
0.04675394 -0.033183984 0.026212225 0.10017815 0.043072976 0.034320593 -0.023726242 -0.07831507
0.0030591057 -0.057477754 -0.030166464 -0.07212321 0.016328622 -0.060827397 -0.039622027 -0.053234346
-0.047440585 0.010666239 -0.07365721 0.0071772262 0.037994064 0.04975819 0.04217726 0.094444826
-0.0466397 -0.009423037 -0.05458968 0.04912761 0.0060735717 -0.04202303 -0.023339605 -0.04792235
0.010928136 0.026556667 -0.0015252227 0.01702129 0.0031804135 -0.08631927 -0.04344504 -0.070738666
-0.03803071 -0.041525666 -0.06401497 0.045593753 0.027606588 -0.020535136 -0.03779163 -0.032790545
0.005466582 -0.06549505 -0.12289988 0.020535564 0.059060194 0.02362883 -0.079414114 -0.030077461
0.06538114 0.04140974 -0.04015882 0.046448674 -0.02442212 -0.056997627 0.03939044 0.0113354195
-0.016957154 0.022928586 -0.017655164 -0.024982987 -0.00011328826 0.067080215 0.04547624 0.05437745
0.0030351002 0.0030435687 0.078458495 0.09075564 0.0098522445 -0.0103525305 0.050340917 0.019067151
-0.058267586 -0.00529135 -0.06762017 -0.061290335 0.053928275 -0.029590912 -0.044743847 0.030894907
-0.018774362 0.08594767 -0.0013561023 0.024333393 0.05515735 -0.09841937 -0.0013313552 -0.03801487
-0.04718482 0.011068942 -0.007613071 -0.040697075 0.022547629 -0.012655623 -0.06117318 0.018818712
-0.036847286 0.026425058 -0.055698134 -0.083613195 0.017026262 0.07774333 -0.026783079 -0.10687822
-0.0030944794 -0.0034729051 -0.041539278 0.06574864 0.060498882 -0.012061398 0.03475957 0.078175396
0.0040157177 -0.03975289 0.05065721 -0.09019948 0.0058616856 -0.028412554 -0.04191867 0.045940287
00000000: a066 71bd a493 c23c b439 dcbc 42b6 33bd
00000010: 23b5 b83c ef8b 063d 53b1 963d 4698 15bd
00000020: f4db c0bc 2cb8 d63b 7dfd cabc 0228 00bc
00000030: fdcc c73b ecb3 743d 911a c5bc afd4 ae3c
00000040: fdd6 8fbd fdcd 0ebc df22 7bbc 880b 5b3d
00000050: fa13 aabc 27eb 853d 028a f9bc 752c 4a3c
00000060: 6b30 7b3d 25ba c1bc 3b43 13bd 37ba 64bd
00000070: b290 b93c 2059 333c e301 13bd 3455 40bd
00000080: 8d24 74bd 9499 113d 72e6 15bd 2fd3 b13c
00000090: 726f 04bd bbde 33bc c819 703d f46f 90bd
000000a0: c8b7 143d b0a6 19bd 87a5 00bd 430e 8ebc
000000b0: dfef 0bbd 4bb7 ad3c 4a7f 153d cdb1 4f3c
000000c0: 6c53 91bd 3eea 8e3d 67c9 cfbc 7ffc 8d3c
000000d0: 7fe1 40bd a91d 8b3d 9f40 023a d4fa d93d
000000e0: 69b0 55bd dcb4 44bc fd8f 2ebd a7f4 a63b
000000f0: cab0 4e3d 6234 a8bd d58f ed3c e1de 193d
00000100: fd9a 893c f2fe 553c ea0b 6dbd 8d9b ef3c
00000110: f1e8 773b 5de0 80bd f08c 9f3d 0f5c dcbc
00000120: af50 883c 6705 a43d ddb4 9a3b f42f 133d
00000130: 8140 29bd fe15 aabd 9d5e 98bd c063 683d
00000140: 149a 823b e327 883d 9324 4aba 29e1 62bd
00000150: 45e7 cf3b 041d 3b3d f187 81bd 81c9 20bc
00000160: 9f3d b43c 607a 6abc dbf7 5b3c 01c2 99bc
00000170: 66af 4e3d 1a56 d7bc b22d 15bc e32e 873b
00000180: 030a 203d b9f5 b5bb c5ab 32bc ba0e 3d3c
00000190: 6f8d 923d 3907 013d 703f 243d 3e5d 083d
000001a0: da2c b9bd 1395 92bd 4547 b93d ee29 a33d
000001b0: 1d84 fd3b 5465 323d 391a 973c b4ac 6fbd
000001c0: 2705 57bd e6a3 e53c 50d3 ba3b cdd7 e23b
000001d0: 7a9a a63d 6792 a9bc c0ac 863c 1c4a 0b3d
000001e0: 88aa c3bc 837b 00bd 63e9 81bb 378e bd3c
000001f0: 1a58 14bd f19c 5fbd 4471 423d 07b4 883c
00000200: 0f81 3f3d eeeb 07bd 05bb d63c 342a cd3d
00000210: 4a6d 303d c093 0c3d 895d c2bc a763 a0bd
00000220: 477b 483b cb6d 6bbd a91f f7bc 55b5 93bd
00000230: 9ac3 853c 2626 79bd b54a 22bd 420c 5abd
00000240: 0f51 42bd 73c1 2e3c 97d9 96bd f02e eb3b
00000250: aa9f 1b3d 3ecf 4b3d 10c2 2c3d 4a6c c13d
00000260: 4509 3fbd 1563 1abc 6e99 5fbd 083a 493d
00000270: d004 c73b 5720 2cbd b332 bfbc 3a4a 44bd
00000280: ed0b 333c 5e8d d93c fbe9 c7ba 3b70 8b3c
00000290: 7c6e 503b 28c8 b0bd 6df3 31bd 6fdf 90bd
000002a0: 17c6 1bbd d116 2abd 481a 83bd 84c0 3a3d
000002b0: 3627 e23c 4d39 a8bc 65cb 1abd 614f 06bd
000002c0: 0321 b33b 4522 86bd efb2 fbbd 333a a83c
000002d0: 1ae9 713d 4091 c13c dea3 a2bd 0265 f6bc
000002e0: 8ce6 853d 429d 293d 937d 24bd f740 3e3d
000002f0: e610 c8bc 5876 69bd df57 213d 32b8 393c
00000300: bbe9 8abc bbd4 bb3c 90a1 90bc 1fa9 ccbc
00000310: 2c95 edb8 5a61 893d 4b45 3a3d e4ba 5e3d
00000320: 88e8 463b 9c76 473b d9ae a03d 18de b93d
00000330: 4f6b 213c a99d 29bc 4732 4e3d b732 9c3c
00000340: fea9 6ebd 1063 adbb 727c 8abd 930b 7bbd
00000350: e5e3 5c3d a468 f2bc 5345 37bd 5117 fd3c
00000360: b1cc 99bc 5505 b03d 3ebf b1ba d356 c73c
00000370: acec 613d 1890 c9bd de80 aeba 7bb5 1bbd
00000380: df44 41bd 825a 353c 1177 f9bb fab1 26bd
00000390: ceb5 b83c 8859 4fbc ba90 7abd b329 9a3c
000003a0: 2eed 16bd 5d79 d83c ba23 64bd 653d abbd
000003b0: a97a 8b3c e537 9f3d 3068 dbbc f8e2 dabd
000003c0: c0cc 4abb ae99 63bb 1725 2abd 39a7 863d
000003d0: adcd 773d 2b9d 45bc 0d60 0e3d 6c1a a03d
000003e0: 4896 833b edd3 22bd ef7d 4f3d 81ba b8bd
000003f0: 6213 c03b 72c1 e8bc e9b2 2bbd e22b 3c3d

i2.bias f4 [128]
-0.06686055 -0.049567103 -0.23015712 -0.03201636 0.0035737604 0.00078953046 -0.058812782 0.017848369
-0.04068122 -0.025457328 0.030281922 -0.053973034 1.1752348 0.036715247 0.03616761 0.024658015
0.0017056116 0.008580275 0.07398511 0.0016285826 0.042222954 0.48607337 0.0055428008 0.06885159
0.034777667 -0.0505599 -0.34154782 -0.03915276 -0.03401685 -0.9157583 0.018541148 0.023966812
0.11389192 -0.08532426 0.17014116 -0.22969915 0.04401378 -0.06802285 -1.2443923 -0.04787685
-0.0025625813 1.2028028 -0.0778531 0.61460906 -0.0713755 -0.05775163 0.4037809 0.036587626
-0.06497207 -0.87992483 -7.480665e-05 -0.09882278 0.057643574 -0.069633394 -0.021630414 -0.0131995
0.25545996 -0.24959625 -0.037350662 -0.044935714 0.43070674 -1.1705667 0.0050206617 0.41250715
0.05789526 0.038229812 -0.41038743 -0.040352266 0.0510059 0.013546646 0.0014204727 0.07956509
-0.055319212 -0.013756222 -0.06809644 0.034888294 0.04544303 -0.06393887 -0.08820416 -0.017246753
-0.053549547 0.030607983 0.117523156 0.008874641 0.06551308 -0.0049379333 0.0122897625 0.08462598
0.021285428 0.010179987 0.07109614 -1.1921377 -0.060335655 0.05874937 -0.05137314 0.24369909
0.028739966 -0.10238431 1.1510766 0.07240183 -0.051801562 0.007524599 -0.0037608696 -0.6880243
0.14305831 0.089656994 0.011558694 -0.09475261 -0.67178774 0.045924406 0.0043672165 0.04708839
-0.8055386 -1.1695671 -0.07837938 0.36518362 -0.23125201 0.016394218 0.94628435 -0.19555251
0.41607693 -0.046907503 0.0901427 0.41923836 0.009062916 -1.2481966 -0.05657575 0.04270347
00000000: 2fee 88bd e006 4bbd 4fae 6bbe 9623 03bd
00000010: c035 6a3b 7ef8 4e3a ace5 70bd be36 923c
00000020: 5aa1 26bd e38b d0bc cb11 f83c d412 5dbd
00000030: 186e 963f ba62 163d 7d24 143d 9bff c93c
00000040: d48e df3a 4894 0c3c 8185 973d 2a76 d53a
00000050: faf1 2c3d 9cde f83e 62a0 b53b 1002 8d3d
00000060: 0773 0e3d e617 4fbd 5bdf aebe a55e 20bd
00000070: 4155 0bbd 236f 6abf 9be3 973c 0c56 c43c
00000080: 2b40 e93d 7cbe aebd 7c39 2e3e 4136 6bbe
00000090: cb47 343d 904f 8bbd 3f48 9fbf 841a 44bd
000000a0: fbf0 27bb 71f5 993f 7271 9fbd 0557 1d3f
000000b0: 512d 92bd f98c 6cbd 5fbc ce3e e8dc 153d
000000c0: 1410 85bd c142 61bf 84e1 9cb8 9963 cabd
000000d0: ab1b 6c3d f49b 8ebd 4432 b1bc b742 58bc
000000e0: a6cb 823e 2996 7fbe 02fd 18bd 830e 38bd
000000f0: 9885 dc3e 21d5 95bf 5d84 a43b 2334 d33e
00000100: 9523 6d3d dd96 1c3d 4d1e d2be 6b48 25bd
00000110: 90eb 503d c0f2 5d3c 282f ba3a 06f3 a23d
00000120: 6696 62bd c761 61bc 2576 8bbd 07e7 0e3d
00000130: 7822 3a3d 62f2 82bd 62a4 b4bd 1049 8dbc
00000140: c556 5bbd 98bd fa3c fbaf f03d f166 113c
00000150: b92b 863d 63ce a1bb 005b 493c 6350 ad3d
00000160: c75e ae3c f6c9 263c da9a 913d f897 98bf
00000170: 8522 77bd 2ea3 703d a46c 52bd 418c 793e
00000180: 1470 eb3c ddae d1bd 7a56 933f 6947 943d
00000190: e02d 54bd e990 f63b ec78 76bb 5c22 30bf
000001a0: e17d 123e 169e b73d ad60 3d3c a80d c2bd
000001b0: 48fa 2bbf 3b1b 3c3d de1a 8f3b c1df 403d
000001c0: c737 4ebf 60b4 95bf 5e85 a0bd 59f9 ba3e
000001d0: 54cd 6cbe 2b4d 863c b13f 723f eb3e 48be
000001e0: 0908 d53e 1522 40bd bc9c b83d 69a6 d63e
000001f0: a07c 143c e8c4 9fbf f9bb 67bd d5e9 2e3d

i3.weight f4 [2, 128]
-0.0017181966 -0.0074025015 0.15183172 0.006228384 0.009490073 -0.010148966 0.0007637643 0.0055170935
0.0033934047 -0.0020897267 -0.002528774 0.0017234519 -0.20479877 -0.0034488775 0.008804603 -0.0041271034
0.0007571737 -0.005802259 -0.004444845 -0.0033478783 0.0046224836 -0.23721837 -0.26543775 -0.0037953912
-0.002306113 0.0039551957 -0.09673229 -0.00260673 8.26444e-05 0.09455287 -0.001898865 -0.0010830464
-0.003999289 -0.0072416468 -0.18670705 -0.025933167 0.0008218995 -0.004296155 0.23997039 3.252644e-06
0.010072551 -0.20391774 -0.00039290427 -0.059543766 0.0071704388 -0.0044020647 -0.19794337 -0.0021132315
0.0041455245 0.1171592 -0.0022754606 0.0053169695 -0.010430776 0.0018786597 0.0020728153 0.0037529136
0.18680713 0.037931655 0.010674205 0.0006080411 -0.27838057 0.21641605 5.8265927e-05 0.14491996
-0.0020519511 -0.0041097677 0.17534709 0.00081468414 -0.00912438 0.0028841742 -0.0051927743 -0.0054383185
-0.0025646403 0.010832493 0.0036192348 0.0017800403 0.003395003 0.0049562166 0.0058533573 0.002327544
-0.00082407333 0.0037942133 -0.06582151 0.004714431 -0.007440715 -0.094152644 0.006045579 -0.0039924337
0.001849144 0.0022395626 -0.005989123 0.23290494 0.0031623268 -0.0060581607 -0.0011329759 0.24888247
0.0017365165 0.0029815645 -0.25125968 -0.00505308 -0.0015247521 0.00075117673 0.22102368 -0.028631622
0.26892754 -0.009307584 -0.009048382 0.0066360966 -0.009436318 -0.007566452 -0.0010235823 -0.006214671
0.14380062 0.22628072 0.0027386416 -0.23234597 0.0053711054 0.002050119 -0.07312068 0.3465694
-0.035050478 -0.006076485 0.0019934673 -0.2619607 -0.009636377 0.17896192 0.00195779 0.29926667
-0.00075717585 -0.012428968 -0.008106708 0.002514216 0.0058085336 -0.009822028 -0.0005878639 -0.004117335
0.0019286968 0.00032521648 -0.0035024628 -0.002606859 -0.10438101 -0.0013323041 0.41549936 0.0004744731
-0.0029699751 0.0025666326 0.0012583138 0.0015086514 0.00963256 -0.082588434 0.21186617 -0.0002000585
-0.0024344742 0.00092267647 0.30037653 0.0012005018 0.0011862265 0.09870588 -0.0033009502 -0.0023907837
-0.070145406 0.007219512 -0.098393105 0.24693938 -0.0024903086 -0.0061404724 0.12051929 -0.0032625347
0.020605367 -0.09042718 -0.0002334191 0.1089737 -0.0028848052 7.3236784e-05 -0.013357872 0.0007635255
-0.012421688 -0.057887085 0.0029999346 -0.000620033 -0.0039465185 -0.0018127298 0.008852066 0.0034859565
-0.32882774 0.0010216071 0.0053625554 0.0022248344 0.3354671 0.09335644 -0.0010885183 -0.1615069
0.0015123542 0.00089445163 -0.10913013 0.0030502924 0.0057957256 0.0029640931 0.0025990084 -9.9974626e-05
-0.0030180404 0.0061310246 -0.0021685876 -0.004533917 0.0010104381 0.0028151881 0.022099467 -0.0023126479
-0.0022731205 0.0013588642 -0.00096701307 -0.00495939 -0.020384105 -0.0073592504 -0.0015905992 0.0016013399
-0.0016625094 -0.0009912465 -0.0063244263 0.117551915 -0.001211636 -0.0033447566 -0.00086650514 -0.12721746
-0.0028240655 0.0040635504 -0.15819441 -0.0020754857 0.0014338144 -0.0011853804 -0.11347847 0.2295044
-0.037739173 -2.0273037e-06 -0.015258731 0.006268141 0.09418423 -0.008736655 -0.00050915754 -0.005697399
0.16370656 0.13281025 0.000214194 0.00241027 -0.0066569643 -0.0031424079 -0.32129523 0.016762689
0.06422999 0.00037726614 -0.0023652632 0.0014551749 -0.010984471 0.068343304 -0.0017544569 -0.0333294
00000000: 1c35 e1ba af90 f2bb c679 1b3e 7917 cc3b
00000010: 407c 1b3c d947 26bc 5b37 483a bcc8 b43b
00000020: e263 5e3b ccf3 08bb cab9 25bb 73e5 e13a
00000030: c5b6 51be 9006 62bb 2e41 103c a73c 87bb
00000040: 117d 463a e020 bebb 10a6 91bb 1468 5bbb
00000050: 3478 973b 5fe9 72be 75e7 87be 19bc 78bb
00000060: 2822 17bb 969a 813b 941b c6bd acd5 2abb
00000070: 6051 ad38 efa4 c13d 56e3 f8ba 02f5 8dba
00000080: 780c 83bb 564b edbb 2230 3fbe cb71 d4bc
00000090: be74 573a c3c6 8cbb ccba 753e 0048 5a36
000000a0: 5707 253c d0cf 50be b8fe cdb9 2ae4 73bd
000000b0: 00f6 ea3b 323f 90bb abb1 4abe 247e 0abb
000000c0: 2ed7 873b 2af1 ef3d e51f 15bb f939 ae3b
000000d0: d8e5 2abc 5c3d f63a 12d8 073b 71f3 753b
000000e0: 5e4a 3f3e 395e 1b3d dce2 2e3c f364 1f3a
000000f0: e687 8ebe 2b9c 5d3e 9062 7438 e665 143e
00000100: 077a 06bb 3bab 86bb 308e 333e 8790 553a
00000110: 6c7e 15bc 6a04 3d3b 2628 aabb ec33 b2bb
00000120: 8613 28bb c57a 313c af30 6d3b 3e50 e93a
00000130: b37e 5e3b c267 a23b 85cd bf3b b589 183b
00000140: a006 58ba 56a8 783b 6ecd 86bd 837b 9a3b
00000150: 3ed1 f3bb 1ad3 c0bd fe19 c63b f6d2 82bb
00000160: fa5e f23a a0c5 123b 6840 c4bb a27e 6e3e
00000170: 0a3f 4f3b 8983 c6bb 5d80 94ba 0cdb 7e3e
00000180: d39b e33a 5a66 433b 1ca5 80be 4f94 a5bb
00000190: 31da c7ba 9eea 443a 0854 623e dd8c eabc
000001a0: dfb0 893e d67e 18bc aa3f 14bc 9d73 d93b
000001b0: c99a 1abc 00f0 f7bb b929 86ba 70a4 cbbb
000001c0: 7840 133e 22b6 673e c87a 333b 1aec 6dbe
000001d0: 1900 b03b 4a5b 063b 4cc0 95bd 8b71 b13e
000001e0: 1791 0fbd 401d c7bb d5a4 023b b61f 86be
000001f0: e5e1 1dbc cb41 373e 444e 003b 7b39 993e
00000200: 367d 46ba dfa2 4bbc ffd1 04bc 8bc5 243b
00000210: 8355 be3b 92ec 20bc e11a 1aba b6ea 86bb
00000220: 53cc fc3a d181 aa39 9389 65bb d6d7 2abb
00000230: b6c5 d5bd b5a0 aeba 55bc d43e b4c2 f839
00000240: eaa3 42bb f334 283b 01ee a43a f1bd c53a
00000250: e3d1 1d3c 2024 a9bd 72f3 583e cbc6 51b9
00000260: b38b 1fbb c5df 713a f4ca 993e 285a 9d3a
00000270: 287b 9b3a 4f26 ca3d c154 58bb b2ae 1cbb
00000280: 65a8 8fbd a891 ec3b 5382 c9bd addd 7c3e
00000290: 7234 23bb 0436 c9bb d1d2 f63d 40d0 55bb
000002a0: 96cc a83c e331 b9bd f6c1 74b9 9a2d df3d
000002b0: 000f 3dbb b396 9938 fada 5abc 5427 483a
000002c0: 5684 4bbc 021b 6dbd 8d9a 443b b689 22ba
000002d0: cc51 81bb 1e99 edba 4108 113c a574 643b
000002e0: 1c5c a8be 72e7 853a 60b8 af3b 87ce 113b
000002f0: 58c2 ab3e a931 bf3d 9dac 8eba 1162 25be
00000300: 303a c63a a279 6a3a 9e7f dfbd 6ae7 473b
00000310: 12ea bd3b 3b41 423b 2054 2a3b 78a9 d1b8
00000320: 51ca 45bb c3e6 c83b dd1e 0ebb 4191 94bb
00000330: ad70 843a 057f 383b f109 b53c cb8f 17bb
00000340: a2f8 14bb eb1b b23a 267f 7dba 6182 a2bb
00000350: 91fc a6bc de25 f1bb a77b d0ba 0de4 d13a
00000360: 8fe8 d9ba b7ec 81ba 223d cfbb 0fbf f03d
00000370: c2cf 9eba b433 5bbb 2d26 63ba 4b45 02be
00000380: f513 39bb 8827 853b b7fd 21be df04 08bb
00000390: d4ee bb3a c45e 9bba 6667 e8bd 3403 6b3e
000003a0: 6494 1abd d00c 08b6 c2ff 79bc fa64 cd3b
000003b0: a9e3 c03d 3024 0fbc fc78 05ba 3fb1 babb
000003c0: b1a2 273e 69ff 073e 4499 6039 9ff5 1d3b
000003d0: aa22 dabb dbf0 4dbb cf80 a4be e851 893c
000003e0: 038b 833d cecb c539 8802 1bbb 91bb be3a
000003f0: 36f8 33bc 93f7 8b3d cef5 e5ba 6984 08bd

i3.bias f4 [2]
-0.08472803 -0.16229281
00000000: e485 adbd 1630 26be
