aes_rl/checkpoint/diseasemutation_seed1_bcq_q.ckpt (torch, 72471 bytes, 6 tensors)

q1.weight f4 [128, 6]
0	0x3ef06a34	0.46956027
1	0xbed95ed1	-0.42455152
2	0xbd63013c	-0.0554211
3	0x3d491f16	0.04910191
4	0x3c4f1c39	0.012641006
5	0xbd089b85	-0.03335144
6	0xbecb0bee	-0.3965754
7	0x3f05f9e2	0.52334416
8	0x3d4ccc64	0.04999961
9	0xbd5b929b	-0.05360661
10	0xbb0635da	-0.0020478875
11	0x3d21a388	0.039462596
12	0xbf3251b9	-0.6965595
13	0x3ebdae93	0.37047252
14	0xbecde542	-0.40213972
15	0xbe403192	-0.1876891
16	0x3ed7ae6d	0.42125264
17	0x3e05603c	0.13024992
18	0xbeb213eb	-0.3478082
19	0x3e51242a	0.20423952
20	0xbe90f739	-0.28313616
21	0xbe85e9b6	-0.2615487
22	0xbdc84838	-0.097794
23	0x3e696ed3	0.22796182
24	0x3f1949f1	0.5987845
25	0xbea0b517	-0.3138816
26	0xbe564917	-0.20926319
27	0x3e239e59	0.15978374
28	0xbe0653e7	-0.13117944
29	0xbe7b9b89	-0.2457105
30	0xbee18034	-0.44043124
31	0x3f0f1b6b	0.5590121
32	0xbbbc9ad3	-0.005755761
33	0xbe8c3d97	-0.2739074
34	0x3c9d8580	0.019228697
35	0x3e1005e3	0.14064746
36	0x3ea0a26e	0.31373924
37	0xbdaddd74	-0.084895045
38	0xbd26701c	-0.04063426
39	0x3d690c73	0.056896638
40	0xb8c629fe	-9.4491974e-05
41	0xbd1ed61f	-0.03877842
42	0x3e95d048	0.29260468
43	0xbe545980	-0.20737267
44	0xbd216599	-0.03940353
45	0x3d435ca3	0.047695767
46	0xbc19e193	-0.00939216
47	0xbd1e34f0	-0.038624704
48	0x3e8080dc	0.25098312
49	0x3d16667f	0.03671884
50	0xbd24fc18	-0.040279478
51	0x3d4d2670	0.050085485
52	0xbc282097	-0.010261676
53	0xbd23c5cb	-0.039983552
54	0x3f289a2a	0.65860236
55	0x3d313b31	0.04326934
56	0xbeb755a6	-0.35807532
57	0xbf133b3f	-0.5751228
58	0xbf024827	-0.50891346
59	0x3e874897	0.2642257
60	0x3eb51fe7	0.35375902
61	0xbda664e6	-0.081247136
62	0xbd40200c	-0.046905562
63	0x3d5b823f	0.05359101
64	0x3b357b02	0.0027691727
65	0xbd12e77c	-0.035865292
66	0xbf008463	-0.50202006
67	0x3e08b41f	0.1334996
68	0xbeca4d9a	-0.3951233
69	0x3e612318	0.21986043
70	0x3cc29f52	0.02375761
71	0x3edded8b	0.43345293
72	0x3eb95bf3	0.36202964
73	0x3e5edd1d	0.21764036
74	0xbd7ae596	-0.061254106
75	0x3d078adc	0.03309141
76	0x3adc9b16	0.0016830887
77	0xbd8c0d16	-0.068384334
78	0xbe9d7ce1	-0.30759338
79	0x3ebf082d	0.37310925
80	0xbe4463e4	-0.1917873
81	0xbec4cb35	-0.38436285
82	0x3e16533f	0.14680193
83	0x3dfcb0a1	0.12338377
84	0x3ebe4efb	0.37169632
85	0xbeef0f00	-0.46691132
86	0x3ee2fd60	0.44333935
87	0x3dd78da1	0.105250604
88	0x3d185ea3	0.037199628
89	0xbebb9001	-0.36633304
90	0x3ec811fc	0.3907622
91	0xbd25947f	-0.04042482
92	0xbec5abeb	-0.38607726
93	0xbbec139b	-0.0072044856
94	0xbd0ed574	-0.034871534
95	0xbdfa6272	-0.12225808
96	0x3ef4a263	0.4778014
97	0xbe8347b5	-0.25640646
98	0xbd655681	-0.0559907
99	0x3d4d7fc5	0.05017068
100	0x3c224c0e	0.009905828
101	0xbd20da96	-0.03927096
102	0x3edc1a79	0.42988947
103	0xbeb6007d	-0.35547248
104	0xbd02cf70	-0.03193611
105	0x3d465bc4	0.04842736
106	0x3aa8df15	0.0012883866
107	0xbd3c411f	-0.04596054
108	0x3f25f8b4	0.64832616
109	0xbd551b7d	-0.052028168
110	0x3e134eca	0.14385524
111	0x3e366731	0.17812802
112	0x3e026aae	0.12736008
113	0xbec06937	-0.37580273
114	0x3ec974ad	0.3934683
115	0xbec88fdd	-0.3917226
116	0xbd4f7438	-0.050647944
117	0x3d6c21d6	0.057649456
118	0x3b81025a	0.003937048
119	0xbd2a337e	-0.041553013
120	0xbebb4197	-0.3657348
121	0x3e9ce7a2	0.30645472
122	0xbe3331cc	-0.17499465
123	0xbecd1961	-0.40058425
124	0x3d838605	0.064220466
125	0x3ee36e08	0.44419885
126	0x3eea084f	0.45709464
127	0xbea2e050	-0.31811762
128	0x3c79f0e3	0.015255186
129	0x3dbc20bf	0.09185933
130	0xbce7bc98	-0.02828817
131	0xbd6879cf	-0.05675679
132	0xbe2ee11d	-0.17078061
133	0x3de5cddc	0.11220905
134	0xbca48fab	-0.020088037
135	0x3b5ccf10	0.0033692755
136	0xbcf080eb	-0.029358348
137	0xbc6f825f	-0.014618485
138	0xbf006e8c	-0.5016868
139	0xbe418904	-0.18899924
140	0x3f078a74	0.5294564
141	0x3e3545e3	0.17702441
142	0xbd9473a7	-0.072486214
143	0x3c403f67	0.011733866
144	0x3f0e474f	0.5557756
145	0xbec393c0	-0.38198662
146	0x3da9dab8	0.082936704
147	0x3e35d78a	0.17758003
148	0x3c837368	0.01604624
149	0xbdbd3fac	-0.0924066
150	0xbe76b0ff	-0.24090956
151	0x3e4d3c15	0.2004245
152	0x3d1f118c	0.038835093
153	0xbd82a1b0	-0.06378496
154	0x3b5f412b	0.0034065943
155	0x3d256f8a	0.040389575
156	0x3f442820	0.76623726
157	0x3e5dc4db	0.21657126
158	0xbe99efb5	-0.30065694
159	0xbf380fa2	-0.71898854
160	0xbf1e2a17	-0.61782974
161	0x3e2f3aa8	0.1711222
162	0xbeca46e0	-0.39507198
163	0x3f1f9a68	0.6234498
164	0xbed0c981	-0.40778735
165	0xbd0b1fc8	-0.033965856
166	0xbe0847c5	-0.13308628
167	0x3ebbcfb9	0.36681917
168	0xbf64cd21	-0.893755
169	0xbe57f9d9	-0.21091403
170	0xbdcdf6e9	-0.1005686
171	0x3ebe110a	0.37122375
172	0x3f135a43	0.57559603
173	0xbc9dc7f9	-0.019260393
174	0xbee66c0e	-0.45004314
175	0x3ebc4696	0.36772603
176	0x3d5b12cc	0.053484723
177	0xbd64f120	-0.055894017
178	0xbc070c9c	-0.008242752
179	0x3d210666	0.039312743
180	0x3e9077dd	0.28216448
181	0xbe87a5ac	-0.26493585
182	0xbd121d53	-0.035672497
183	0x3d6b924c	0.057512566
184	0xbbda87cd	-0.0066690207
185	0xbd26fa96	-0.04076632
186	0xbec96cc0	-0.39340782
187	0x3d2f364d	0.042776395
188	0x3d6101a8	0.05493322
189	0xbd654140	-0.05597043
190	0xbbf1421a	-0.0073626162
191	0x3d1b146a	0.037861265
192	0x3eaa5bd4	0.33273184
193	0xbeb9fddd	-0.36326495
194	0x3bc96213	0.0061457246
195	0xbbf5d48c	-0.007502144
196	0x3cc9cc69	0.024633603
197	0xbae5333a	-0.001748658
198	0xbf0cb369	-0.5496126
199	0xbe28589b	-0.1644005
200	0x3f23e93e	0.64027774
201	0x3e271c54	0.163194
202	0xbd2f3842	-0.04277826
203	0x3dd84340	0.10559702
204	0xbf314fd1	-0.69262415
205	0xbc3d9d1b	-0.011573101
206	0xbe43f6a6	-0.19137058
207	0xbdb630c2	-0.088960186
208	0x3e7f7e93	0.24950628
209	0x3eead12c	0.4586271
210	0x3eabb975	0.3353993
211	0x3e0ea620	0.13930559
212	0xbd3fd29e	-0.04683172
213	0x3d56ed88	0.05247262
214	0xbb289533	-0.0025723695
215	0xbd225434	-0.039631084
216	0xbf3410d0	-0.70338154
217	0xbe24c203	-0.16089635
218	0x3f13dbfa	0.5775753
219	0xbeec9cb1	-0.46213296
220	0xbf9710bb	-1.1801981
221	0x3e9286df	0.28618523
222	0xbe9a4981	-0.30134204
223	0xbe07bfd0	-0.13256764
224	0x3d72749a	0.05919323
225	0xbd3461fd	-0.04403876
226	0xbc6b370c	-0.014356386
227	0x3cf02049	0.02931227
228	0x3f10b96e	0.56532943
229	0xbc131a4c	-0.008978438
230	0x3ed933ed	0.4242243
231	0xbeb8ceb1	-0.36095193
232	0x3ca04914	0.019566096
233	0xbf0d6d1b	-0.55244607
234	0x3ee936fe	0.45549768
235	0xbe6cfb15	-0.23142655
236	0xbd335df5	-0.043790776
237	0x3ef2751d	0.47354975
238	0xbe49b7e8	-0.19699061
239	0xbeb63397	-0.35586235
240	0x3f1f9fa3	0.6235296
241	0x3e29302e	0.16522285
242	0xbf2ccdfe	-0.6750182
243	0xbf258a5f	-0.6466426
244	0xbd80ed5b	-0.06295272
245	0x3e2fc87b	0.17166321
246	0xbf08810d	-0.53321916
247	0x3b528bda	0.0032126815
248	0x3d8006df	0.062513106
249	0xbd133ff7	-0.035949674
250	0xbc378af1	-0.01120256
251	0x3d0b5039	0.034012053
252	0xbf4aa787	-0.79161876
253	0x3d085071	0.03327984
254	0x3f25f6d6	0.64829767
255	0xbc48da98	-0.012259148

q1.bias f4 [128]
0	0xb9d39dc5	-0.00040362604
1	0xbe2eaf31	-0.17059018
2	0xbd66e93e	-0.05637478
3	0x3ee802b5	0.45314565
4	0x3db21887	0.086960845
5	0xbe179c6a	-0.14805761
6	0xbe469969	-0.19394459
7	0xbd3d8285	-0.04626705
8	0xbe7da3d6	-0.2476953
9	0x3e248a08	0.1606828
10	0xbe6d36f4	-0.23165494
11	0x3e9dec76	0.30844468
12	0xbf00d369	-0.50322586
13	0x3ed3a915	0.41339937
14	0xbe73bf1b	-0.2380337
15	0x3ddbae08	0.10726553
16	0xbe3097e4	-0.17245442
17	0xbd1f5bf4	-0.038906053
18	0xbf0d518d	-0.5520256
19	0x3d2e8130	0.04260367
20	0x3e3fb05e	0.18719622
21	0xbe0a1783	-0.13485532
22	0x3dba8ef5	0.09109298
23	0x3e3a7bef	0.1821134
24	0xbe7b7e53	-0.24559908
25	0x3bb8ead0	0.005643226
26	0x3e622935	0.22086032
27	0x3e2186c9	0.15774073
28	0x3db5b22d	0.08871875
29	0x3d1e0f9c	0.038589105
30	0x3c829844	0.015941747
31	0x3e9c532a	0.305322
32	0x3ca14217	0.019684834
33	0x3c13cb5c	0.009020653
34	0x3ed1af85	0.40954223
35	0xbedcc45f	-0.4311857
36	0x3da2d181	0.07950116
37	0x3ec686e6	0.38774794
38	0xbebbcbf6	-0.36679047
39	0xbe885619	-0.26628187
40	0x3e7cb5bd	0.24678703
41	0x3ef4cd58	0.47812915
42	0xbe72a550	-0.23695874
43	0x3f17e9e2	0.5934125
44	0xbe03a5be	-0.12856194
45	0x3e64d44c	0.2234661
46	0x3d2c85d6	0.042119823
47	0xbc048cc3	-0.008090201
48	0xbf0da694	-0.55332303
49	0x3dac92b4	0.08426419
50	0x3e2a216b	0.1661431
51	0x3ec34c33	0.38144073
52	0x3e677b49	0.22605623
53	0xbee1e71e	-0.4412164
54	0x3e76203f	0.24035738
55	0x3db6a7d2	0.08918728
56	0x3d6e44c7	0.05817106
57	0x3f321fb4	0.69579625
58	0x3e8c6880	0.27423477
59	0xbd523dfb	-0.05132864
60	0x3f044dad	0.51681024
61	0xbe89baff	-0.2690048
62	0x3f04c572	0.5186378
63	0x3c919f3a	0.01777612
64	0xbddce9bd	-0.107867695
65	0xbc211d2c	-0.009833615
66	0x3dde3e51	0.1085173
67	0xbe21612e	-0.15759727
68	0xbd051c4f	-0.0324977
69	0x3b9f71d5	0.0048658648
70	0xbe09661f	-0.13417862
71	0x3daf1bb5	0.085502066
72	0x3ef6d02e	0.48205703
73	0x3f1bde02	0.6088563
74	0xbed18052	-0.40918213
75	0x3f9af19c	1.2104983
76	0x3e8a88bd	0.27057448
77	0x3ec7360d	0.38908425
78	0xbefecdab	-0.49766287
79	0x3e5e138b	0.21687143
80	0x3e39fb04	0.18162161
81	0x3ed9b802	0.425232
82	0x3e102cda	0.1407961
83	0x3e6fda90	0.23423219
84	0x3e808f1d	0.25109187
85	0x3e0354a7	0.12825261
86	0x3e2e12e8	0.169994
87	0xbede5364	-0.43422997
88	0xbed241ef	-0.41065928
89	0xbe49a275	-0.19690879
90	0xbe320e12	-0.1738818
91	0xbe843198	-0.25819087
92	0xbec7ecaf	-0.39047763
93	0x3e73846c	0.23780984
94	0xbd80725b	-0.062718116
95	0x3e8d3bb2	0.27584606
96	0xbdaa98d2	-0.083299294
97	0xbd3d5f62	-0.046233542
98	0x3e295e7d	0.1653995
99	0x3e500bba	0.20316973
100	0x3ea9f506	0.3319475
101	0x3ec53736	0.38518685
102	0x3e744328	0.23853743
103	0x3e0f2343	0.13978295
104	0xbc30f136	-0.010799697
105	0xbe82739f	-0.25478837
106	0xbe48378b	-0.19552438
107	0xbd69ea4b	-0.057108205
108	0xbe9b7a92	-0.3036695
109	0x3e9b3ce2	0.30319887
110	0x3eb7ec55	0.35922495
111	0xbe6281bd	-0.22119804
112	0x3ec67bb7	0.38766262
113	0x3d064151	0.032777134
114	0x3e4e7af2	0.20164087
115	0xbe1aa5c1	-0.15102293
116	0xbef8d074	-0.48596537
117	0x3e9af3ac	0.30264032
118	0x3e693568	0.22774279
119	0xbe54d719	-0.20785178
120	0xbd96315b	-0.073336326
121	0xbe25db69	-0.1619698
122	0x3dc62429	0.09674866
123	0x3e612b89	0.21989264
124	0xbe6a2c6a	-0.22868505
125	0x3f92e005	1.1474615
126	0xbea961b4	-0.33082354
127	0xbcac7402	-0.02105141

q2.weight f4 [128, 128]
0	0x3ee5cecf	0.44884345
1	0xbec07bad	-0.37594357
2	0xbf47cf9e	-0.78051174
3	0xbe9cca92	-0.306233
4	0x3de09c70	0.10967338
5	0xbf506d45	-0.8141673
6	0x3ee44aab	0.44588217
7	0x3e73153c	0.23738569
8	0x3ead61e1	0.33863738
9	0x3ec0d520	0.376626
10	0x3e912cd9	0.2835453
11	0xbe2dabda	-0.16960087
12	0x3de21fef	0.11041247
13	0x3ed4c508	0.41556573
14	0x3e3d6ac3	0.18497758
15	0x3d2a86cf	0.04163247
16	0x3e9af385	0.30263916
17	0x3ddf231e	0.1089537
18	0x3f16289d	0.5865572
19	0x3ec52459	0.38504294
20	0xbd0ec55c	-0.034856185
21	0x3f15428c	0.5830467
22	0xbf1720f3	-0.5903465
23	0xbf1a18ab	-0.6019389
24	0x3ea551b6	0.32288903
25	0xbebd9a96	-0.37032002
26	0x3f0126ed	0.5045002
27	0xbe57a9ef	-0.21060918
28	0xbf63945a	-0.8889824
29	0xbe4ea25a	-0.2017912
30	0x3ef41a5a	0.47676355
31	0xbef9f2b1	-0.4881797
32	0x3f572544	0.8404124
33	0xbf098637	-0.5372042
34	0xbeb9d05a	-0.36291772
35	0x3eb388ce	0.3506531
36	0xbf8edce5	-1.1161162
37	0xbf308d49	-0.68965584
38	0x3ec66078	0.38745475
39	0xbedd92c7	-0.43276045
40	0x3f282f57	0.65697235
41	0xbf0ec747	-0.55772823
42	0xbf9b7a01	-1.2146608
43	0x3e859b39	0.26094988
44	0xbe33a0cf	-0.17541812
45	0xbe9313a9	-0.28725937
46	0x3f051303	0.51982135
47	0x3e8fe09c	0.2810105
48	0x3e018ee0	0.12652159
49	0x3face171	1.3506299
50	0x3f0176ae	0.50571716
51	0x3d40550e	0.046956114
52	0x3af6bc32	0.0018824397
53	0x3f06ec2c	0.5270412
54	0xbef05f9d	-0.46947947
55	0xbeb86d42	-0.36020857
56	0xbe303257	-0.17206703
57	0x3ed5c62d	0.4175276
58	0xbef1383e	-0.47113222
59	0xbf4b48b2	-0.794078
60	0xbf2abe8b	-0.66696995
61	0xbe5c27dc	-0.2149958
62	0xbed9a454	-0.42508185
63	0xbf22a212	-0.6352855
64	0x3f53a447	0.8267254
65	0xbc3abf4c	-0.011398148
66	0x3f0b6c48	0.544621
67	0xbf63865d	-0.888769
68	0x3f57d2d4	0.84306073
69	0xbe8dff83	-0.27734002
70	0x3ec940a6	0.39307135
71	0xbf4ef36b	-0.80840176
72	0x3f0cfc7e	0.5507277
73	0xbf03c5f7	-0.51473945
74	0xbe6832bc	-0.22675604
75	0x3f154f28	0.5832391
76	0xbde532d0	-0.11191332
77	0xbe4da102	-0.20080951
78	0x3efbd57d	0.49186316
79	0xbcabbe3c	-0.020964734
80	0xbed91af7	-0.42403385
81	0xbe835b3e	-0.2565555
82	0xbe46bf1f	-0.19408844
83	0xbeddbcae	-0.43308014
84	0xbf3e0ae6	-0.7423538
85	0xbf538287	-0.82621044
86	0xbede4201	-0.43409732
87	0x3ea06e85	0.3133432
88	0x3ec08c97	0.37607262
89	0x3de62142	0.11236812
90	0x3f086bb2	0.5328933
91	0x3f581971	0.8441382
92	0x3f199412	0.5999156
93	0xbef84e4e	-0.48497242
94	0x3ee5106c	0.4473909
95	0xbd2fe2cd	-0.042940903
96	0xbef024a9	-0.4690297
97	0x3eaf203f	0.3420429
98	0x3f6c1e05	0.92233306
99	0xbce1c3a5	-0.02755911
100	0xbf115142	-0.56764615
101	0xbe2fdfca	-0.17175213
102	0xbeebb6ce	-0.46037906
103	0x3e28357f	0.16426657
104	0x3ee61e82	0.4494515
105	0xbf84718e	-1.0347154
106	0x3e6f991c	0.2339825
107	0x3f364f79	0.71215016
108	0x3f0a5867	0.5404114
109	0xbef542a4	-0.47902405
110	0x3e3b0789	0.18264593
111	0xbf7018f8	-0.937881
112	0x3e07b1c0	0.132514
113	0x3f2da034	0.67822576
114	0xbedd97a9	-0.4327977
115	0xbf0c5a6d	-0.5482548
116	0x3f120e3d	0.57052976
117	0x3ec44ee3	0.38341436
118	0xbe15c65f	-0.14626454
119	0x3ef02f1b	0.4691094
120	0xbee1ac73	-0.4407688
121	0xbf07af7e	-0.53002155
122	0x3f17a39c	0.59234023
123	0x3db0515a	0.086092666
124	0x3e4bbe36	0.19896778
125	0x3f142efe	0.57884204
126	0x3e9f424b	0.31105265
127	0xbdeb20a2	-0.114808336
128	0x3cad0b0f	0.021123437
129	0xbc2218cd	-0.009893608
130	0x3f279cb4	0.65473485
131	0x3ebdc36f	0.37063166
132	0x3b4afcb5	0.003097338
133	0x3ec0fe07	0.37693807
134	0xbc164248	-0.009171076
135	0x3b92c573	0.004479104
136	0xbc2f0e95	-0.010684629
137	0xbe3cb0f5	-0.18426879
138	0x3c05caac	0.0081659965
139	0x3f122af5	0.570968
140	0x3d1953e4	0.03743352
141	0xbd89d324	-0.06729725
142	0xbe182eb9	-0.14861573
143	0x3a57b1cb	0.00082280923
144	0x3cbf065d	0.023318464
145	0x3d1f730a	0.03892807
146	0xbf20227b	-0.62552613
147	0x3b3d8dbd	0.0028923594
148	0xbd248791	-0.04016835
149	0xbf0369d1	-0.5133334
150	0xbb8331dc	-0.0040037464
151	0x3dcc7949	0.09984071
152	0xbee24655	-0.44194284
153	0x3c952af7	0.018208964
154	0xbe5e83bc	-0.2172994
155	0x3e12a4bd	0.14320655
156	0x3f11e6a6	0.56992567
157	0xbc304e23	-0.010760817
158	0xbc5d61cb	-0.013512085
159	0x3b173311	0.002307121
160	0x3bdbc33d	0.006706624
161	0x3e6257ee	0.22103855
162	0x3f17f304	0.5935519
163	0x3b6b1d61	0.0035875665
164	0x3efd3bfc	0.49459827
165	0x3bf84107	0.0075761112
166	0xbf0d0d32	-0.5509826
167	0x3e80425a	0.25050622
168	0xbea46150	-0.32105494
169	0xbd06a631	-0.032873336
170	0x3f127e4b	0.5722396
171	0xbca01338	-0.019540414
172	0xbe1ddc47	-0.1541606
173	0x3c072ca3	0.008250388
174	0xbb9f860e	-0.0048682755
175	0x3cb865bd	0.02250945
176	0xbea7e952	-0.32795197
177	0xbf5647df	-0.83703417
178	0xbe6bf3a4	-0.2304216
179	0x3e059f0f	0.13048957
180	0xbea405b5	-0.32035604
181	0xbb3e367f	-0.0029024181
182	0x3b976a0a	0.004620795
183	0xbcb02ba5	-0.021505186
184	0xbe1289ef	-0.1431043
185	0xbe47bb4e	-0.19505045
186	0x3f9e67a3	1.2375377
187	0x3e346f91	0.17620684
188	0x3b98182d	0.004641554
189	0xbe341345	-0.17585476
190	0x3f21a67e	0.6314467
191	0x3a3556ab	0.00069175166
192	0xbebdedaf	-0.370954
193	0x3e2f7817	0.17135654
194	0xbe8b0f5f	-0.27160165
195	0x3f147c31	0.58002
196	0xbe915be9	-0.28390434
197	0xbc2d0526	-0.0105603095
198	0xbccd7b05	-0.025083074
199	0x3e732f14	0.23748428
200	0xbc48115d	-0.012211171
201	0x3f348467	0.7051453
202	0xbe79011b	-0.24316828
203	0xbe9f4da7	-0.31113932
204	0x3aaf7629	0.0013386655
205	0x3ed025c7	0.40653822
206	0xbddc5cea	-0.107599095
207	0x3e6c67c1	0.23086454
208	0xbaf3ecac	-0.0018609962
209	0x3f622795	0.8834165
210	0x3de7672d	0.11298976
211	0x3f0538f0	0.52040005
212	0x3e8616a0	0.26189137
213	0x3f101d15	0.56294376
214	0x3e614a1a	0.22000924
215	0x3c6647ac	0.014055174
216	0xbe9e169e	-0.3087663
217	0x3d28fad5	0.041254837
218	0x3c0f1339	0.00873261
219	0xbc24485c	-0.010027017
220	0xbe9dc9e9	-0.30818108
221	0xbccb222b	-0.024796566
222	0x3c11187d	0.008855936
223	0x3d756416	0.059909903
224	0x3afdd81e	0.0019366776
225	0x3e02648b	0.12733667
226	0xbf279669	-0.6546388
227	0xbdb1fd95	-0.08690945
228	0x3ef04ff2	0.46935993
229	0x3e86e311	0.26345113
230	0xbd1cb3e1	-0.038257483
231	0xbc666dc0	-0.014064252
232	0xbc7df8ee	-0.015501244
233	0x3ee70510	0.4512105
234	0x3d17e9ea	0.037088312
235	0xbe537a56	-0.20652136
236	0xbf091edf	-0.5356273
237	0xbd16b417	-0.03679284
238	0xbcc0065d	-0.023440534
239	0x3f1afaae	0.60538757
240	0xbe28205b	-0.16418593
241	0xbeef459c	-0.46732795
242	0x34894500	2.5568443e-07
243	0xbe75fc9d	-0.24022146
244	0xbbee43e4	-0.007271277
245	0x3e1bb62d	0.15206213
246	0x3ec4c37c	0.38430393
247	0xbbc8f196	-0.006132315
248	0xb9a90090	-0.0003223461
249	0xbe471d2f	-0.19444726
250	0xbd312fac	-0.043258354
251	0xbd07e91e	-0.033181302
252	0xbe29b276	-0.16571984
253	0xbe421dc4	-0.18956667
254	0x3aed03fc	0.0018082852
255	0x3e2027aa	0.1564013

q2.bias f4 [128]
0	0x3f1184c6	0.5684322
1	0xbe8199ea	-0.2531274
2	0x3f211109	0.6291662
3	0xbf0e905e	-0.55689037
4	0xbf2b7cf3	-0.6698753
5	0xbf05cb4a	-0.5226332
6	0xbf18f1b9	-0.5974384
7	0x3f182802	0.5943605
8	0x3f16952a	0.58821356
9	0x3eb06fcf	0.34460303
10	0xbf18758e	-0.59554374
11	0x3f1959cb	0.5990264
12	0xbf100ef4	-0.56272817
13	0xbf073b46	-0.5282482
14	0x3f2626b4	0.64902806
15	0xbf1c83ad	-0.6113842
16	0xbf19146a	-0.59796774
17	0xbf11d290	-0.5696192
18	0x3f7c2155	0.9848836
19	0xbf866304	-1.0498967
20	0xbf12fc0f	-0.5741586
21	0xbf116e75	-0.5680917
22	0xbf1c5a42	-0.6107522
23	0x3f9a0fbd	1.2036053
24	0xbefa6122	-0.4890223
25	0xbf13b084	-0.57691216
26	0xbf1e86f7	-0.6192469
27	0xbf0699af	-0.5257825
28	0xbf2480a7	-0.6425881
29	0xbef0796a	-0.46967632
30	0xbf0eee8f	-0.5583276
31	0xbf10b940	-0.5653267
32	0x3f987e22	1.1913493
33	0x3f0a1635	0.53940135
34	0xbf12829a	-0.5723053
35	0x3f32c413	0.69830436
36	0xbf2c85e8	-0.67391825
37	0x3f1aa6e6	0.60410917
38	0xbf0180cb	-0.5058715
39	0x3f0fe5d6	0.56210077
40	0xbf060c1b	-0.5236222
41	0xbf01091b	-0.5040452
42	0x3f78d1f7	0.9719538
43	0xbf215586	-0.63021123
44	0xbf23e76e	-0.6402501
45	0xbf15c07a	-0.5849682
46	0xbf0d2eaa	-0.5514933
47	0xbf89c55f	-1.0763358
48	0xbf19c7f6	-0.6007074
49	0xbef5b2ec	-0.4798807
50	0x3ee00b3a	0.43758565
51	0x3f208277	0.62699074
52	0xbf95c596	-1.1700923
53	0x3f139211	0.57644755
54	0x3f0f3323	0.55937403
55	0x3f0f16c6	0.55894125
56	0x3ef91537	0.48648998
57	0xbf09bc23	-0.538027
58	0xbf20e40b	-0.62847966
59	0xbf15ad47	-0.58467525
60	0xbf08a635	-0.5337861
61	0x3f8d63e4	1.1046109
62	0x3f1d1e15	0.61374027
63	0xbefde861	-0.49591354
64	0xbef750fd	-0.48303977
65	0x3f0a8dda	0.541227
66	0xbf0ce5ac	-0.5503795
67	0xbf0acf59	-0.5422264
68	0x3f0da2bb	0.5532643
69	0x3f0495eb	0.51791257
70	0x3f1a8af6	0.6036829
71	0xbf30004e	-0.68750465
72	0x3f7f7e50	0.9980211
73	0xbf0b57d5	-0.54430896
74	0x3f15e468	0.58551645
75	0x3f265781	0.6497727
76	0xbf937e57	-1.1522931
77	0xbf0fda78	-0.5619273
78	0x3ee904c5	0.4551145
79	0xbf717061	-0.943121
80	0x3f1ae64a	0.60507643
81	0xbf1a870f	-0.60362333
82	0xbf0180d3	-0.50587195
83	0x3f3324e0	0.6997814
84	0x3f079cca	0.52973616
85	0xbf1b4a57	-0.6066031
86	0x3f1d611a	0.6147629
87	0x3efe85ae	0.49711365
88	0x3f0c386c	0.5477359
89	0xbf769c73	-0.9633247
90	0xbf1c08db	-0.6095101
91	0x3f02d6f6	0.51109254
92	0x3eecd52b	0.46256384
93	0xbf0db065	-0.5534728
94	0xbf278f39	-0.65452915
95	0x3f20b3e8	0.62774515
96	0x3f17cf09	0.59300286
97	0xbf0d7552	-0.5525714
98	0x3f3254da	0.69660723
99	0x3f2aba74	0.66690755
100	0xbf10b8a3	-0.56531733
101	0x3efc16d5	0.4923617
102	0x3ee9fae5	0.4569923
103	0x3f1cd293	0.6125881
104	0x3f229353	0.6350605
105	0xbf0ec599	-0.5577026
106	0x3f1cc6b3	0.6124069
107	0xbf158e0a	-0.5841986
108	0xba89be85	-0.001050905
109	0x3f04191f	0.5160083
110	0xbf1626df	-0.5865306
111	0xbf1656ca	-0.5872618
112	0xbf1c111f	-0.60963625
113	0xbf8a4a98	-1.0804014
114	0x3f0c0b07	0.54704326
115	0x3f08ca59	0.5343376
116	0xbea1f28b	-0.31630358
117	0xbf172cfb	-0.5905301
118	0x3f292557	0.660726
119	0xbf14b63f	-0.58090585
120	0x3f1ab8a4	0.6043799
121	0x3f175c92	0.59125626
122	0x3f138cf8	0.57636976
123	0x3f11d96c	0.56972384
124	0x3f108fcb	0.5646941
125	0xbf218e71	-0.63107973
126	0x3f1803ff	0.593811
127	0xbf1da45d	-0.61578923

q3.weight f4 [2, 128]
0	0xbf2e83ae	-0.6816968
1	0x3f4bfeda	0.7968575
2	0xbf38bacb	-0.72160023
3	0x3f3478e4	0.70496964
4	0x3f25adef	0.64718527
5	0x3f1efb95	0.62102634
6	0x3f1699ab	0.5882823
7	0xbf354855	-0.70813495
8	0xbf352781	-0.70763403
9	0xbf22b24e	-0.6355332
10	0x3f266f51	0.65013605
11	0xbf409543	-0.75227755
12	0x3f24a5e7	0.64315647
13	0x3f3f531d	0.74736196
14	0xbf2da873	-0.6783516
15	0x3f268858	0.65051794
16	0xbfad493c	-1.3537974
17	0x3f23876f	0.6387853
18	0x3fb328b6	1.3996799
19	0xbfb37226	-1.401921
20	0x3f2cf695	0.67563754
21	0x3f352117	0.70753616
22	0x3f2dba57	0.6786246
23	0x3fae939e	1.3638799
24	0x3f29eb8f	0.6637506
25	0x3f383f37	0.7197146
26	0x3f1e6f6e	0.6188878
27	0x3f20d241	0.6282082
28	0x3f1a6451	0.6030932
29	0x3f4946c1	0.78623587
30	0x3f259c1f	0.64691347
31	0x3f3a3441	0.72735983
32	0x3fb121f6	1.3838489
33	0xbf1e4e93	-0.61838645
34	0x3f23c0bb	0.6396596
35	0xbf22199b	-0.6332032
36	0x3f4908ad	0.78528863
37	0xbf2f8a85	-0.6857074
38	0x3f20fd91	0.6288691
39	0xbf32d3ef	-0.69854635
40	0x3f3879ff	0.7206115
41	0x3f35ed37	0.71065086
42	0x3faf7910	1.370882
43	0x3f25c627	0.6475548
44	0x3f16b705	0.58873016
45	0x3f1ad843	0.6048624
46	0x3f1bd849	0.608769
47	0xbfafc388	-1.3731546
48	0x3f1a769b	0.6033723
49	0x3f3dba3f	0.74112314
50	0xbf282c19	-0.6569229
51	0xbf29f1af	-0.66384405
52	0xbfafffb8	-1.3749914
53	0xbf25302b	-0.64526623
54	0xbf1c6e47	-0.6110577
55	0xbf1cd629	-0.6126428
56	0xbf23a47f	-0.63922876
57	0x3f21826f	0.6308965
58	0x3f168c2d	0.5880764
59	0x3f2fde11	0.6869822
60	0x3f20ef01	0.6286469
61	0x3fb205ea	1.3908055
62	0xbf1cbd35	-0.61226207
63	0x3f36b357	0.713674
64	0x3f347dd1	0.7050448
65	0xbf2b8c21	-0.67010695
66	0x3f2a30bd	0.6648062
67	0x3f314bcd	0.6925629
68	0xbf971786	-1.1804054
69	0xbf349387	-0.7053761
70	0xbf28c588	-0.6592641
71	0x3f1d6f8e	0.61498344
72	0x3fb460fd	1.4092098
73	0x3f397333	0.72441405
74	0xbf3ae09f	-0.72998995
75	0xbf1c5c2d	-0.6107815
76	0xbfaf4ac4	-1.3694692
77	0x3f2b2583	0.66854113
78	0xbf5368af	-0.8258161
79	0xbfb14987	-1.3850564
80	0xbf2ebbcb	-0.682553
81	0x3f1f6b4f	0.62273115
82	0x3f3ba667	0.73300785
83	0xbf214fb1	-0.63012224
84	0xbf234ca5	-0.63788825
85	0x3f3c5863	0.7357237
86	0xbf1f526f	-0.6223516
87	0xbf1fab72	-0.6237098
88	0xbf203edb	-0.6259591
89	0xbfaeb7b2	-1.3649809
90	0x3f168815	0.58801395
91	0xbf2649b1	-0.64956194
92	0xbf40464f	-0.7510728
93	0x3f374f41	0.71605307
94	0xbfa8a8cd	-1.3176514
95	0xbf35125f	-0.7073116
96	0xbf26de23	-0.65182704
97	0x3f3b701d	0.73217946
98	0x3faea02a	1.3642628
99	0xbf2e8dbf	-0.6818504
100	0x3f357857	0.7088675
101	0xbf4a04b1	-0.7891341
102	0xbfa28da7	-1.2699479
103	0xbf257821	-0.6463643
104	0x3fab7df3	1.3397812
105	0x3f2c50ed	0.6731098
106	0xbf2565c5	-0.64608413
107	0x3f2fba17	0.68643326
108	0xbf993dc9	-1.197198
109	0xbf416569	-0.75545365
110	0x3f2ea015	0.68213016
111	0x3f4281f1	0.75979525
112	0x3f326569	0.6968599
113	0xbfb0cb66	-1.3812072
114	0xbf1fcd5d	-0.62422734
115	0xbf15e819	-0.5855728
116	0xbfb1e2da	-1.3897355
117	0x3f23e037	0.64014
118	0xbf1cd22d	-0.612582
119	0x3f19b697	0.60044235
120	0xbf1f9b19	-0.62346035
121	0xbf2e7b99	-0.68157345
122	0xbf2b1c30	-0.66839886
123	0xbf120de3	-0.5705244
124	0xbf38afc3	-0.7214319
125	0x3f1ef6e3	0.6209547
126	0xbf2eabc1	-0.68230826
127	0x3f21652f	0.6304502
128	0xbf70e627	-0.94101185
129	0x3c00a8d9	0.007852756
130	0xbf7bc582	-0.9834825
131	0x3f7a3aa7	0.97745746
132	0x3f73ce9e	0.9523715
133	0x3f6ec9f2	0.93276894
134	0x3f65c364	0.8975127
135	0xbf76bb65	-0.9637969
136	0xbf779131	-0.9670592
137	0xbf4707e8	-0.7774644
138	0x3f668171	0.9004126
139	0xbf72acee	-0.9479512
140	0x3f62de09	0.8862005
141	0x3f76aecf	0.96360487
142	0xbf746dfb	-0.95480317
143	0x3f644e2d	0.89181787
144	0x3ab8217e	0.0014048067
145	0x3f745ae1	0.9545117
146	0x3e2dbbf5	0.16966231
147	0xbe37b921	-0.17941715
148	0x3f729943	0.9476511
149	0x3f7644b1	0.96198565
150	0x3f6ae957	0.917623
151	0x3de94d28	0.113916695
152	0x3f639511	0.8889933
153	0x3f786ad8	0.9703803
154	0x3f6974e3	0.9119398
155	0x3f718000	0.9433594
156	0x3f66f5ad	0.9021862
157	0x3f713ff1	0.9423819
158	0x3f68cdce	0.90939033
159	0x3f78b4f5	0.9715112
160	0x3e383b31	0.1799133
161	0xbf73bd25	-0.95210487
162	0x3f7bbe66	0.983374
163	0xbf647f40	-0.8925667
164	0x3f758db1	0.9591933
165	0xbf72416e	-0.9463109
166	0x3f72a2b4	0.94779515
167	0xbf78498f	-0.9698724
168	0x3f720368	0.9453645
169	0x3f644d9c	0.8918092
170	0x3decd2da	0.11563654
171	0x3f6c0601	0.9219666
172	0x3f75282a	0.9576441
173	0x3f6fed9c	0.9372194
174	0x3f664c95	0.89960605
175	0xbdfb9dec	-0.122859806
176	0x3f717968	0.94325876
177	0x3f6749a0	0.9034672
178	0xbf6f0aee	-0.9337605
179	0xbf6f938f	-0.9358453
180	0xbdde7242	-0.10861637
181	0xbf65cca9	-0.8976541
182	0xbf75a9e7	-0.95962375
183	0xbf7b2e4d	-0.98117524
184	0xbf68dbcb	-0.9096038
185	0x3f67bd73	0.9052345
186	0x3f707b51	0.93938166
187	0x3f6b1f41	0.91844565
188	0x3f681638	0.90658903
189	0x3e17e9dd	0.14835306
190	0xbf7683fc	-0.9629514
191	0x3f69de76	0.91355073
192	0x3f6b0ea3	0.9181921
193	0xbf707d17	-0.9394087
194	0x3f63c72b	0.8897578
195	0x3f76fbe8	0.9647813
196	0x3a3cca0c	0.0007201738
197	0xbf70ddbb	-0.94088334
198	0xbf6aefee	-0.91772354
199	0x3f72f391	0.949029
200	0x3e597e8b	0.21239679
201	0x3f79c607	0.9756779
202	0xbf7bdaf5	-0.98380977
203	0xbf7bc07a	-0.9834057
204	0xbdd436cc	-0.10362014
205	0x3f7c002b	0.98437756
206	0xbf71dcd3	-0.94477576
207	0xbe0c9a13	-0.1373065
208	0xbf793025	-0.9733909
209	0x3f68911a	0.9084641
210	0x3f6ff7a6	0.93737257
211	0xbf6f25df	-0.9341716
212	0xbf7788cb	-0.96693105
213	0x3f75176b	0.9573886
214	0xbf64ae82	-0.8932878
215	0xbf660be9	-0.89861923
216	0xbf73ce67	-0.9523682
217	0xbdeff4d7	-0.11716621
218	0x3f6d84e9	0.9278093
219	0xbf79ff55	-0.9765523
220	0xbf706eae	-0.93918884
221	0x3f7a49d8	0.97768927
222	0xb9cf302c	-0.00039518008
223	0xbf70cdc5	-0.9406398
224	0xbf657172	-0.8962623
225	0x3f6ed3b8	0.9329181
226	0x3d1444e9	0.03619853
227	0xbf6ddc8e	-0.92914665
228	0x3f7b56bd	0.9817923
229	0xbf70b501	-0.9402619
230	0xbf445111	-0.766862
231	0xbf73c456	-0.9522146
232	0x3b4d5c1e	0.0031335424
233	0x3f7b2940	0.9810982
234	0xbf6a1d63	-0.9145109
235	0x3f6ac980	0.91713715
236	0x3945dd83	0.00018869904
237	0xbf71f447	-0.9451336
238	0x3f75b1e8	0.9597459
239	0x3f73b1b8	0.9519305
240	0x3f6e4e24	0.93087983
241	0xbe155537	-0.14583288
242	0xbf71c3f1	-0.9443961
243	0xbf6a8d8e	-0.91622245
244	0xb806d3e6	-3.2145435e-05
245	0x3f6b41d8	0.91897345
246	0xbf669a6f	-0.90079397
247	0x3f688ed4	0.9084294
248	0xbf71a9a3	-0.9439947
249	0xbf66e0bb	-0.9018666
250	0xbf6e1782	-0.9300462
251	0xbf6a781c	-0.9158952
252	0xbf69a6b0	-0.9126997
253	0x3f7a4b92	0.9777156
254	0xbf7758f6	-0.9662012
255	0x3f687acd	0.9081238

q3.bias f4 [2]
0	0x3fadf51c	1.3590426
1	0xbff29524	-1.8951764
