aes_rl/checkpoint/diseasemutation_seed1_fqe_q.ckpt (torch, 72471 bytes, 6 tensors)

q1.weight f4 [128, 6]
00000000: 7b14 1e3f 1e78 bbbe 93c2 143e f0cd b23e
00000010: be37 c7bd 5746 b73e 8fd5 08bf 22d0 a83e
00000020: 42d6 6cbe afd5 e4bd 9d15 f2bd dd63 ac3c
00000030: 6dab 0f3f e584 a1be 03fd 9a3e 87cd ca3d
00000040: a920 b93e 4684 2d3e 31aa 2d3f d29e 56bd
00000050: ce5d c23d 7531 9bbe 0296 0ebe f70f 07bf
00000060: d257 d9be d9d9 853e ca03 b63d 1dd7 823e
00000070: 09db e0be 0953 083e 1981 c93c d166 1cbf
00000080: 8fea 53be 0c34 513e 9976 1fbf 425d 56bf
00000090: d584 493f d37c 8dbe 99cb 0e3e d7e0 c7be
000000a0: 3894 a63e a7d7 24bf 8132 253f 9534 4dbe
000000b0: c778 54be 75e9 333f 7075 2fbc 8ea2 a13d
000000c0: 6515 18bf f7ea 713e 8f3e 27bf 5a1f 15be
000000d0: 95a4 853e b4a7 2ebe 1a11 383f 7f52 b83c
000000e0: 8da4 663c 97cc f3be af7f 3c3e f542 f9bc
000000f0: 4126 17bf 8963 0e3f 091f 0d3e 7ff4 393f
00000100: 39da d7be 7da3 b1be ff13 b93e 4e88 7bbe
00000110: 711d cc3d ed82 5dbf fc53 ed3e 430f c03e
00000120: 6797 113f 41f1 8fbe f535 4a3e a29a 063e
00000130: d80d 753e 3a0d 723e 6b22 37bf f10e f53e
00000140: 2dc4 b1be 5471 25be a537 babd a415 a4bc
00000150: 592e 163f 3355 e6be d8e3 7bbe e405 fc3e
00000160: 65bb 353e 6f05 963e a18e fa3e 2bb4 f6be
00000170: 0beb bb3e 2d56 be3d 8ece 48bd 78c6 16be
00000180: bc50 073f 2e7e 31be 5ddd 213e 7a05 edbd
00000190: 936f 1c3f 3b1e f13d 9b88 163f 3674 6abd
000001a0: f840 9cbd 5117 0bbf 57ff 173f 91ae 1b3e
000001b0: 5ed6 2f3f e2b7 e3bd 1a79 9a3e aed4 2d3e
000001c0: a7b0 233f 19d6 babe b21c be3e eacb dc3d
000001d0: bcd9 113f 884b 683d fdca 77be 0dec f3be
000001e0: 387c e3be 04f2 6c3e 5b61 0f3f 8134 c3be
000001f0: 6930 6c3e 0e52 38bf 8eed 35bf 4d4a 153e
00000200: ce0f b33d 3ff2 573f d29f afbe 0399 03be
00000210: ab6a 2c3f b5aa 5ebd 1d48 5b3e b86f a43d
00000220: 185b 5d3e d41b d43c 7737 2bbf 755d 07be
00000230: 1073 b5bd 9108 853e df7c 9fbe 0fbd 213f
00000240: bb1b f23e 078f c8be 13e6 c33d 9b7c 693d
00000250: 0674 193e e06f 253e 6b5c 06bf 9857 1b3f
00000260: 734a 9dbe 4b43 953d 58d4 20bf 1620 babe
00000270: 7db7 13bf 7e9d d13c cef1 d63d 170c 31be
00000280: e684 fbbe 484b 173e dddf 543e 5a8b 1a3d
00000290: de14 a239 d080 bd3c 3e46 a5bd ccf2 e3bd
000002a0: 8f39 35bf 3661 0e3d feeb edbe 572c a53e
000002b0: d4c0 72bd 6d3d 823e 0dd6 443f 2426 0e3e
000002c0: 0061 d03e f227 31be deb8 16bf 5fc4 38bd
000002d0: dae1 08bf a29a 393e b8c4 0bbf 903e 5a3e
000002e0: 41eb b4be 6d8b 233f 96d6 f1be 0945 893c
000002f0: ef6d 873e ae8e 5dbe 4cf3 803e f52d 333e
00000300: 3544 04bf af76 183e 0ebe 8ebd b679 c9be
00000310: 5a8b d63c e4f2 143f 6b4e 4c3f 0cbb f6be
00000320: 1c11 3c3e 862e e9be c074 573e c484 eebe
00000330: ce81 ed3e 3030 a1be a2c2 f4bd 5ecc e3be
00000340: b138 9c3d 5412 a43e 0924 b23d ee09 433f
00000350: 0985 49be cd3e 863c c6ec 473e 8f30 c43e
00000360: a5c1 363f cfc4 e9be 314b 093e c689 693f
00000370: 732b 02bd 8115 693f 772a 0ebf 3231 1abe
00000380: 05e4 da3e 72af 8fbf 5129 d83d 3d16 4a3f
00000390: 3d72 413f 9289 703e 7ad4 3dbd ccb6 f9be
000003a0: 45fe 9d3e c98b 1ebf 4e3f f7be e102 af3e
000003b0: fa45 fcbe e62a 033f c6a4 a4bc 3b8a 0dbf
000003c0: 8a58 08bf 94ff 853e 80e3 673e 2dd1 f43d
000003d0: 81fb 83be f33b 623e f873 3abf fd55 0d3d
000003e0: d1e5 92be ae69 3b3f 7be7 e83e 61b6 a23e
000003f0: 2b07 a93e 1151 a0be e6dd 233e 9e82 4dbf
0.6175 -0.3661508 0.14527349 0.34922743 -0.09727429 0.35795853 -0.53450865 0.32971293
-0.23128608 -0.111735694 -0.11820529 0.021043712 0.5612095 -0.31546703 0.30271158 0.099024825
0.3615773 0.1694499 0.67837816 -0.052397557 0.09490548 -0.3031117 -0.13924411 -0.52758735
-0.42449814 0.26142767 0.088874415 0.25554743 -0.4391711 0.13312925 0.024597691 -0.61094385
-0.20694946 0.2043001 -0.6229034 -0.8373605 0.7871831 -0.27634296 0.13944854 -0.39038727
0.32534957 -0.6439156 0.6453019 -0.2003959 -0.20749198 0.702781 -0.010709152 0.07892333
-0.59407645 0.23624788 -0.6532983 -0.14562741 0.2610213 -0.17056161 0.71901095 0.022500275
0.014077318 -0.47617027 0.18408082 -0.030427435 -0.59042746 0.5562063 0.1378137 0.72638696
-0.42158678 -0.34695044 0.36148068 -0.24563715 0.09966553 -0.865279 0.46353137 0.37511644
0.56871647 -0.2811375 0.19747145 0.13144925 0.23931062 0.23637858 -0.7153689 0.47862962
-0.34719983 -0.16156512 -0.090926446 -0.02002985 0.5866447 -0.44986877 -0.24598634 0.49223244
0.17747267 0.2930102 0.48936942 -0.48184332 0.3670276 0.092937805 -0.04902511 -0.14724147
0.52857566 -0.1733329 0.158071 -0.1157331 0.6110775 0.11773344 0.58802193 -0.057239734
-0.07629579 -0.54332453 0.5937399 0.1520331 0.68686473 -0.11119057 0.30170518 0.16975662
0.63941425 -0.3649147 0.37131268 0.10781081 0.5697286 0.056712657 -0.24198528 -0.4764103
-0.4443071 0.23139197 0.5600793 -0.38125995 0.23065342 -0.72000206 -0.71065605 0.14579125
0.08743249 0.84354013 -0.3430162 -0.12851338 0.6735026 -0.054362018 0.21414228 0.08029121
0.21616781 0.025892176 -0.6688151 -0.13219245 -0.08859837 0.25983098 -0.31149957 0.63179106
0.47286782 -0.3917162 0.095653675 0.0570036 0.14985666 0.16155958 -0.5248477 0.6068053
-0.30720863 0.07288226 -0.6282401 -0.36352605 -0.57701856 0.025587793 0.10495339 -0.17289768
-0.4912483 0.14774811 0.20788522 0.037730552 0.00030914595 0.023132712 -0.08070038 -0.11130294
-0.7079095 0.034760676 -0.4646911 0.3226039 -0.059265926 0.2543749 0.76889116 0.13881737
0.40699005 -0.17300394 -0.58875835 -0.04510915 -0.5346962 0.18125394 -0.54597044 0.21312928
-0.35335734 0.6388462 -0.4723403 0.016756551 0.2645106 -0.21636459 0.2518562 0.17498
-0.51666576 0.14889024 -0.06969844 -0.3935067 0.026189495 0.5818312 0.79807156 -0.4818958
0.18365902 -0.45543307 0.2104063 -0.46585667 0.46388096 -0.31482077 -0.11951186 -0.44491857
0.076280005 0.32045233 0.086982794 0.76187027 -0.19679655 0.016387368 0.19523916 0.38318297
0.7138923 -0.45657966 0.1340759 0.9122585 -0.031779718 0.9104844 -0.55533546 -0.15057829
0.4275209 -1.1225417 0.105547555 0.7894018 0.7556494 0.23489979 -0.04634521 -0.48772275
0.30858055 -0.61932045 -0.48290485 0.34181884 -0.49272138 0.5123733 -0.020098101 -0.5528905
-0.532601 0.26171553 0.22645378 0.119539596 -0.2577782 0.22093181 -0.72833204 0.034505833
-0.2869096 0.7320813 0.45489106 0.3177977 0.3301328 -0.3131185 0.16002616 -0.8027743

q1.bias f4 [128]
00000000: 82cf 80be 3211 923e 8076 f0be da1b fcbd
00000010: 0575 05be 66b2 3ebf 76bd 403e 72ae b3be
00000020: 94c8 ae3e 6ddc 03bf c0cc f43c 2c14 03bf
00000030: 2f70 ffbe 1086 b33e 523d 85be 9f9c 16be
00000040: 4f2f 0fbf d322 fbbe ef99 0cbf 8f06 fbbe
00000050: 76a0 053f 90ba c43e 4ad8 36bf 99eb 113e
00000060: 9973 88be ef1f da3e 422f 143f 892e 03be
00000070: 1127 023f 8006 cfbe e9bd 4d3e 8450 b53d
00000080: f917 613e 1d07 393e 6f98 90bd 1794 853f
00000090: 411d b1be 57f4 af3d 2d34 89bd 8a0d 123f
000000a0: c256 9fbd 2bf8 fa3d bf36 dfbe 7832 453d
000000b0: ecb1 aebd 6c52 71be 8d40 193e 4b1f 2ebe
000000c0: b384 0e3f 1161 a0be fc71 ec3e 151f 663e
000000d0: c19b 013f c447 0f3e 5895 9dbe 6206 19bd
000000e0: 6c45 ad3e 363f f33d ba9b 7d3e f380 c0be
000000f0: 2b69 f3bd fc50 883d 11a9 de3e cc1a 2f3d
00000100: 000f 853e 1dba 32bf 676f c5bd 657f 88bf
00000110: 505b 5f3e 3bc9 f6be 04bd dabb aba1 1c3f
00000120: f907 403f b075 b3be 625f 54bf 66b5 cabe
00000130: 08e6 f43e c50a 0abf e2e8 26bf b21f dabd
00000140: 1944 8bbe a763 b33e ff1c eebe 9cf8 883e
00000150: 9db4 11bf d41d 5f3e 607f 123e 875a 25be
00000160: 7a54 eabd b2ba 08bf ef1f acbe acdc 1bbd
00000170: 32a3 e73c 41e0 973e abe1 ebbe 9a15 433d
00000180: 342e c1be 54b1 973e ce5e dcbe 8acb 10be
00000190: c0d7 dabd d605 053e eb04 95be 0bcc 88be
000001a0: 9c8c ffbd 7847 53be 5780 6fbf 3b2f ccbe
000001b0: d56b b33d c32e 743e 4490 963c 162b b4be
000001c0: 42e6 743e db7b d1be 7db8 23bd 1ca8 053d
000001d0: fa42 f53d a3f9 d4bd dd30 483b 7090 083f
000001e0: 76d7 b6be 4177 21be 372f 173f 00da eb3c
000001f0: 54dc a43e 77e3 80be 253c a1be 85de a8be
-0.25158316 0.28528744 -0.46965408 -0.1231 -0.1303292 -0.74490964 0.18822274 -0.3509403
0.34137404 -0.5150822 0.029882789 -0.51202655 -0.49890277 0.3506322 -0.26023346 -0.14708184
-0.5593156 -0.49050006 -0.54922384 -0.4902844 0.5219797 0.38423586 -0.7142378 0.1425003
-0.26650694 0.42602488 0.5788461 -0.1281072 0.5084086 -0.40434647 0.20091976 0.08853248
0.21981801 0.1806912 -0.070603244 1.0435818 -0.3459263 0.08591526 -0.06699405 0.5705191
-0.077802196 0.122543655 -0.43596455 0.048143834 -0.0853003 -0.23566598 0.1496603 -0.17004125
0.5567123 -0.31324056 0.46180713 0.22472794 0.50628287 0.1399222 -0.30778003 -0.037359603
0.33842027 0.11877291 0.24766436 -0.3759838 -0.118852936 0.066560715 0.43488362 0.042750165
0.25988007 -0.69815236 -0.09640389 -1.0663878 0.21812177 -0.48200402 -0.0066753644 0.61184186
0.75012165 -0.35050726 -0.8295804 -0.3959152 0.4783175 -0.53922683 -0.651991 -0.10650577
-0.27200392 0.35036966 -0.46506497 0.26752174 -0.5691622 0.21788722 0.14306402 -0.16147815
-0.11441894 -0.53409874 -0.33618113 -0.038052246 0.02827606 0.2966328 -0.46070608 0.047628023
-0.37730563 0.29627478 -0.4304108 -0.14140144 -0.10685682 0.12990507 -0.29105315 -0.26718172
-0.12477991 -0.20632732 -0.93555206 -0.39879784 0.08760802 0.23845963 0.018379338 -0.35189122
0.23915961 -0.40914807 -0.039970864 0.032631025 0.119756654 -0.10399177 0.0030546703 0.53345394
-0.3571126 -0.15768148 0.5905642 0.028790474 0.32199347 -0.25173542 -0.314912 -0.3298227

q2.weight f4 [128, 128]
00000000: ffa3 ea3e 5259 91bd cfd6 7b3e 5671 703e
00000010: a9bf a0be 0678 c7be 324c e43e 3e64 f43e
00000020: 0879 0bbf e24b 873e 7077 83be c0aa b8be
00000030: e50a 973e 8e70 94be fc14 0e3f 6488 233e
00000040: c0fc 843e 0c97 8c3e 0067 b33e 10dd 4b3e
00000050: e63e b1be 7ee6 36be 1a40 c43e 93ba 03bf
00000060: f46a da3e 9df4 22be 0b40 f8be f6ce 563f
00000070: fbfc 72be 53b6 693f d28e 19be 95ce 86bf
00000080: 8088 20bd 66a9 a23e 0250 2a3f 9d50 d53e
00000090: 34f6 2e3f 226e 2ebf cc83 063f 2807 34be
000000a0: 05db 0dbf 56df 22bf 02f8 36be efeb ba3e
000000b0: afc5 513d 45b1 0d3f 0c90 63be 86b7 4d3f
000000c0: 22a5 993e 6d96 b3be 6db1 f2be 316e 5bbe
000000d0: 7234 f7be 3353 2a3f da36 8f3e a0ac a23e
000000e0: 94ca 28bf d440 90be 572a 5dbf db58 c63e
000000f0: 5b75 10bf c736 19bf d6b9 a53e bdc0 a83e
00000100: 390e 9dbe 14e2 d13c b3df 593f c8d4 0bbf
00000110: e60a 3f3f 9707 b23d dcf7 16be a00d d5be
00000120: 2078 083f 043d 1e3f 9add 82be b67a 783e
00000130: 2fb5 48bf cae7 bc3e 62ab 90be f73d 323f
00000140: f270 9c3e 6d8e a8be ddf9 b43e ceed 9dbe
00000150: 1daa 09bf e50d 06bf b743 0abf ee89 643e
00000160: 64df 07bf a5f6 a5be 703d 803e 0dc2 85be
00000170: 0fd1 a53e 796a e1be 865b 9d3d 3dc6 da3e
00000180: c3c0 523e a75c bebe 03b3 f53e 3efe a93d
00000190: 7c12 bd3d c70f 563f ff68 cabc 0506 f33e
000001a0: 417a 8c3f eec4 173e 1071 02bf 0042 383f
000001b0: 613c 25bf b038 98be b8b5 d4be c792 843e
000001c0: 6d13 aabe d30f 553e cb4c c83c f6be e93d
000001d0: ca01 013f e664 263d b76b 923e 6d00 a6be
000001e0: c172 e43e 4bf7 433e 55eb 693d 9a30 7e3e
000001f0: fbaf a8be 1758 353f f23d 0d3e e74f b73e
00000200: 5ec9 fe3e 981b ffbd e025 873e 8f71 463e
00000210: 679c c6be 02f2 d2be 81a7 e63e fd83 f93e
00000220: 31d9 12bf 71e7 b83e 283c 5dbe b8c7 b4be
00000230: 05e2 973e 45ca a1be 4795 003f fe0c ea3d
00000240: 720d 103e 9419 913e 0d80 833e b03d 413e
00000250: cab4 b3be f5d9 14be b5ab e83e 4c43 f6be
00000260: be9a d13e c6f4 32be b94f ddbe aebb 323f
00000270: 63ef 23be f65b 7b3f 6851 03be 06fd 8abf
00000280: 7177 0ebd f300 503e ab01 173f d255 0f3f
00000290: 8748 313f 140f 2abf 0ceb 053f bc28 40be
000002a0: 2314 2cbf ff8f 1dbf ea72 55be 74e2 443e
000002b0: d8a7 ac3c 5124 f43e 0fd5 4ebe 9afc 503f
000002c0: b63d 383e fe11 c1be c29b f2be c80e 93be
000002d0: 7ede f3be 4647 3e3f 62ca 353e 632c b43e
000002e0: d901 18bf ad09 b0be 4504 33bf 87c5 ec3e
000002f0: 18b3 1bbf f51f 27bf c55e 583e 6933 ae3e
00000300: e8ed aebe 38ce 343e f20c 7c3f 669d dcbe
00000310: 7a90 143f 2755 8abd 59bb dfbd 6075 cabe
00000320: 0ee6 d03e 9fbf 1b3f 5af8 b6be 58a6 723e
00000330: c561 30bf 5714 d63e a7a3 b0be e4f0 413f
00000340: 8a86 633e 4fec 72be 0de1 ad3e 0e24 a0be
00000350: 6c68 dbbe 30d0 0abf 3c6f 31bf 2cd8 453e
00000360: 2b5a 09bf 70ee b7be 99bb 8a3e e9d6 7fbe
00000370: ef9c b13e 5e72 fdbe 4a10 4a3d 3b76 bb3e
00000380: 3952 4a3e ec49 48be e925 1c3f 9986 093d
00000390: d247 2c3d e68e 6e3f a8fd a7bd 4986 ee3e
000003a0: 075f 7b3f f641 733e ed0d c4be 7875 5a3f
000003b0: 9aa8 49bf 50c6 83be c11a 01bf b7d0 9b3e
000003c0: cda6 74be 5c25 9c3e e6ed a8bd db6c af3d
000003d0: ef07 9d3e 0d2d b33d c187 c93e 94a2 a1be
000003e0: 440f e23e c19c 813e 5d32 143c 7469 963e
000003f0: c623 7cbe 400c 253f f0f0 b73d 2802 d13e
0.45828244 -0.070971146 0.24593662 0.23480734 -0.31396225 -0.38958758 0.44589382 0.4773273
-0.54481554 0.26425081 -0.2567706 -0.36067772 0.295005 -0.28992122 0.5550077 0.15969998
0.25974083 0.2745899 0.3503952 0.19908547 -0.346183 -0.17861363 0.38330156 -0.51456565
0.42659724 -0.15913625 -0.4848636 0.8390955 -0.23729317 0.9129383 -0.14995888 -1.0531794
-0.039192677 0.31769866 0.6652833 0.41663066 0.68344426 -0.681368 0.52544856 -0.17580855
-0.5541232 -0.63622034 -0.17868045 0.36508128 0.051213916 0.55348617 -0.22222918 0.8035816
0.300088 -0.35075703 -0.4740099 -0.21428753 -0.482822 0.665332 0.27971536 0.31772327
-0.6593411 -0.2817446 -0.8639273 0.38739666 -0.5642907 -0.5984921 0.32368344 0.32959548
-0.30674914 0.025620498 0.8510696 -0.54621553 0.74626005 0.08692854 -0.14742988 -0.41611958
0.53308296 0.6181185 -0.25559694 0.2426556 -0.78401464 0.3689559 -0.28255755 0.696258
0.3055492 -0.32921162 0.3534688 -0.30845493 -0.537752 -0.5236495 -0.54009575 0.22318241
-0.5307524 -0.32414737 0.25046873 -0.26124611 0.32386062 -0.44026545 0.07683472 0.4272937
0.20581345 -0.37180063 0.47988138 0.08300446 0.09232041 0.83617824 -0.02470827 0.4746553
1.0974809 0.14821216 -0.5095377 0.7197571 -0.64545256 -0.2973075 -0.4154489 0.25893232
-0.33217946 0.20806818 0.02445068 0.11413376 0.50393355 0.040623568 0.28597805 -0.324222
0.446188 0.19137304 0.057109196 0.24823228 -0.32946762 0.7083754 0.13793162 0.35803148
0.49763006 -0.12456435 0.26396084 0.19379257 -0.387912 -0.41200262 0.4504967 0.48733512
-0.5736266 0.36114076 -0.21604979 -0.35308623 0.29664627 -0.31599632 0.5022778 0.11428259
0.14067629 0.28339827 0.25683632 0.18871188 -0.3509887 -0.14536269 0.45443502 -0.48098218
0.4093837 -0.17476186 -0.43224886 0.69817626 -0.16009288 0.98187196 -0.12824023 -1.0858467
-0.034781877 0.20312862 0.5898692 0.55990326 0.6925129 -0.6642926 0.5231178 -0.18765539
-0.67218226 -0.61547846 -0.20844617 0.1922701 0.021076128 0.47683957 -0.20198463 0.8163544
0.17992291 -0.3770904 -0.4738446 -0.28722215 -0.47630686 0.74327505 0.17752984 0.35190114
-0.5937782 -0.34382382 -0.6992839 0.4624445 -0.6082015 -0.6528314 0.21129902 0.34023598
-0.34165883 0.17656791 0.9845725 -0.43088835 0.58032954 -0.06754523 -0.109244056 -0.39542675
0.40800518 0.60839266 -0.35736352 0.23696268 -0.68899184 0.41812393 -0.34499857 0.75758195
0.22219291 -0.23722957 0.33960763 -0.31277508 -0.42853105 -0.5422392 -0.69310355 0.19320744
-0.5365321 -0.359241 0.2709625 -0.24984325 0.34690043 -0.49501318 0.04933194 0.3661364
0.19757928 -0.19559449 0.60995346 0.033575628 0.04206068 0.93186796 -0.08202678 0.46586826
0.98191875 0.23755631 -0.38291875 0.85335493 -0.7877289 -0.25737238 -0.5043145 0.30432674
-0.23891754 0.30497253 -0.082485005 0.085656844 0.30670115 0.08748827 0.39361385 -0.3156935
0.44152272 0.25314906 0.009045211 0.2937733 -0.24623021 0.64471817 0.08981502 0.40821958

q2.bias f4 [128]
00000000: efe5 f93e fcfc 053f b119 08bf 340a f73e
00000010: 042e d93e 096f c2be c4ed e13e d9ee e5be
00000020: f01a 003f 6967 d5be 1040 073f 4193 f9be
00000030: 82fe d7be b81d f03e a756 013f 6e57 c8be
00000040: 72cb de3e e802 cabe 82fa 20bf 0b2b f3be
00000050: 84a5 eabe a3ce c63e 5a59 9b3e 1787 fc3e
00000060: 255e dbbe e82a d03e b602 0cbf 56ac eabe
00000070: ec18 22bf 84d0 173f 1bd3 04bf 6209 fa3e
00000080: bb86 ea3e 93fa f7be 4d7d 133f 0f2c 053f
00000090: 0f73 c3be f728 04bf 585b f53e 5d8b e03e
000000a0: 07a5 be3e 270c ffbe fdd9 ea3e 8eb1 ea3e
000000b0: d0f2 eebe 7502 e53e 1ec0 febe a197 b73e
000000c0: ff29 d1be de3d 0e3f 4296 e7be 3d9a dabe
000000d0: 9def fcbe 9b18 e3be 0c04 4b3f 217c cf3e
000000e0: 9308 e7be 01a5 a83e 021c 133f 2788 d3be
000000f0: 3412 cc3e 2157 d73e 4f57 e83e 7067 e0be
00000100: 210e acbe cf1b 0a3f 87c8 233f 7daf c43e
00000110: dcc6 c9be 1204 dcbe cb1a fa3e aa7a 43bf
00000120: 2235 d1be 1f63 a9be 10bd 8bbf ef86 d73e
00000130: 2e01 c93e 20c6 c43e 6677 38be e50f d83e
00000140: 818c b9be e7d4 f5be 060d fabe 9a4d d33e
00000150: 8ecb fc3e 21e2 ba3e 719e e13e 8404 d33e
00000160: a18d e5be 6a7b 2e3e 88e9 e8be 373d c1be
00000170: 313c 0ebf 2436 f4be 0ebc b1be a0b8 b8be
00000180: 1b6d e83e 6d52 d9be c113 bfbe 1a11 c73e
00000190: 3610 173f 9cea 0f3f c309 1f3f fff2 e7be
000001a0: d420 febe 0fad c4be a9fa 12bf 708a 983e
000001b0: bed2 16bf 3bd2 033f 8501 dcbe 53d0 063f
000001c0: ceda dbbe 8831 a7be 90b9 ea3e c2b6 fcbe
000001d0: 07ab dbbe e246 d13e 56e9 cd3e e367 ddbe
000001e0: 19b7 2d3f 79c6 de3e d5cd da3e 6f0a e53e
000001f0: 7aa4 17bf 539f b43e 65a9 e5be 1c46 b53e
0.48808238 0.5233915 -0.531642 0.48249972 0.4241792 -0.37975338 0.44126713 -0.4490879
0.50041103 -0.41680458 0.52832127 -0.48745158 -0.42186362 0.46897674 0.50522846 -0.39129204
0.4351459 -0.39455342 -0.62882245 -0.47493777 -0.45829403 0.38829526 0.30341607 0.49321815
-0.42845264 0.40657735 -0.54691637 -0.45834607 -0.6331928 0.59302545 -0.5188462 0.48835284
0.45805916 -0.4843336 0.5761307 0.52020353 -0.3817372 -0.5162501 0.47921252 0.43856326
0.3723528 -0.4981396 0.45869437 0.45838588 -0.46669626 0.44728437 -0.4975595 0.3585787
-0.40852353 0.5556315 -0.45231825 -0.426958 -0.4940156 -0.4435471 0.7930305 0.4052439
-0.4512373 0.32938388 0.5746461 -0.41314813 0.39857638 0.42058662 0.4537911 -0.43828917
-0.3360453 0.5394868 0.63977855 0.38415137 -0.3940953 -0.42971855 0.48848566 -0.76359046
-0.4086085 -0.33083436 -1.0917072 0.42095134 0.39258713 0.38432407 -0.18014297 0.42199627
-0.36240008 -0.48013994 -0.4883806 0.41270143 0.4937405 0.36500648 0.44066194 0.41214383
-0.44834617 0.17039266 -0.4549067 -0.37742016 -0.55560595 -0.47697556 -0.34713787 -0.36078358
0.4539574 -0.42445698 -0.3731976 0.38880235 0.5900911 0.5621736 0.6212427 -0.4530258
-0.4963442 -0.38413283 -0.5741373 0.2979312 -0.5891532 0.5149266 -0.4296991 0.5266163
-0.42940372 -0.32654977 0.45844698 -0.49358183 -0.4290392 0.40874392 0.40217084 -0.43243322
0.6785751 0.43510798 0.42735162 0.44734523 -0.59235346 0.35277805 -0.448558 0.35405052

q3.weight f4 [2, 128]
00000000: e32a 4ebf d935 51bf dda1 503f 3b2c 4fbf
00000010: a926 41bf e538 583f b183 42bf b1cd 6e3f
00000020: 6dc7 59bf 8573 593f ba3f 3b3f ab30 403f
00000030: 7ba5 4d3f f3e3 62bf ab77 43bf 754e 5b3f
00000040: e922 36bf 7b6f 523f e1ee 32bf 31fd 433f
00000050: 9ce8 f73f 757c 5bbf ca31 563f 89e1 64bf
00000060: 0fd0 583f 11cb 53bf 57b2 4a3f 83a2 5b3f
00000070: dd1f 35bf 46d2 3c3f b7a2 3e3f 13f1 4fbf
00000080: 5faf 4abf b543 4c3f 0c03 353f 85db 54bf
00000090: 7d2c 483f cb21 553f 4747 38bf dffb 50bf
000000a0: 4b3d 6dbf 5193 403f 11a8 3abf 4131 3dbf
000000b0: b933 473f 9f36 8c3e 557b 4a3f 316c 68bf
000000c0: fbc9 503f e6b3 3b3f 6bf7 563f bd4a 373f
000000d0: e1ef 503f 3b6c 5e3f aa9e 593f 8fce 45bf
000000e0: 51c8 493f 2d74 5bbf f0b3 2b3f 8d9c 473f
000000f0: 7ddd 41bf 99df 4cbf 2bcc 4abf 4a2c 643f
00000100: 973a 513f f37a 3abf 6dec 353f 19e3 61bf
00000110: 20a5 393f 4fa6 543f 4f3e 48bf ee9f 6ebf
00000120: ef84 663f 0398 673f ceb7 a4bf 89c7 50bf
00000130: 795a 51bf 73e1 53bf bd76 3bbe 9935 52bf
00000140: 919e 4c3f 2f8d 3e3f 6351 423f 2f39 6abf
00000150: 07f8 67bf d5cb 56bf 7bad 46bf 3d6e 63bf
00000160: 8fe2 383f 24cc eabe fbbd 483f c1c9 643f
00000170: 78cd 38bf 010c 543f 69fb 5a3f 3bde 583f
00000180: 6147 53bf aba3 603f bd96 473f 2b58 50bf
00000190: 1392 333f f38b 393f 265a ee3e c50d 4c3f
000001a0: 9718 3b3f 1bb8 503f bf38 32bf c687 c23e
000001b0: 2d5d 483f fbf7 39bf ff37 3f3f 2f90 45bf
000001c0: f71c 683f cfd9 533f 715f 4cbf 95b9 4d3f
000001d0: 810d 683f a903 3bbf 8964 52bf 7795 5c3f
000001e0: 5327 073f 63c1 4abf f35e 4dbf c300 47bf
000001f0: a0cd 41bf ffdc 5abf a3c8 333f dbaa 65bf
00000200: 21f2 77bf 01c3 7fbf 454e 793f 0f28 68bf
00000210: d1e7 7cbf e5e3 7c3f 399b 77bf b207 783f
00000220: 99d3 78bf 91af 793f ff35 193e c962 773f
00000230: 0188 6b3f 6579 7dbf 73f3 71bf 1fbf 6c3f
00000240: b93d 73bf a372 6b3f 7925 c6bd 5bc9 7e3f
00000250: cde3 c1bb 4333 6bbf ebbf 82b9 c228 70bf
00000260: ad90 7f3f ff03 7abf 29e7 753f f796 733f
00000270: 1d9a ddbd 985a 813e d5c0 763f b0fb 80bf
00000280: fb70 77bf b321 783f 5ff9 f43d 0b0d 6cbf
00000290: 77ce 7f3f 51aa 6d3f a5b1 77bf 1378 78bf
000002a0: 5251 7dbf 7f90 753f 5796 7ebf a9e7 6fbf
000002b0: b300 793f a91a 9839 fda1 773f fb1e 7dbf
000002c0: b966 7f3f 9160 f93d f9f4 763f fd68 773f
000002d0: 0642 803f 2f3a 7f3f eb8c 9fb9 79f2 7fbf
000002e0: 21a5 7c3f 9f06 7fbf fe05 573e e9e5 693f
000002f0: f5fa 6cbf 9bcf 6abf 6c00 81bf 7bfa 663f
00000300: 0103 6a3f c3a9 72bf af4d 033e 4af4 68bf
00000310: 41eb 593f 6d08 7e3f c993 6ebf ac94 b4b8
00000320: 9d7a 7f3f 28ba 6a3f fcef d0b8 058c 79bf
00000330: 8d1b 77bf e53b 72bf ea46 18b8 cba7 7ebf
00000340: adcd 6d3f c3b1 6b3f f108 723f 8ae7 7bbf
00000350: 5b2f 79bf e97f 7abf b795 77bf f50d 7cbf
00000360: 3f49 6c3f 84c7 4bba ef0a 7e3f e1a3 793f
00000370: 7df7 1cbe bb44 7c3f 8d39 7d3f 4ba4 7a3f
00000380: db4d 7bbf dfb4 743f 1d22 6c3f ff8e 69bf
00000390: a864 893d 7c5e 113e 7294 a2b9 7963 7f3f
000003a0: 81af 7d3f 9d09 7a3f d4cb f9bd 0426 63b8
000003b0: af21 7d3f a345 7dbf f11d 6a3f 0d7b 75bf
000003c0: 43e3 7d3f 7f02 723f c949 70bf e13a 763f
000003d0: c3bb 7a3f af37 7abf e99d 77bf eb37 743f
000003e0: b4db 5d37 3122 72bf fd56 74bf 212e 71bf
000003f0: ec0c 41be b7f6 76bf f510 6c3f 377c 73bf
-0.8053419 -0.8172279 0.81496984 -0.80926865 -0.75449616 0.84461814 -0.75982195 0.9328261
-0.85069925 0.84941894 0.73144114 0.7507426 0.8033063 -0.8862907 -0.76354474 0.8566659
-0.7114702 0.82201356 -0.6989575 0.76558214 1.9367862 -0.8573678 0.8366972 -0.8940664
0.8469247 -0.8273173 0.79178375 0.8579485 -0.70751745 0.7375835 0.74467033 -0.81227225
-0.79173845 0.7979081 0.70707774 -0.8314746 0.78192884 0.8325469 -0.7198376 -0.81634325
-0.9267165 0.75224787 -0.729127 -0.7390328 0.778133 0.27385423 0.7909444 -0.90790087
0.815582 0.7332138 0.8397128 0.71598417 0.81616026 0.86883897 0.8500773 -0.7726831
0.78821284 -0.85724145 0.6707144 0.7797325 -0.7572859 -0.8002868 -0.79217786 0.8913008
0.81730026 -0.72843856 0.7106388 -0.8823715 0.72517586 0.83066267 -0.78220075 -0.93212783
0.9004659 0.90466326 -1.2868593 -0.81554466 -0.81778675 -0.82765883 -0.18307014 -0.82113034
0.79929453 0.7443418 0.75905436 -0.91493505 -0.90612835 -0.83904773 -0.7760846 -0.88840085
0.722207 -0.45858872 0.7841489 0.8937035 -0.7218852 0.82830817 0.8553987 0.84714097
-0.8253079 0.8774974 0.77964383 -0.81384534 0.70144767 0.7247917 0.46553153 0.7970851
0.73084396 0.8153092 -0.6961784 0.37994212 0.78267175 -0.72644013 0.7469482 -0.7717313
0.90669197 0.82754225 -0.7983313 0.803613 0.90645605 -0.7305246 -0.82184654 0.86165565
0.5279438 -0.79201335 -0.80223006 -0.7773554 -0.75704384 -0.85493463 0.7022802 -0.8971383
-0.96853834 -0.9990693 0.97385055 -0.90686125 -0.98791224 0.9878524 -0.96721226 0.9688674
-0.9719787 0.9753352 0.14962004 0.9663511 0.920044 -0.9901336 -0.945121 0.9247913
-0.95016056 0.91971797 -0.09675116 0.99525994 -0.0059170485 -0.91875094 -0.00024938522 -0.9381219
0.9983013 -0.9766235 0.9605585 0.9515223 -0.108204104 0.2526443 0.9638799 -1.0076809
-0.9665677 0.9692642 0.11961626 -0.922074 0.99924415 0.9283801 -0.9675544 -0.9705822
-0.9895221 0.9592361 -0.9944815 -0.9371286 0.9726669 0.00029011563 0.9673155 -0.988754
0.9976612 0.12176622 0.9646755 0.96644574 1.0020149 0.99698156 -0.00030431835 -0.9997936
0.98689467 -0.9961948 0.2099838 0.9136644 -0.9257043 -0.9172303 -1.0078254 0.9022595
0.91410834 -0.94790286 0.12822603 -0.90997756 0.85124594 0.99231607 -0.9319425 -8.610761e-05
0.9979647 0.916903 -9.9629135e-05 -0.9747928 -0.96526414 -0.9462264 -3.6305668e-05 -0.9947478
0.9289196 0.9206812 0.94544894 -0.98400176 -0.97337884 -0.97851425 -0.9671282 -0.98458797
0.92299265 -0.00077735656 0.99235433 0.97515684 -0.15328784 0.98542374 0.9891594 0.9790694
-0.98165673 0.9558849 0.9223955 -0.9123382 0.06708652 0.14196199 -0.00031009648 0.9976116
0.9909592 0.9767092 -0.1219708 -5.4156422e-05 0.9887952 -0.9893438 0.91451937 -0.95890886
0.991749 0.9453506 -0.9386259 0.9618359 0.9794275 -0.97741216 -0.96725327 0.95397824
1.322378e-05 -0.9458342 -0.95445234 -0.9421101 -0.18852586 -0.96470207 0.92213374 -0.9511141

q3.bias f4 [2]
00000000: 56e6 263f 8fbb eebf
0.65195215 -1.8650988
