aes_rl/checkpoint/introducecharacter_seed1_bcq_q.ckpt (torch, 72471 bytes, 6 tensors)

q1.weight f4 [128, 6]
0	0xbf1615c8	-0.58626986
1	0x3f3d54bd	0.73957425
2	0xbf05c2ce	-0.52250373
3	0x3d296eaf	0.04136532
4	0x3d96bc16	0.07360093
5	0xbea6da52	-0.3258844
6	0x3f717001	0.9431153
7	0x3b850652	0.0040595913
8	0x3ef1ab23	0.4720088
9	0xbe99f1b3	-0.30067214
10	0x3e5e809a	0.21728745
11	0xbecbb0c1	-0.3978329
12	0xbda59969	-0.08085901
13	0xbca94402	-0.020662311
14	0x3f2e4bc6	0.6808437
15	0xbe9e61d3	-0.3093401
16	0x3e3f01c2	0.18653014
17	0x3e3166ce	0.17324373
18	0xbe7c9a8c	-0.2466833
19	0xbbd67feb	-0.0065460107
20	0xbd15bf2b	-0.036559265
21	0x3f11233c	0.5669439
22	0xbbc5a12a	-0.006031175
23	0xbe564234	-0.20923692
24	0x3f886efc	1.065887
25	0xbf0dfc88	-0.5546346
26	0xbf0fdc35	-0.56195384
27	0xbddc7ae9	-0.10765631
28	0x3eee4366	0.46535796
29	0x3f003ab3	0.5008957
30	0x3f8e6e07	1.1127328
31	0x3e9803a9	0.29690292
32	0x3eacb701	0.3373337
33	0xbee8d7fe	-0.4547729
34	0xbecfcb2d	-0.40584698
35	0xbf48a15e	-0.78371227
36	0x3f4b463d	0.7940405
37	0xbe089908	-0.13339627
38	0x3d8fdd08	0.0702458
39	0xbeb89508	-0.36051202
40	0xbe457d59	-0.19286098
41	0x3eb4813a	0.35254842
42	0x3e411a98	0.18857801
43	0x3f244e49	0.64181954
44	0xbf257589	-0.6463247
45	0xbdcd73c9	-0.1003185
46	0xbed131cd	-0.40858307
47	0xbee95ae8	-0.45577168
48	0xbe03cab6	-0.12870297
49	0xbeb49da2	-0.35276514
50	0x3e5f1f9a	0.21789399
51	0x3d53b023	0.05168165
52	0x3f1030e5	0.5632461
53	0x3e442c23	0.19157462
54	0xbf285ccf	-0.65766615
55	0x3f011897	0.50428146
56	0xbdafcc6d	-0.08583913
57	0x3e536d88	0.20647252
58	0xbec30f24	-0.3809749
59	0xbdc0ef11	-0.09420598
60	0x3d0c1bd3	0.034206223
61	0xbef1a78a	-0.47198135
62	0x3dcd1b00	0.100149155
63	0x3e3db849	0.1852733
64	0x3f2bc22d	0.67093164
65	0x3f1f36a6	0.6219276
66	0xbecda3e2	-0.40164095
67	0xbd798b46	-0.060923837
68	0xbeb7cb8e	-0.35897487
69	0xbf1cad88	-0.6120229
70	0x3e96fcf3	0.2948986
71	0x3f09b09a	0.537851
72	0x3e6acbf2	0.22929361
73	0x3ef8146a	0.48453075
74	0xbed24481	-0.4106789
75	0xbe6100d9	-0.2197298
76	0xbe7549e0	-0.23953962
77	0xbea21b1e	-0.31661314
78	0x3f6c287f	0.9224929
79	0xbf3085ce	-0.6895417
80	0xbf0f6cfb	-0.56025666
81	0x3eaf4a9d	0.34236613
82	0x3f01dfc6	0.50732076
83	0x3e7c95fa	0.24666587
84	0xbf65751f	-0.8963184
85	0x3e86997d	0.26288977
86	0x3f186f8e	0.5954522
87	0xbe5bb576	-0.2145594
88	0xbead6376	-0.33864945
89	0x3e29446f	0.16530012
90	0xbf054b9e	-0.5206851
91	0xbe162475	-0.14662345
92	0x3d560f16	0.05226048
93	0x3ea5b499	0.32364348
94	0x3f72c234	0.9482758
95	0xbe70e515	-0.23524888
96	0xbf9ea486	-1.2393959
97	0xbe541393	-0.20710592
98	0xbf55b40f	-0.8347787
99	0x3e072051	0.13195921
100	0x3f0ffabb	0.5624196
101	0x3f3628d5	0.71156055
102	0x3cfe5ea0	0.03105098
103	0x3f0d9762	0.55309117
104	0xbf141dd4	-0.57858014
105	0x3e0ec809	0.13943495
106	0xbefadab4	-0.48994982
107	0xbe4d083d	-0.20022674
108	0x3b6a2b49	0.0035731366
109	0xbe521577	-0.20516
110	0xbe1f7a95	-0.15574105
111	0x3ce2c08d	0.027679706
112	0x3d98c9cd	0.074603654
113	0xbd8944dd	-0.06702588
114	0xbf59f5f0	-0.85140896
115	0x3e9bc24f	0.30421683
116	0xbf100a0c	-0.5626533
117	0x3bd804a0	0.006592348
118	0x3dde526f	0.10855567
119	0x3e83db44	0.25753224
120	0xbea71628	-0.3263409
121	0x3e598c29	0.21244873
122	0xbeee5fd2	-0.4655748
123	0x3bb89d3e	0.005633979
124	0xbe0142cc	-0.12623137
125	0x3e92777d	0.28606787
126	0x3f3301ae	0.6992444
127	0xbe59cbe6	-0.21269187
128	0xbc07b929	-0.008283892
129	0x3dbd4afa	0.09242816
130	0xbefa092e	-0.4883513
131	0x3da17b72	0.078848734
132	0xbf4f59f3	-0.80996627
133	0xbe5635e1	-0.2091899
134	0xbe885782	-0.26629263
135	0x3e062f84	0.13104063
136	0xbd9687d2	-0.073501244
137	0x3eac21ba	0.3361948
138	0xbdd02bf3	-0.10164633
139	0xbe398e39	-0.1812066
140	0x3ea8c724	0.32964432
141	0xbd786362	-0.060641654
142	0x3f72d533	0.94856566
143	0xbe8b63c2	-0.27224547
144	0x3f4677aa	0.7752634
145	0xbe8d1396	-0.27554005
146	0xbdd87b7b	-0.10570427
147	0xbcfd2c22	-0.030904833
148	0xbf062dde	-0.5241374
149	0x3e5f1e7c	0.21788973
150	0xbe2b9fd8	-0.16760194
151	0xbee7e106	-0.45288867
152	0x3f437107	0.7634434
153	0xbe528e6f	-0.20562147
154	0x3f14a604	0.5806582
155	0x3f15cc5e	0.58514965
156	0x3fb1b68a	1.3883832
157	0x3e491183	0.19635586
158	0xbe99c845	-0.30035606
159	0xbf06b891	-0.52625376
160	0x3d19dc39	0.037563536
161	0xbd23dce5	-0.040005583
162	0xbe94bb34	-0.29049075
163	0xbe312f5f	-0.17303227
164	0xbefefe51	-0.49803403
165	0xbebfe170	-0.37476683
166	0x3ebcf5f1	0.36906388
167	0xbdbc745c	-0.09201881
168	0x3f13eafd	0.5778044
169	0xbf02158d	-0.50814134
170	0x3f1a9c67	0.603949
171	0x3e9a2862	0.30108935
172	0xbddcfcd9	-0.10790414
173	0xbe966917	-0.29377052
174	0x3e37a8bb	0.1793546
175	0xbe30dfd2	-0.1727288
176	0x3f0822ee	0.531783
177	0x3f0078dc	0.50184417
178	0xbe20f1f5	-0.157173
179	0x3e7d2867	0.24722444
180	0x3f2153b0	0.6301832
181	0xbee6e55c	-0.45096862
182	0xbebb942f	-0.36636493
183	0xbe2b5402	-0.16731265
184	0x3da432a5	0.08017472
185	0x3f3792e4	0.7170851
186	0xbe8e1679	-0.2775152
187	0xbe9b0f0d	-0.3028492
188	0x3d54e34d	0.051974583
189	0x3e3d590f	0.18491004
190	0x3f20cf5a	0.62816393
191	0x3eb7b2db	0.35878643
192	0x3f19614a	0.59914076
193	0x3ef62495	0.48074785
194	0x3dd745c1	0.105113514
195	0xbee724bb	-0.4514521
196	0xbe8ced0b	-0.275246
197	0xbdba59e8	-0.090991795
198	0x3ef6cb84	0.48202145
199	0x3db3ac14	0.08773056
200	0xbf259a8a	-0.6468893
201	0xbf0acf29	-0.5422235
202	0x3dcd23c9	0.10016591
203	0xbdf3daee	-0.11906992
204	0xbf1ae158	-0.605001
205	0x3efe292c	0.49640787
206	0x3eae7d6e	0.3408007
207	0xbf4d2310	-0.80131626
208	0xbf0e2be8	-0.55535746
209	0xbf03d222	-0.5149251
210	0xbeb2758b	-0.34855303
211	0xbefad7e3	-0.48992833
212	0x3f4e89a2	0.8067876
213	0x3f04e57f	0.51912683
214	0xbd02e9fd	-0.03196143
215	0x3b2c9be0	0.0026338026
216	0x3f5b53c8	0.85674715
217	0xbf0a1ea3	-0.53953
218	0xbe12506a	-0.14288488
219	0x3ee38630	0.44438314
220	0x3e812e33	0.2523056
221	0x3d353fce	0.044250302
222	0xbd6d22c5	-0.057894487
223	0x3e92fba2	0.28707606
224	0xbcb2f3bf	-0.021844743
225	0x3d3f1537	0.04665109
226	0x3cd939c2	0.026516799
227	0xbd5e078e	-0.054206423
228	0x3eb9091b	0.3613976
229	0xbe3bda12	-0.18344906
230	0x3e6a8ebe	0.22906014
231	0x3ec37015	0.3817145
232	0xbd295162	-0.04133738
233	0xbea7036f	-0.32619807
234	0x3ec6b6fb	0.38811478
235	0xbf416391	-0.7554255
236	0x3eb4a769	0.35283974
237	0x3ed58caa	0.4170888
238	0x3ea6d3e3	0.32583532
239	0x3d355803	0.044273388
240	0xbf078c0e	-0.5294808
241	0xbef63d20	-0.4809351
242	0x3e0f7e27	0.14012967
243	0x3e2bb74e	0.16769144
244	0x3ec5d707	0.38640615
245	0x3f2e7ae6	0.6815628
246	0xbf9e3110	-1.2358723
247	0xbdde09c3	-0.10841706
248	0xbf2fd0b0	-0.68677807
249	0x3e2a7e3e	0.1664972
250	0x3f25ce8a	0.6476828
251	0x3f3b1788	0.7308278
252	0x3d86afde	0.06576513
253	0x3f0d399b	0.55166024
254	0xbe8bf533	-0.2733551
255	0xbee5118d	-0.44739953

q1.bias f4 [128]
0	0x3ef0f76f	0.47063777
1	0xbf0b082b	-0.5430934
2	0x3e225c21	0.15855457
3	0x3de2b6c2	0.110700145
4	0x3dbf781a	0.093490794
5	0x3eb67f00	0.35643768
6	0xbefff0c7	-0.49988386
7	0x3ece5610	0.40300035
8	0xbf07c418	-0.5303359
9	0x3de11175	0.10989658
10	0xbed465bc	-0.41483867
11	0x3eff3ff0	0.49853468
12	0x3ed369cb	0.4129165
13	0x3c70d6bd	0.014699635
14	0x3e053771	0.1300943
15	0x3cc809dc	0.024418764
16	0x3ea92535	0.330362
17	0x3ea8cf82	0.32970816
18	0x3e959252	0.29213196
19	0x3e8bf701	0.27336887
20	0x3caf12c3	0.021371251
21	0x3c367e8d	0.0111385705
22	0x3f040704	0.51573205
23	0xbf1569a5	-0.58364326
24	0x3dc465b2	0.09589709
25	0xbe9021f7	-0.28150913
26	0x3e73ec2a	0.23820558
27	0x3f083c4b	0.53217
28	0xbec7f2f5	-0.3905255
29	0xbf1fe08f	-0.62452024
30	0x3c8b3e34	0.016997434
31	0xbf16e3c8	-0.58941317
32	0xbd46c5c4	-0.048528448
33	0x3e8c1457	0.27359268
34	0x3f0c8343	0.5488779
35	0x3da858e1	0.08220077
36	0xbee963b7	-0.4558389
37	0xbe7b9419	-0.24568214
38	0xbeccee8a	-0.4002574
39	0xbf01ad60	-0.50655174
40	0xbef03259	-0.46913412
41	0xbc4510e5	-0.012027954
42	0x3ef6e79e	0.48223585
43	0x3ea56dfc	0.32310474
44	0xbf0f590b	-0.55995244
45	0xbee0925f	-0.43861672
46	0xbeb5c84b	-0.35504374
47	0x3f104a85	0.5636371
48	0xbdf00a39	-0.117207
49	0x3f14d30b	0.58134526
50	0x3e557330	0.20844722
51	0xbedecbb4	-0.43514788
52	0x3eeed828	0.4664929
53	0x3e80430a	0.25051147
54	0x3e97a3d2	0.29617172
55	0x3e85ccbc	0.26132762
56	0xbf62aa02	-0.8854066
57	0xbebf8755	-0.37407938
58	0xbef1017a	-0.4707144
59	0xbe8d4927	-0.27594873
60	0x3db44ff4	0.08804312
61	0xbf2486c7	-0.64268154
62	0xbf14723e	-0.5798682
63	0xbda22f79	-0.07919211
64	0x3f0ee395	0.5581601
65	0x3ef0f59d	0.47062388
66	0xbed47756	-0.41497296
67	0x3eff889f	0.4990892
68	0xbfa46eee	-1.2846353
69	0xbd71a739	-0.058997367
70	0xbeae9900	-0.34101105
71	0xbe90b8fe	-0.28266138
72	0xbecaf454	-0.39639533
73	0xbd74465b	-0.05963741
74	0x3f10cb8c	0.5656059
75	0x3d417585	0.047231216
76	0xbe80c462	-0.25149828
77	0x3ec26206	0.3796541
78	0x3ef791ce	0.48353428
79	0x3e679c7e	0.22618291
80	0x3eb4a90d	0.35285226
81	0xbea38db8	-0.3194406
82	0xbe8d9250	-0.2765069
83	0xbec239bd	-0.37934676
84	0x3f1cd054	0.61255383
85	0x3dffbf9a	0.12487717
86	0x3ee3452c	0.4438871
87	0xbeddd60d	-0.4332737
88	0x3e3957e9	0.18099941
89	0x3db9ae83	0.090664886
90	0xbe09f462	-0.13472131
91	0x3e73ed06	0.23820886
92	0xbcba6048	-0.022750989
93	0x3f344806	0.704224
94	0x3cd620fc	0.026138775
95	0x3ed4a55c	0.4153241
96	0x3e0284de	0.12745997
97	0x3f4ff9c9	0.81240517
98	0x3e49d553	0.19710283
99	0xbd32af0f	-0.04362398
100	0xbf044fbb	-0.5168416
101	0xbeaeb008	-0.34118676
102	0xbf333468	-0.7000184
103	0xbe4fd0b4	-0.20294458
104	0xbe52b524	-0.20576912
105	0x3f0878fa	0.53309596
106	0xbe7ecb3a	-0.24882212
107	0x3e8d9df9	0.27659586
108	0xbc91160b	-0.017710706
109	0x3e9812d6	0.2970187
110	0xbea9ffa9	-0.33202866
111	0xbef8572d	-0.4850401
112	0xbd9ea027	-0.077453904
113	0xbe5bc44c	-0.214616
114	0x3dbde5f8	0.09272379
115	0x3e5445b3	0.20729713
116	0xbf1c3690	-0.61020756
117	0xbf273705	-0.6531833
118	0xbf1940b3	-0.5986435
119	0x3f8d0e5c	1.1020007
120	0x3eedac93	0.46420726
121	0xbf939927	-1.1531113
122	0xbf21bb51	-0.6317645
123	0xbe851d12	-0.2599874
124	0x3eb1c1fd	0.34718314
125	0xbf0f9613	-0.5608837
126	0xbeb9c43c	-0.36282527
127	0x3edfaed1	0.43688062

q2.weight f4 [128, 128]
0	0xbe92aeb1	-0.28648904
1	0x3e2ef9cb	0.17087476
2	0xbe7ee941	-0.24893667
3	0xbeafdf24	-0.3434993
4	0xbd87b4e8	-0.06626302
5	0xbdc33db5	-0.09533254
6	0x3ddb58b5	0.10710279
7	0x3b1182ef	0.0022203287
8	0x3eec4db2	0.46153027
9	0xbe8fffbf	-0.28124806
10	0xbe3b8114	-0.18310958
11	0xbd620db4	-0.05518885
12	0xbf0366fb	-0.5132901
13	0xbd9e9b96	-0.077445194
14	0x3e2e2a78	0.17008388
15	0xbe0c5be0	-0.13706923
16	0xbe05c9d2	-0.1306527
17	0xbec82a6a	-0.3909486
18	0xbef2b5f8	-0.47404456
19	0xbe93263a	-0.28740102
20	0x3ecbbab4	0.3979088
21	0xbda59829	-0.08085663
22	0xbd25b4e3	-0.04045571
23	0x3ec053b4	0.3756386
24	0xbdba6d65	-0.091028966
25	0xbe624ce5	-0.22099645
26	0xbef9b76b	-0.4877275
27	0x3e1afb8f	0.15135024
28	0xbd8e9014	-0.069610745
29	0xbe232f0e	-0.15935919
30	0x3e35fea7	0.17772923
31	0x3ce8bb57	0.028409643
32	0xbf04f413	-0.5193493
33	0x3e85b40e	0.26113933
34	0xbd97d69e	-0.07413982
35	0xbe7e4cd2	-0.24833992
36	0x3e5b3246	0.21405897
37	0x3ed5650d	0.41678658
38	0x3eb756a5	0.35808292
39	0x3e27addd	0.16374917
40	0x3dd95995	0.106127895
41	0xbcc6ffba	-0.024291862
42	0xbdd3aad8	-0.1033532
43	0xbddf7eae	-0.10912834
44	0x3ea1dc16	0.31613225
45	0x3e68a11e	0.22717711
46	0x3e718aca	0.235881
47	0xbd4690e6	-0.04847803
48	0x3f1840e0	0.5947399
49	0xbf0a73c4	-0.54082894
50	0xbe89c49a	-0.26907808
51	0xbc267dce	-0.01016183
52	0xbe45abb9	-0.19303788
53	0xbf062720	-0.5240345
54	0xbd0773e9	-0.033069525
55	0x3e9d262a	0.3069318
56	0x3f1653cf	0.5872163
57	0xbdc3ae31	-0.09554709
58	0xbeac9c51	-0.3371301
59	0x3e1d5110	0.15362954
60	0x3ce25c79	0.027631985
61	0xbc7cd26b	-0.015431027
62	0x3f0efffd	0.5585936
63	0x3ddf02dd	0.10889218
64	0xbe818d13	-0.25302944
65	0x3dfab4e5	0.12241534
66	0xbea8c6d2	-0.32964188
67	0xbf3ee704	-0.7457125
68	0x3f1b9cf4	0.60786366
69	0xbdbc1eac	-0.09185538
70	0xbdd29cad	-0.1028379
71	0x3e27a4bb	0.16371433
72	0x3e2f25de	0.17104289
73	0xbe81b1b3	-0.25330886
74	0x3eba3853	0.36371097
75	0xbec50495	-0.38480058
76	0x3e1a562e	0.15071937
77	0x3c582121	0.013191492
78	0xbe9cd109	-0.3062823
79	0xbe01e4e4	-0.12684971
80	0xbecad4e2	-0.39615542
81	0x3e2bea23	0.16788535
82	0x3e458797	0.19290005
83	0xbed58d0c	-0.41709173
84	0x3d840524	0.06446293
85	0xbf1c4966	-0.610495
86	0x3ec7ed7d	0.39048377
87	0x3e1a75b3	0.15083961
88	0xbe0b967a	-0.13631621
89	0xbdb57332	-0.088598624
90	0x3ede8fbb	0.43469033
91	0x3dceff60	0.10107303
92	0x3e26c1e0	0.16284895
93	0xbe08f55a	-0.13374844
94	0xbef55d49	-0.47922733
95	0xbe99d222	-0.3004313
96	0xbefbe0ad	-0.49194852
97	0xbe7007db	-0.23440497
98	0x3e16b0d9	0.147159
99	0xbceec0f1	-0.029144736
100	0x3ebad9c4	0.36494267
101	0x3f1dd583	0.6165392
102	0xbeae8874	-0.3408848
103	0x3f0defe9	0.554442
104	0xbd948dfd	-0.072536446
105	0xbe274f2e	-0.16338798
106	0xbe32e08e	-0.17468473
107	0xbe5134d0	-0.20430303
108	0xbe91737d	-0.28408423
109	0x3c5555c2	0.013020935
110	0x3e47c847	0.19509993
111	0x3c70e47f	0.014702915
112	0xbdb0bdb1	-0.08629931
113	0x3e5bbe00	0.21459198
114	0xbe680b85	-0.22660644
115	0x3e93f3f9	0.28897074
116	0x3f2e4893	0.6807949
117	0x3e933f63	0.28759298
118	0x3e8e3d2f	0.27781054
119	0xbf21d788	-0.632195
120	0xbf24caa2	-0.64371693
121	0x3f100ec9	0.5627256
122	0x3e96ad2f	0.29429004
123	0xbdb0a06e	-0.086243495
124	0x3dd873be	0.10568951
125	0x3f152945	0.582661
126	0xbdda8289	-0.10669429
127	0xbb3b2f5b	-0.0028562162
128	0x3eb6b47b	0.3568457
129	0xbf2bbbf5	-0.67083675
130	0x3ea0f3f2	0.31436116
131	0xbe9fb5f3	-0.31193504
132	0xbea5e31f	-0.32399842
133	0xbe474020	-0.19458055
134	0x3ee9428f	0.45558593
135	0x3ee915d0	0.45524454
136	0xbeafb77b	-0.34319672
137	0x3e956537	0.29178783
138	0xbe0e5a9c	-0.13901752
139	0x3f3a08e4	0.72669816
140	0x3e9e3e84	0.3090707
141	0xbee09e2e	-0.43870682
142	0x3e77c864	0.24197537
143	0xbf276e63	-0.6540281
144	0x3f0eac79	0.5573192
145	0x3e3cadd0	0.18425679
146	0xbdb46fd2	-0.088103905
147	0x3ed41c1a	0.4142769
148	0x3e4454c2	0.19172958
149	0x3e260ebb	0.16216557
150	0x3ec6f706	0.3886034
151	0xbf168f9a	-0.5881287
152	0x3e9a91df	0.30189416
153	0x3e28b351	0.16474654
154	0x3d2a79fa	0.041620232
155	0xbdcc36ae	-0.09971367
156	0xbeb4a4da	-0.35282022
157	0xbd560053	-0.052246403
158	0x3e3b717f	0.18305014
159	0xbea49bba	-0.3215006
160	0x3e7853ca	0.24250713
161	0x3cd8c258	0.026459858
162	0x3f611be0	0.8793316
163	0xbce390ad	-0.027778948
164	0xbf4fc9ad	-0.8116711
165	0xbdffccb6	-0.124902174
166	0xbede300a	-0.43396026
167	0xbfb279a1	-1.3943368
168	0xbd9d337b	-0.07675835
169	0x3eeeb631	0.46623376
170	0x3f82a01e	1.0205114
171	0x3e7d8bf8	0.24760425
172	0xbe6dcfc5	-0.23223789
173	0xbf51e6ff	-0.819931
174	0x3eeae60e	0.45878643
175	0xbeb53849	-0.35394505
176	0xbea4ec63	-0.322116
177	0x3eea3da9	0.45750168
178	0x3cd6e2be	0.026231166
179	0xbf818485	-1.0118567
180	0xbdda1176	-0.10647862
181	0x3e1b89dc	0.15189308
182	0x3f219c09	0.63128716
183	0x3e737a5f	0.2377715
184	0xbee21841	-0.4415913
185	0xbe855fb5	-0.2604958
186	0xbede0308	-0.43361688
187	0xbf28b942	-0.6590768
188	0xbdf85ecf	-0.12127458
189	0x3eace435	0.33767858
190	0xbeb9f0ff	-0.36316678
191	0xbeadc3bb	-0.33938393
192	0x3db519ce	0.088428125
193	0xbdb9ade3	-0.090663694
194	0x3b9d2b52	0.004796424
195	0x3e8e4227	0.27784845
196	0xbf0478e1	-0.51746947
197	0xbf014d80	-0.5050888
198	0xbf1642c0	-0.586956
199	0x3f1b0db3	0.6056778
200	0xbcf06f7d	-0.029350037
201	0x3ed8afd1	0.42321637
202	0xbe850f7a	-0.2598837
203	0xbd87ffa8	-0.066405594
204	0xbeda3b38	-0.42623305
205	0x3ea6a512	0.32547814
206	0x3f22a434	0.63531804
207	0xbeb9c50f	-0.36283156
208	0x3c5fb4f1	0.01365398
209	0x3e36e388	0.17860234
210	0xbe14755e	-0.14497897
211	0x3d1e166c	0.038595602
212	0x3f76cdf5	0.96408015
213	0x3dfa7986	0.1223021
214	0xbe6b026a	-0.2295014
215	0x3dbefe00	0.093257904
216	0xbf384a2d	-0.71988183
217	0x3ef4f362	0.47841936
218	0x3c554077	0.013015858
219	0x3dc03439	0.09384961
220	0x3d62fa19	0.055414293
221	0x3f7aa55f	0.97908586
222	0xbdbe89fc	-0.09303662
223	0x3e79bcf0	0.2438848
224	0xbe696c23	-0.22795157
225	0x3f6ff3aa	0.93731177
226	0x3ec5962c	0.38591135
227	0xbe928bca	-0.28622276
228	0xbf226a47	-0.63443416
229	0xbe93254e	-0.287394
230	0xbe97ad86	-0.29624575
231	0xbefbf823	-0.4921275
232	0xbece2134	-0.40259707
233	0x3ee7af79	0.45251063
234	0xbe3a4975	-0.18192084
235	0xbdd3bf77	-0.103392534
236	0xbee18df1	-0.44053605
237	0x3d2dff31	0.042479698
238	0x3efe2302	0.49636084
239	0xbdb1f0e0	-0.086885214
240	0xbf35b7b7	-0.7098345
241	0xbd1f3a33	-0.038873862
242	0x3cb3ff72	0.021972392
243	0xbe15aca9	-0.14616646
244	0xbec6749f	-0.3876085
245	0xbf0c8eb6	-0.5490526
246	0xbf8a223b	-1.0791696
247	0x3eb59c04	0.35470593
248	0x3ef15b9c	0.47140205
249	0xbee31f28	-0.44359708
250	0xbff1dcde	-1.8895528
251	0xbc4739da	-0.012159789
252	0x3cad14dc	0.02112811
253	0xbe4d0a57	-0.20023476
254	0xbe0baf04	-0.13640982
255	0x3d1aad3d	0.03776287

q2.bias f4 [128]
0	0xbf1d53fd	-0.6145628
1	0x3eecd2db	0.4625462
2	0xbf2929c5	-0.6607936
3	0xbddbe337	-0.10736697
4	0xbf09c898	-0.53821707
5	0x3f10a1ec	0.56497073
6	0x3ec8b221	0.39198402
7	0x3e3e1bc9	0.18565287
8	0xbec5c41f	-0.3862619
9	0x3f031015	0.51196414
10	0x3d2912c3	0.04127766
11	0x3f1fd68d	0.62436754
12	0xbd661ea1	-0.056181554
13	0x3e128bc7	0.14311133
14	0xbf232fbf	-0.6374473
15	0x3f27d9bb	0.65566605
16	0x3f2647b1	0.6495314
17	0xbec04c79	-0.37558344
18	0x3eb16cb3	0.34653243
19	0x3f0ba3b9	0.54546696
20	0x3edcbecb	0.43114313
21	0x3f138449	0.57623726
22	0x3effa0c7	0.4992735
23	0xbf22272b	-0.63341016
24	0xbecbe1d4	-0.3982073
25	0x3f1b1e19	0.605928
26	0xbe44f98f	-0.19235824
27	0xbf295308	-0.6614232
28	0xbf0b45c7	-0.54403347
29	0x3f0025c2	0.50057614
30	0x3f135437	0.57550377
31	0xbe7e9319	-0.24860801
32	0x3f3875a7	0.72054523
33	0xbeaedf04	-0.34154522
34	0x3e8615ae	0.26188415
35	0xbf2ccda4	-0.6750128
36	0x3f30f5e6	0.6912521
37	0xbed614e3	-0.4181281
38	0xbf165cbc	-0.5873525
39	0xbe8f60c6	-0.2800352
40	0x3f0da9a1	0.5533696
41	0x3f0918f8	0.53553724
42	0x3f082f4f	0.5319719
43	0xbf26b2c9	-0.65116554
44	0x3f288884	0.65833306
45	0x3ed9c5fd	0.42533866
46	0xbf32c3c7	-0.6982998
47	0xbf2adcec	-0.6674335
48	0xbeb36478	-0.3503759
49	0xbf234ffd	-0.6379393
50	0xbe07fc61	-0.13279869
51	0x3e9dab63	0.3079482
52	0xbf18ae13	-0.59640616
53	0xbf2a4d6b	-0.6652438
54	0x3f3d236e	0.73882186
55	0x3f121cb5	0.57075053
56	0xbf2608c8	-0.6485715
57	0x3f0d9bfa	0.55316126
58	0xbe90a4d4	-0.28250754
59	0xbf34e6f2	-0.70664895
60	0xbed25e0b	-0.41087374
61	0xbf0b8a74	-0.5450814
62	0x3eade487	0.33963415
63	0xbf087d7b	-0.5331647
64	0x3e97af4e	0.29625934
65	0x3f053fb0	0.52050304
66	0xbe00f196	-0.12592158
67	0x3eb5abbb	0.35482582
68	0x3b178b01	0.0023123624
69	0x3eac0e39	0.336046
70	0x3f35b426	0.7097801
71	0xbf301cd5	-0.68793994
72	0x3f30b4c0	0.690258
73	0xbf2949dc	-0.66128325
74	0xbf10f664	-0.5662596
75	0x3ede1456	0.4337489
76	0x3f0ad3bb	0.54229325
77	0x3f13d777	0.5775065
78	0xbf1f2e25	-0.62179786
79	0xbe434392	-0.19068745
80	0xbf19484f	-0.5987596
81	0x3f2a6de8	0.66573954
82	0x3f107302	0.5642549
83	0xbf1b49b3	-0.6065933
84	0xbef62cc4	-0.48081028
85	0x3db5f2b3	0.08884182
86	0x3f10e552	0.56599915
87	0xbf09bc54	-0.5380299
88	0x3f1edb06	0.62052953
89	0xbf0bc583	-0.54598254
90	0x3f10a4d3	0.565015
91	0xbf358f23	-0.70921534
92	0xbf1f4468	-0.62213755
93	0x3f1c00f8	0.6093898
94	0x3f10b0ab	0.56519574
95	0x3f1999c5	0.6000026
96	0x3f1b6a2f	0.607089
97	0x3f2a6ce8	0.6657243
98	0xbf1f2a4d	-0.6217392
99	0x3f086ae3	0.53288096
100	0x3f127e37	0.5722384
101	0x3f0a09b0	0.5392103
102	0xbf0a5592	-0.5403682
103	0xbf321747	-0.6956677
104	0xbe706f6c	-0.23480004
105	0x3e4acf35	0.19805606
106	0xbf07b885	-0.5301593
107	0xbf0d57f7	-0.5521235
108	0xbf13b210	-0.57693577
109	0x3ed60c9d	0.41806498
110	0x3dcc877f	0.09986781
111	0x3f2a31ad	0.6648205
112	0x3d0c9a78	0.034327
113	0x3e54900c	0.20758075
114	0xbf1c9250	-0.61160755
115	0x3f1bb659	0.60825115
116	0x3ee0646b	0.43826613
117	0x3f22d05a	0.6359917
118	0xbf2f39ae	-0.6844739
119	0x3f2ca555	0.67439777
120	0x3f22e422	0.63629353
121	0x3f2b82b7	0.6699633
122	0x3f146550	0.5796709
123	0xbf121713	-0.5706646
124	0xbea34e5a	-0.31895715
125	0xbf1628c9	-0.58655983
126	0xbe43b02c	-0.19110173
127	0x3f265545	0.6497386

q3.weight f4 [2, 128]
0	0xbf7e8b25	-0.9943107
1	0x3b970b74	0.0046095196
2	0xbec1bf1a	-0.3784111
3	0xbf2aac4f	-0.6666917
4	0x3e988590	0.297894
5	0x3efa94fc	0.4894179
6	0xbde02554	-0.1094462
7	0x3ee2b365	0.44277492
8	0x3d88148e	0.066445455
9	0x3d118de0	0.035535693
10	0x3eacda91	0.33760503
11	0x3f8e27be	1.1105878
12	0xbeaf9fc5	-0.34301582
13	0x3eba001f	0.36328217
14	0xbf40c90f	-0.7530679
15	0x3f8878ac	1.0661826
16	0x3f87c40c	1.0606704
17	0xbe838267	-0.25685427
18	0x3f33d0c7	0.70240444
19	0x3eec0743	0.4609929
20	0x3ed5460b	0.41655
21	0x3f1ac3fb	0.6045529
22	0x3f3603c4	0.71099496
23	0xbf83716e	-1.0268991
24	0xbf12b960	-0.5731411
25	0x3f51bf49	0.81932503
26	0xbe03295e	-0.12808749
27	0xbfac93fc	-1.3482661
28	0xbf3ad6bf	-0.72983927
29	0x3f8acd88	1.0843973
30	0xbecbc55e	-0.39799017
31	0x3de098af	0.10966622
32	0x3eea2c6e	0.45737022
33	0xbf0d2528	-0.5513482
34	0x3ee6bedd	0.45067492
35	0xbf361ba1	-0.7113591
36	0x3ed14154	0.40870154
37	0xbf3df9b6	-0.74209154
38	0xbeb9a0da	-0.36255533
39	0xbf020461	-0.5078793
40	0x3f2705b7	0.65243095
41	0x3ec8ca03	0.39216623
42	0x3f82876e	1.019758
43	0xbf36ed57	-0.714559
44	0x3f59b153	0.850362
45	0xbec18fcc	-0.3780502
46	0x3ddcf854	0.10789552
47	0xbf57f2b7	-0.8435473
48	0xbe981bb0	-0.29708624
49	0xbf1cb693	-0.61216086
50	0xbeca5264	-0.39515984
51	0x3ec6f02e	0.38855118
52	0xbf8a6e3c	-1.0814891
53	0xbedaf248	-0.4276297
54	0x3e9bfc12	0.30465752
55	0x3f507801	0.8143311
56	0xbf6a6293	-0.9155666
57	0x3ed3acca	0.41342765
58	0x3e3fab5e	0.18717715
59	0xbf0b2121	-0.54347426
60	0xbf08413b	-0.53224534
61	0xbf7f0eca	-0.9963194
62	0x3e93a672	0.28837925
63	0xbeea2db7	-0.45738003
64	0x3ea30a47	0.31843778
65	0x3f4551fb	0.7707822
66	0x3e85140b	0.25991854
67	0x3efa4fbb	0.48888955
68	0xbf0762a0	-0.52884865
69	0x3e0709f4	0.1318739
70	0x3f2435c3	0.64144534
71	0xbf906146	-1.1279685
72	0x3f5cb93b	0.8622014
73	0xbf810670	-1.008009
74	0xbea1c93a	-0.31598836
75	0x3f28cf2d	0.65941125
76	0x3f88e7d2	1.0695746
77	0x3f83ba5a	1.0291245
78	0xbf89ddec	-1.077085
79	0xbf326a59	-0.69693524
80	0xbf70f269	-0.9411989
81	0x3ee229f1	0.44172624
82	0x3f9e5130	1.2368526
83	0xbefc23db	-0.49246106
84	0xbf5c98ad	-0.86170465
85	0x3f005a03	0.50137347
86	0x3f942090	1.1572437
87	0x3d93969e	0.07206462
88	0x3efd7adb	0.49507794
89	0xbf9d2e0a	-1.2279675
90	0x3f87df9a	1.0615113
91	0xbf2fd785	-0.6868823
92	0xbf281845	-0.6566203
93	0x3f916ade	1.1360738
94	0x3f85821e	1.0430334
95	0x3f407bcb	0.75188893
96	0x3ef48686	0.47758883
97	0x3f80907c	1.0044093
98	0xbf8a806a	-1.0820439
99	0x3f825e06	1.0184944
100	0x3f8de80c	1.108644
101	0x3f84cb8e	1.037462
102	0xbee568ba	-0.44806463
103	0xbefc7a94	-0.4931227
104	0xbf1885af	-0.59578985
105	0x3eed1bab	0.4631017
106	0xbf51fc3f	-0.8202552
107	0xbe82850e	-0.25492138
108	0xbf309487	-0.68976635
109	0x3e287a49	0.16452898
110	0x3ea526f4	0.3225628
111	0xbe9e0491	-0.3086286
112	0x3e29f817	0.16598545
113	0x3ef69a7c	0.48164737
114	0xbf30b227	-0.6902184
115	0x3f8a71dc	1.0815997
116	0x3e27418a	0.16333595
117	0x3ed3431d	0.4126214
118	0xbf284aa1	-0.65738875
119	0x3f83a6ac	1.0285239
120	0x3f8b5530	1.0885372
121	0x3f883d78	1.0643759
122	0x3f858478	1.0431051
123	0xbf809062	-1.0044062
124	0x3ca6a1e1	0.020340862
125	0xbf869754	-1.0514932
126	0xbebb811d	-0.36621943
127	0x3f83b034	1.0288148
128	0xbf3d4619	-0.73935086
129	0x3f7d3ebb	0.98923844
130	0xbf1c64db	-0.61091393
131	0xbf0d340d	-0.5515755
132	0xbf3c2007	-0.7348637
133	0xbd483e21	-0.048887376
134	0x3f8e6c3f	1.1126784
135	0x3f2e6fe2	0.6813947
136	0xbf9fcfcf	-1.2485293
137	0x3f0d2589	0.551354
138	0x3e884147	0.26612303
139	0x3f4b6a87	0.7945942
140	0x3d74ba77	0.05974814
141	0xbdeac065	-0.114624776
142	0xbf9fd5d8	-1.2487135
143	0x3f4b2f71	0.79369265
144	0x3f599947	0.8499951
145	0x3e3a600c	0.18200701
146	0x3d6682bf	0.056277033
147	0xbd955e32	-0.07293357
148	0xbdf228e2	-0.11824204
149	0x3ddd0e30	0.10793722
150	0x3f6b995a	0.9203087
151	0xbf2ebd9d	-0.68258077
152	0xbe42a0cf	-0.19006656
153	0x3fa4dc5a	1.2879746
154	0xbf887f72	-1.0663893
155	0xbfa45576	-1.2838581
156	0xbf9bdc7a	-1.2176659
157	0x3f557de7	0.83395237
158	0x3f373c0a	0.7157599
159	0xbf627780	-0.8846359
160	0xbdc8e750	-0.09809744
161	0x3b5622bf	0.003267452
162	0x3f4fd2e9	0.811812
163	0xbfa9ad8e	-1.325609
164	0xbe061edc	-0.1309771
165	0xbf755b55	-0.95842487
166	0x3d92a1dd	0.07159779
167	0x3d100b3d	0.035166968
168	0x3f63fd73	0.8905861
169	0xbdc56f70	-0.09640396
170	0x3f2a5303	0.66532916
171	0xbfa8f96e	-1.320112
172	0x3f587fb9	0.8456989
173	0x3f4f7187	0.81032604
174	0xbf3a1f68	-0.7270417
175	0xbfa8a1fa	-1.3174431
176	0x3e2a4c48	0.16630661
177	0xbf552fcf	-0.83276075
178	0x3e870e2e	0.26378006
179	0x3d90d915	0.07072655
180	0xbf430ef7	-0.7619471
181	0x3d04cd70	0.032422483
182	0x3f8c1872	1.094496
183	0x3fa791da	1.3091385
184	0xbef56ecb	-0.4793609
185	0xbd02c0a7	-0.03192201
186	0xbf36459d	-0.7119997
187	0xbf993416	-1.196902
188	0xbe3a6a30	-0.1820457
189	0xbf283f41	-0.6572152
190	0xbddde9a9	-0.10835583
191	0x3d43d1fd	0.047807682
192	0x3f198573	0.5996925
193	0x3f87551c	1.0572848
194	0xbf63427a	-0.8877331
195	0x3ed10553	0.40824375
196	0xbda975f4	-0.08274451
197	0xbdd65665	-0.10465697
198	0x3fa1ae18	1.2631254
199	0xbf53f1cd	-0.82790834
200	0x3f9ab67e	1.2086942
201	0xbf23838f	-0.6387262
202	0x3df3df13	0.119077824
203	0x3e6c463f	0.23073672
204	0x3f47af05	0.78001434
205	0x3f2cd81b	0.6751725
206	0xbf3c4dc3	-0.73556155
207	0xbe411315	-0.18854935
208	0xbf9b2624	-1.2121015
209	0xbd22df8a	-0.039763965
210	0x3f86a5d0	1.0519352
211	0xbf4b3755	-0.79381305
212	0xbf0775d9	-0.52914196
213	0xbf63ee33	-0.8903534
214	0x3f127ffd	0.57226545
215	0xbf7b21b5	-0.9809831
216	0xbd010dfa	-0.03150747
217	0xbf3b3996	-0.73134744
218	0x3f34c269	0.70609146
219	0xbf9d2f76	-1.2280109
220	0xbfa67e98	-1.3007383
221	0x3f8f9b5a	1.1219285
222	0x3f89cc96	1.076556
223	0x3f9d6196	1.2295406
224	0xbcf1af1a	-0.02950244
225	0x3f2985af	0.6621961
226	0xbf3399ad	-0.70156366
227	0x3f26afa5	0.6511176
228	0x3f55745b	0.8338067
229	0x3fa48b6a	1.2855046
230	0x3d74fe54	0.05981286
231	0x3d379ac5	0.044825334
232	0xbd70b9d2	-0.058770962
233	0xbc021d22	-0.007941516
234	0xbec529b5	-0.38508382
235	0xbf9a1b1b	-1.2039522
236	0xbf6080a0	-0.87696266
237	0xbe90d524	-0.28287613
238	0x3d29bbc8	0.041438848
239	0x3f4ba4d7	0.795484
240	0xbdf1c1b7	-0.11804526
241	0x3d4664a5	0.048435826
242	0xbeb53151	-0.35389188
243	0x3f4b47e7	0.7940659
244	0xbe4c321f	-0.19940995
245	0xbdd422a0	-0.10358167
246	0xbfa084d6	-1.2540538
247	0x3f8a9c66	1.0828979
248	0x3f4d93cb	0.8030364
249	0x3f30e085	0.6909259
250	0x3f96dfc8	1.1787043
251	0xbf30af87	-0.69017833
252	0xbec32a9b	-0.38118443
253	0xbf3c2107	-0.73487896
254	0x3dd22a24	0.10261944
255	0x3f52b56b	0.8230807

q3.bias f4 [2]
0	0x3f3bb72f	0.7332639
1	0x3f8bf87a	1.0935204
