aes_rl/checkpoint/introducecharacter_seed1_bcq_bc.ckpt (torch, 72471 bytes, 6 tensors)

i1.weight f4 [128, 6]
00000000: a7b4 dcbe d10e 6b3e 407d 23be 8c7c 5f3f
00000010: 747e 9ebd e1d7 203d 9316 b03d 73bb 85be
00000020: b1cf 57bd e0ad 353b 02c3 613c 3c83 b33d
00000030: dc4c e33e 7aff a93c 77ff ab3e 85de 743e
00000040: 2912 12bf a4e2 fb3e f36f 0a3c f62d 9abe
00000050: 15f7 8d3d 5eb9 de3d 63ec 8d3b 3e2a 04bd
00000060: 895b f6bc 6fc7 673d ec46 c1bc 48b9 c23a
00000070: 2275 c9bc 057a f5bd 983a b13e 6f3e 1bbd
00000080: c247 18bf 08a7 6dbe 5455 17be 4c83 613e
00000090: 1263 8ebd e566 693e aa03 c7be d181 a43e
000000a0: 42ce 2d3f b8c0 f2be 53fd e33e 5b7b 1abe
000000b0: 6190 2dbe 8186 afbe 349b cebe 8aa4 db3d
000000c0: 2185 a73e f114 9bbe a677 c33d 749d 29be
000000d0: 0aec cc3e b3fd c1bc 9560 4fbe 5c77 46be
000000e0: 4de4 d53e 42a5 193d 6ef1 0e3d bc7f 503e
000000f0: c054 843e 0150 37be 304e f53d 164a 25be
00000100: b848 3f3e 4b86 1abe 8d32 c0be c616 0fbd
00000110: 18fd 97bd b8ff 7e3d 0fbd 163e 6803 a8bc
00000120: 5a49 693e bd74 5cbe df92 8a3e 0039 653c
00000130: 6a32 1a3b d07c 883b ba56 463f a7ee 26bd
00000140: 3a20 053f ff44 cf3d 2ed2 e33e 3a3e 6abe
00000150: 1806 b63e 11bb 3dbe ca65 eb3e c726 aabf
00000160: 6940 853e bcf4 54bf 486c efbd 0637 7e3d
00000170: 3b59 9a3e 108d cebe 3af9 b73e 56bd 76bd
00000180: 3539 b1bc 89ae 963e a29b ed3e dc21 90be
00000190: b24a f5be 2a69 913e 894a 323f 27c8 073e
000001a0: 9135 9b3e dfa5 b3be 02d0 ff3e ba9a 98be
000001b0: 5c5c 23be f9d6 ddbd cced 4f3d 80b4 90bd
000001c0: d6e2 113b 71d8 4abc baf6 a83e 039c 8e3d
000001d0: eebc 9fbe c41e 063d b100 1cbd 254e 07be
000001e0: b49c eabe 003f ca3e 3f8a 0fbf 36e2 c33f
000001f0: abcf 47be 2f19 c23e 418f 273e cc38 f0be
00000200: feee b23e 0a3a 003f 8aef 583e f62a a2be
00000210: 022f 4c3e b25c ab3d 5f8a a8be d35e f33c
00000220: b8b1 663e f7ab 873e d749 9abe 3321 963e
00000230: 191d bd3e c064 87bd c059 1fbe 9440 72be
00000240: 3bb9 a73d bbcc 053d 68de b83e 0dde bd3c
00000250: 699f 893e d4c0 02bf 72ad 103e 4ba3 e93d
00000260: 4cde 2bbe b68c cebd c9b2 a9be 477d 8fbd
00000270: 20cd b63e 777a 413e dc5a e1be b165 a5be
00000280: 15b2 e4be 1c0c 34be 9b72 ad3e 3c3f 00bd
00000290: 161e 74be d2c8 80be 7f4a 91be 3420 6b3e
000002a0: 75ac 8cbe 7ca9 023e 50bc c23e ed28 2f3e
000002b0: 6e7b 8a3e 3b3e eabd 46ae d43d 276b 38bd
000002c0: 183a 773e 4f86 553e f936 113e ba1f 12be
000002d0: bc57 0dbe 8de0 ea3a bb2a dbbe 78c5 3abe
000002e0: 7607 253e fd08 8b3e 8dcd fd3e e863 233d
000002f0: 8512 843d befb 0ebf ceee 273f df58 e9be
00000300: 40f3 373d 5371 83bd a684 79bc 7614 96bc
00000310: a798 0a3b 6903 31bc b8a8 043f e3f9 6cbe
00000320: dcd1 a3be 2085 033e 5725 aabe fa7c fe3d
00000330: c923 73be 4bff 20be 687b 6c3d b55f d6bd
00000340: bbd6 30be 58a4 1ebe bb36 303d 5375 b7bd
00000350: 628e 95bd 9a49 fe3e c565 7c3e 19d7 c7be
00000360: 28df 9d3e 3c29 aa3d e6b5 dbbd 5192 fcbd
00000370: af77 0d3f f954 8bbe 9cf3 a23e 419b 763c
00000380: 4055 10bf 4319 cdbe a80a 85be ba56 a13e
00000390: 959b bb3e c13f c1be 216d 7a3e dbfa 35be
000003a0: 300c 813e 517d c53e a9cb 4b3e 322e 88bd
000003b0: 76c0 793e 6041 533d 3562 96be e86e 5fbe
000003c0: 12ca 4fbe 285e 69bd 5798 f53e b0b1 0a3e
000003d0: e833 563e 7cc3 683d 906f 95bc 3fbf 8dbd
000003e0: 6d7a 39bd 279a b3be 7acf a7be dd01 283e
000003f0: 5a74 8abc aee6 bdbd be14 6bbd 73a2 b2bb
-0.43106577 0.22954871 -0.15965748 0.8729942 -0.07738963 0.03926838 0.08598056 -0.26119575
-0.052688304 0.0027722046 0.013779404 0.08765265 0.44394577 0.020751704 0.33593342 0.2391301
-0.5705896 0.4919635 0.008449542 -0.3011319 0.06931893 0.108752 0.004331158 -0.032266848
-0.030072944 0.05658668 -0.023593388 0.0014856244 -0.024591986 -0.11986164 0.34615016 -0.03790134
-0.59484494 -0.23208249 -0.14778644 0.22022742 -0.0695249 0.22793157 -0.38869983 0.32130292
0.6789285 -0.47412658 0.4452921 -0.15086119 -0.16949607 -0.34282306 -0.40352786 0.10724743
0.32718757 -0.30289415 0.095443055 -0.1656397 0.40023834 -0.023680544 -0.20251687 -0.1938147
0.41775742 0.037511118 0.034898214 0.20361227 0.2584591 -0.17901613 0.11977804 -0.16141543
0.18680084 -0.15090291 -0.37538567 -0.034933828 -0.07421321 0.06225559 0.14720558 -0.020509437
0.22781888 -0.21528907 0.2706518 0.013990641 0.0023528584 0.0041652694 0.77476084 -0.04075494
0.520023 0.10120582 0.44496292 -0.228753 0.35551524 -0.18528391 0.45976096 -1.3293084
0.26025704 -0.83185935 -0.11690575 0.062064193 0.30146202 -0.40341997 0.35932332 -0.06023916
-0.021633724 0.29430035 0.464078 -0.28150833 -0.4790855 0.28400546 0.6964498 0.13259946
0.30314305 -0.35087487 0.49963385 -0.29805547 -0.15953201 -0.108320184 0.05076389 -0.07065678
0.002226045 -0.012380705 0.33000737 0.069633506 -0.3119883 0.032744184 -0.038086597 -0.13213404
-0.4582268 0.3950119 -0.5607032 1.5303409 -0.19512813 0.3790984 0.16363241 -0.46918333
0.34947962 0.5008856 0.21185127 -0.31673402 0.19939807 0.083672896 -0.3291807 0.029708302
0.22528732 0.26498386 -0.3013446 0.29322204 0.36936262 -0.066110134 -0.1556158 -0.23657447
0.08189627 0.03266595 0.36107183 0.023177171 0.26879433 -0.5107548 0.14128664 0.11408099
-0.16784018 -0.10085432 -0.33144215 -0.07006317 0.35703373 0.18894373 -0.44014633 -0.32304147
-0.44667116 -0.17582744 0.338765 -0.031310305 -0.23839602 -0.25153214 -0.28377149 0.22961503
-0.27475324 0.12759966 0.38034296 0.17105456 0.27047294 -0.11437651 0.103848025 -0.045024063
0.24143255 0.20852016 0.14181127 -0.14269915 -0.13803 0.0017919705 -0.42806038 -0.18239391
0.16116127 0.27155295 0.49570885 0.0398902 0.06448845 -0.5585288 0.6559876 -0.45575616
0.044909716 -0.06418099 -0.01522938 -0.018320303 0.0021148117 -0.010804036 0.51819944 -0.23142199
-0.31996047 0.12843752 -0.33231613 0.12426181 -0.2374412 -0.15722387 0.057734877 -0.104674734
-0.17269413 -0.1549238 0.043020945 -0.08957925 -0.07302548 0.4966553 0.24648197 -0.39031294
0.30834317 0.08308646 -0.10728054 -0.12332595 0.5526075 -0.27213266 0.31826484 0.015051664
-0.5638008 -0.40058336 -0.25984693 0.3151148 0.36642137 -0.37743953 0.24455692 -0.17771475
0.2520461 0.3857217 0.19901909 -0.06649436 0.24389824 0.05157602 -0.293718 -0.21819651
-0.20291927 -0.05697456 0.4796779 0.13544345 0.20918238 0.056827053 -0.018241674 -0.06921243
-0.04528277 -0.35078546 -0.3277548 0.16406961 -0.016901184 -0.09272514 -0.05739283 -0.0054514944

i1.bias f4 [128]
00000000: 96a6 bc3d f10b 5e3e cb6e d4be 04cf 093e
00000010: 3a11 45bc c586 f33e ada3 c8be 6c39 c03e
00000020: 98d2 3dbe 851c 1cbe 1e48 983d 8600 eb3d
00000030: 4656 0cbe ae1c 97be fe0a d7be ac57 89be
00000040: 60ca 90be 2710 0fbe 4594 263e eb2a d33d
00000050: fb16 c43e 1d9c e8be 966e 52be 42dc 39be
00000060: 52df acbe 3364 613e d942 093f 3053 623e
00000070: 7885 e0be dda3 b2be 92aa 8e3e d9fa b9be
00000080: 6333 863d 23c0 a33e 80a8 e83e 9926 11be
00000090: 9561 14be 83dc cc3e 63d8 a4be 4acc 053e
000000a0: 0ed4 cfbe f9d9 c73e a56b 6c3e c39e b23e
000000b0: 36af 5f3e efb8 d1bd 7d82 06be 088c aebe
000000c0: 1d3f 0d3f 56c4 45be 4f20 97bd 52b8 64bb
000000d0: b5b5 ae3e 49d0 9bbd fe8e 26be 0dab 813e
000000e0: 09b8 493b 1013 b03e 7f71 6bbe d1be 2b3d
000000f0: 84e5 adbe 00cb 8bbe c0aa 583e 1b06 80bc
00000100: d671 22be 4e0c 00be 72e3 313e c31d 323e
00000110: 5632 8d3d d953 33be a9df a93e be29 3abd
00000120: 64f5 a4bd d2a6 dd3d 7cf9 0dbe c238 b7be
00000130: d092 903e e34b c1bd fd4e 813e cdd8 86bb
00000140: f720 b83d 4460 9abe 3026 ad3e d7c0 083e
00000150: 9bbe 0ebe d9be 80be ea9c 5ebd 3de7 57be
00000160: 408a 82be 8bd2 a8be 44ba 89be 857e e0be
00000170: e746 99be 17e6 babd 631c 8bbe 0470 423c
00000180: 631e b63e 7427 363d ede3 e33d 1c0d 68bd
00000190: d3ec 52be cbd6 7fbc 443f 303d 4151 523e
000001a0: 95dc 8cbe cd73 c93d b5a8 f43d 0cf2 96be
000001b0: e10c 8ebe 80a8 31be 08af 56be 8506 b3bd
000001c0: 6682 863c d822 1ebd 36ab 5ebe 2396 48be
000001d0: 08b2 53bc 13b8 393e b488 b53d 50a2 133d
000001e0: 3580 9e3d 1e74 a33d 1305 d8be cf38 a23e
000001f0: 3254 18bb 6979 663e 68df 04be bf46 6bbe
0.09211461 0.21684243 -0.41490778 0.13457876 -0.012028033 0.47563758 -0.39187375 0.3754381
-0.18537366 -0.15245254 0.0743563 0.11474709 -0.13704786 -0.29514068 -0.42000574 -0.268247
-0.282794 -0.13971005 0.16267498 0.1031092 0.38298783 -0.45431605 -0.20549998 -0.18150428
-0.3376413 0.22010879 0.53617626 0.22102046 -0.4385183 -0.34890643 0.2786451 -0.36324194
0.0655277 0.31982526 0.45441055 -0.1417488 -0.1449035 0.40011987 -0.3219634 0.13066211
-0.40591472 0.39033487 0.23087938 0.3488675 0.21844181 -0.102403514 -0.13135715 -0.3409121
0.5517443 -0.19313177 -0.07379209 -0.0034899903 0.34123006 -0.076080866 -0.16265485 0.25325814
0.003077986 0.34389544 -0.22992514 0.041930024 -0.3396417 -0.27303314 0.21158886 -0.015627911
-0.15863737 -0.12504694 0.1737192 0.17394166 0.068943664 -0.17512454 0.33178452 -0.045449965
-0.08054617 0.10822834 -0.13864702 -0.3578549 0.2823701 -0.09438302 0.25255576 -0.0041152
0.089906625 -0.3015157 0.33818197 0.13354813 -0.13939898 -0.25145605 -0.054348864 -0.21084304
-0.254961 -0.32973132 -0.26899922 -0.43846527 -0.29936907 -0.091259174 -0.27170095 0.011867527
0.35570058 0.04447122 0.11127458 -0.056653127 -0.20598154 -0.0156151755 0.043029085 0.20538808
-0.2751204 0.0983654 0.11946241 -0.29481542 -0.277442 -0.17349434 -0.20965207 -0.08741478
0.0164196 -0.03860745 -0.21745 -0.19588523 -0.012920864 0.18136625 0.08863965 0.036043465
0.07739297 0.07981132 -0.4219137 0.31683967 -0.0023243544 0.22507252 -0.12975848 -0.22976206

i2.weight f4 [128, 128]
00000000: 694f cebc 5498 483c ed6f e9bc 5d21 8abd
00000010: 7773 23bd a851 5cbd 1c58 813d 0101 3fbc
00000020: 5670 9c3c 1537 11bd 7507 f1bd 50c6 383d
00000030: 04a8 a7bb 4d15 3f3d 6259 58bd d9e4 bdbd
00000040: b2dc 06bd 3323 bb3c e253 72bd c13d 8dbd
00000050: 87b0 8fbd efee 1cbc ca8b 18bd e344 6d3b
00000060: aec7 30bd 4469 7d3d d358 673d 625c d23c
00000070: df6b a43d c492 74bd 73ac 053d 9b0c ffbd
00000080: a335 923c fbd8 d63c 77f8 fa3c f935 e9bc
00000090: bd6e 483d add6 a0bc c5c6 db3c 9e95 85bd
000000a0: c50f 5a3d 3f7a ba3d 4681 84bd bce3 bbbd
000000b0: 7f89 0bbd dcc6 d0bc 3496 24bd 1608 9cbd
000000c0: ebd6 643d 5e15 8bbd c759 153c a091 abbc
000000d0: 1734 6dbd 5e8d 08bc 805d 2a3d d7b3 813c
000000e0: ea7a 033d 71f6 683c ff0a a5bc b36c b03b
000000f0: 2bc2 223c 4fff b13b 6d5e 02be bfa9 403d
00000100: 3d64 e33c 453c 773c 6d21 d2bc ac59 083d
00000110: 2e6b 993d 13c5 5ebb bd94 05bd 5271 1a3d
00000120: f691 9c3d 20e0 863d 5ec5 e13c c9fc f93c
00000130: 6232 403d 8333 98bd 0182 e1bc b934 13bd
00000140: 3181 f4bc 3408 ccbc 78d5 9d3c 64c5 8fbd
00000150: 32cf 663c f7ac 66bc 2622 4d3d dc6e 7a3a
00000160: 5635 09bc 36ed 763b 3db1 3abd be21 503d
00000170: 7575 7bbd 8e2b a1bd 0d71 02bd 6503 8a3d
00000180: c7d6 47bd 68a3 293c 27f2 5b3d 1c7e 45bd
00000190: 033b 6d3b da42 32bd defb e5bc 79f1 3e3c
000001a0: dfc6 a23d 7586 2abc 027a 66bc c078 3e3d
000001b0: 4f06 ce3d 9673 2b3d 97b0 0ebc 41e9 993d
000001c0: 9db1 893c 98ff 9ebd 093b 40bd c9df 0dbd
000001d0: 3b4f 94bb 723f 39bd 4d7d 5dbd 5504 3a3b
000001e0: 2a5e 943d 882b 6fbc 96df 6fbd 6f73 033d
000001f0: 219a edbc 2640 bf3b 601f 083c ce98 803d
00000200: d463 e1bc fffc c5bc d780 b83d c3fd 0fbe
00000210: 4f44 4f3c 21b7 33bd efe7 73bd dc95 7abc
00000220: a893 893d 3065 463a 7ee1 2b3d 0922 bbbc
00000230: 89cb 503d 6376 833d 4ccf a43d 1c81 083d
00000240: c395 a63a 56fb a43c ec7a b6bc 620e 1b3d
00000250: 844e 8b3d 520f 963c 2d7b 29bc 86b6 c8bd
00000260: c0f0 5cbd 8496 acbd f851 833d 2f55 b3bc
00000270: e10c 2abd 1f02 5a3d 4cc1 19bd ca1d 863c
00000280: 36bf 4e3b a1be 75ba 01d2 bcbb 3e95 5ebd
00000290: 03f0 82bd 2e04 b8bd 9ba2 133d 2dfe a539
000002a0: 8810 ae3c 75c8 8abc e6a5 fa3c 6989 c2bc
000002b0: 3fa4 50bd a2d5 b93c 2c54 cf3b dae9 dc3b
000002c0: f877 fe3c d394 c03b ab03 153d 1a7e 04bd
000002d0: 10af 1bbd 0268 563d b73d cfbb f45b 24bc
000002e0: 9ddc 80bd 1cd3 05be eb69 c33b 901d 233d
000002f0: f129 e23d 0c89 4bbd 520c 163d e1e9 733d
00000300: 97f5 63bd dcf8 acbd 7ab7 3d3d bb6e 5f3d
00000310: 72d2 623c 75ef a53c 1e6a 50bd d5b0 5ebd
00000320: 7639 28bd ab75 9c3c f898 503a 898a 3ebc
00000330: 9d9c 87bc f574 8bbc dfab 173d 7d5c a6bd
00000340: d26b 743b 1a11 c43c bd19 8c3d b9e6 ad3d
00000350: f266 eb3c 1a7f 00bb 3926 423d 3d49 39bd
00000360: 74b5 ab3c 5813 66bc 642d 893d d62f 413c
00000370: 3fc6 dcbc cdc9 35bc c6e4 a63d 7fd4 5a39
00000380: bd5b b8bc a078 cf3c a81f 2dbd 2db4 0dbc
00000390: 9ce8 3ebd 3d4f c73c df36 0f3c a0e6 a33b
000003a0: 9700 50bd abd4 85bd 83ed 243d 2dd1 2a3d
000003b0: c46f ec3d eea3 83bd 5581 94bd aef9 573d
000003c0: 2616 05bc 0603 04bd c838 b83d 22fa cebd
000003d0: a336 0d3d 326f adbd 69d9 8cbd 8d8a c93b
000003e0: 7531 13bd 4614 6a3c f837 083d 465a a83d
000003f0: f972 2a3c cc08 353d 9098 7ebc 24bd 2abd
-0.02518435 0.012243349 -0.028495753 -0.06744645 -0.039905038 -0.05378881 0.06315634 -0.011657954
0.019096535 -0.03545292 -0.117690004 0.045111 -0.0051164646 0.046651173 -0.052819617 -0.09272165
-0.032925315 0.022843933 -0.059162028 -0.06896544 -0.07016092 -0.009578451 -0.03724269 0.003620439
-0.04315918 0.061867967 0.056481194 0.025678817 0.08028387 -0.05971028 0.032635164 -0.12453576
0.017847842 0.026226511 0.030636055 -0.028468119 0.048933733 -0.019633615 0.02682818 -0.06522678
0.053237695 0.09105348 -0.064699695 -0.09174296 -0.034066673 -0.025485449 -0.040182307 -0.0761873
0.055869024 -0.06791185 0.009115643 -0.020943463 -0.057911005 -0.008334486 0.041593075 0.015832825
0.03209964 0.014218912 -0.020146845 0.0053840517 0.009933989 0.0054320465 -0.12731333 0.047036882
0.027757758 0.015090053 -0.025650704 0.033288643 0.07491146 -0.0033991977 -0.03261255 0.037705727
0.07645027 0.06585717 0.027559932 0.030516045 0.04692305 -0.074317 -0.027527811 -0.035938952
-0.02984676 -0.024906255 0.019266829 -0.07020071 0.014087485 -0.014079324 0.050081395 0.00095532625
-0.008374533 0.003767801 -0.045579184 0.05081343 -0.061391313 -0.078696355 -0.031846095 0.06738929
-0.048788812 0.0103539005 0.05369773 -0.04821597 0.0036198504 -0.043520786 -0.028074201 0.011654251
0.07948088 -0.010408034 -0.014067175 0.046501875 0.10059797 0.04185828 -0.0087090945 0.07515193
0.016808325 -0.077635944 -0.0469313 -0.034637246 -0.0045260466 -0.04522652 -0.054074574 0.002838393
0.07244523 -0.014597781 -0.058562838 0.032092508 -0.029004158 0.0058365045 0.008308262 0.06279145
-0.027513422 -0.02416849 0.09008949 -0.14061646 0.012650563 -0.043875817 -0.05954736 -0.015294518
0.06717616 0.00075681787 0.041963093 -0.022843378 0.050975356 0.06419065 0.08047351 0.033326253
0.0012709427 0.020139378 -0.02227541 0.037855513 0.06802085 0.018317852 -0.010344309 -0.098004386
-0.053940535 -0.08427146 0.06412119 -0.021891205 -0.04151619 0.05322468 -0.037537858 0.016371626
0.0031547076 -0.0009374414 -0.005762339 -0.054341547 -0.06393435 -0.08985172 0.036043745 0.00031660628
0.021248117 -0.016941288 0.030596685 -0.023747163 -0.050937887 0.022684876 0.0063271727 0.0067417445
0.031063065 0.005877116 0.03638045 -0.032346822 -0.03800875 0.052345283 -0.0063244957 -0.010031689
-0.06292079 -0.13068813 0.005963554 0.039823115 0.11043156 -0.049691245 0.036632843 0.059549216
-0.055654135 -0.08445904 0.046317555 0.05454896 0.013844119 0.020255784 -0.05088245 -0.05436786
-0.041070424 0.019099077 0.00079573644 -0.011629709 -0.016554171 -0.017023543 0.037029143 -0.081231095
0.0037295711 0.023933936 0.06840847 0.084912725 0.028735612 -0.0019607008 0.047399733 -0.04523586
0.020960547 -0.014042698 0.06698111 0.01179119 -0.02695 -0.011095476 0.08149104 0.00020869261
-0.022504682 0.025326073 -0.042266518 -0.008648914 -0.046608552 0.024329776 0.00874111 0.005001858
-0.050781813 -0.06534704 0.04026557 0.04170339 0.11544755 -0.064277515 -0.072512306 0.052728347
-0.008122956 -0.032229446 0.08995205 -0.10106303 0.034475934 -0.084684744 -0.06877405 0.0061505497
-0.035935838 0.01428706 0.0332565 0.08220343 0.010403388 0.044197842 -0.015539303 -0.041684285

i2.bias f4 [128]
00000000: fdf9 603d 7a79 a33d e3a2 a53f 5359 29bd
00000010: 015b b2be bc68 a9bf b36b 03bc 4d64 a53d
00000020: fd9a 873f b48d a63f a467 22bd 4aff 993d
00000030: 10d4 50bd 941d 1c3d 7d29 cfbc d5e4 95bf
00000040: 2214 983d 6e3b 7bbd 08b1 5a3c 1c82 b1bf
00000050: a530 933d bc35 d03d 7490 ff3e 604e 823d
00000060: 6901 15bd 1c66 0ab9 163a 92bd c36e 593d
00000070: e20b 7e3b 1354 bdbf 1a9d 9fbc 7028 143c
00000080: 4a63 c8bd 20ae f93c ac8c 9a3d 3aa1 573d
00000090: 7322 48bd e2c2 72be cd25 263e 4167 e3bc
000000a0: bfde 863d 7b25 0bbe 840f 983c 2a3e 59bd
000000b0: 8adf e83a e959 78bd 65a2 6fbd 5005 6cbc
000000c0: 5434 803d 3608 ebbb 6996 913f 8bfa a43f
000000d0: 8e16 d03c 6c7a 583d 36fb 98bc b3de b63c
000000e0: d11c 153e ea20 543d e13f d63c 15fc b0bc
000000f0: 01db 6d3d 192d 523d 4c02 773d 7671 803c
00000100: fc28 283d 1987 d0ba 2138 a8bf 46f8 af3f
00000110: 36fd 9e3d 46a3 7cbf 57de a83d db10 92bd
00000120: 3b3b 4f39 a638 17bc 2daa a6bf 8590 043c
00000130: 0eff b8be 8fce a63f 48d9 e9bc 6c1c 7f3b
00000140: 7b25 11bd c962 953f b9be cd3e dc12 b4bd
00000150: 434b 0cbd f94b a83f 37f6 573d a273 a03f
00000160: 76c0 f2bc 5395 ebbc 9d33 17bd 1cdb 5e3d
00000170: 8db5 653f 5c78 a83f aca5 7fbd 5202 5e3c
00000180: c2a2 a43c b372 073a 3e64 c33c 3e02 b33f
00000190: eb61 abbf bb1b ab3f 159d cbbc 6c9f 173d
000001a0: 92f0 7f3c 3cb6 07bd 8bfe 49bd 4364 4d3d
000001b0: f535 aabb b70e ad3f 3845 843a ce54 113d
000001c0: 200b 5e3c 39d4 22bc 6593 ac3b 331c e23e
000001d0: 47ac 52bc 5c11 08bc 4db2 66bd e5c0 1e3d
000001e0: 6794 4abd 5be1 81bf 560d 8b3e 7a88 6bbd
000001f0: 442e 99bb efb2 0d3c 8c4c 98bf 4179 ed3c
0.054925907 0.07982154 1.2940334 -0.04134495 -0.34835055 -1.3235087 -0.008021283 0.080757715
1.0594174 1.3011994 -0.03964962 0.07519396 -0.05098349 0.038114145 -0.025288338 -1.1710459
0.07425715 -0.061335973 0.013347872 -1.3867831 0.071870126 0.10166499 0.49914896 0.06362605
-0.036378298 -0.00013198744 -0.07139985 0.053084146 0.0038764407 -1.4791282 -0.019484092 0.009042844
-0.09784563 0.030478537 0.07546362 0.052643992 -0.04886098 -0.23707154 0.16225357 -0.027759196
0.06585454 -0.13588516 0.018562086 -0.0530378 0.0017766815 -0.06063262 -0.05850448 -0.0144055635
0.06259981 -0.0071726097 1.1374027 1.288896 0.02540138 0.052851126 -0.018674474 0.022322988
0.14561774 0.0517892 0.026153507 -0.021604577 0.058070187 0.05131254 0.060304925 0.015679102
0.04105471 -0.0015909403 -1.3142129 1.3747642 0.0776314 -0.98686635 0.08245533 -0.07132121
0.00019763123 -0.009229815 -1.3020684 0.008091097 -0.3613209 1.3031787 -0.02854599 0.0038926853
-0.035436135 1.1670772 0.40184572 -0.0879266 -0.034251463 1.3148185 0.052725043 1.2535288
-0.029632788 -0.028757727 -0.036914457 0.054408178 0.8973015 1.3161731 -0.062413856 0.013550358
0.02009714 0.0005166933 0.02385151 1.3985059 -1.3389257 1.3367838 -0.024855176 0.03701727
0.015621321 -0.033132777 -0.049315017 0.050144445 -0.0051944205 1.3520116 0.001009143 0.035481267
0.013552457 -0.009938293 0.0052665942 0.4416214 -0.012858457 -0.00830492 -0.056322385 0.038758177
-0.049457934 -1.0146898 0.27158612 -0.0575032 -0.0046747047 0.008648618 -1.189836 0.028988482

i3.weight f4 [2, 128]
00000000: 1120 c43a 9514 e1bb 2649 06be fb06 0a3c
00000010: bd46 b1bc aa5c 263e f96f 5bbb 76ca 29bb
00000020: db98 21be edb2 14be 0039 ec38 0398 04bb
00000030: 787e e4bb b5ee 6fb9 a416 c83a e5d8 993d
00000040: a05a 0b3c 46a7 b4bb 1f48 ac3b c70a 203e
00000050: d3db d13a 99d5 313d ba55 133e 8355 23bc
00000060: 1444 033b 73d8 453b bfa4 11be c44c 983a
00000070: f4e1 923a 180d 303e 6584 81bb 0959 da3b
00000080: 2d82 093e d882 7d39 f59d 1e3b 64e2 c0b7
00000090: ccf7 a639 38d7 c8bd e4a2 8a3e 2e31 ce3a
000000a0: 4f94 a5bd a9ed 26be 4e1d d3bb f5ef bcbb
000000b0: 3d72 73bb b8e4 c1bb 903f 353a 6794 a83b
000000c0: cf8c ff3d 11b2 d73a 1a9f c1bd f256 f6bd
000000d0: 945c 063c 9fd1 d8bb 90dd 1cba 33c0 093b
000000e0: 2dcd 4abd ab20 153e a4de 863b caff e5bb
000000f0: 896a 393e 9f05 493b ac97 053c cd4a 743a
00000100: 1b54 403b b1e5 78ba 66f1 ec3d f25b 1ebe
00000110: b9a7 79bb f964 753d e0de 203a aacb fabb
00000120: a5be acbb 024e 2e3b 11b4 063e 5e8e 97bb
00000130: c5ed efbd 3d59 10be bccf 32bc c345 1ebe
00000140: 317b 823a 98c4 d4bd c9bb 993d 2656 363b
00000150: 95e1 ec38 0883 20be fb09 a13b a038 ecbd
00000160: b0f9 fa37 2d48 d13d 9cf6 36ba d7ec 99bb
00000170: 8ae5 17be 82a0 e2bd 20ae c8ba 2f6b b63b
00000180: e1a0 963b 9806 933b 602e d33b d581 24be
00000190: fe86 f03d 3a3d f5bd 2749 083b 3f7e 9bba
000001a0: f094 e2bb 09d1 12bc 2ff1 223b f871 093c
000001b0: 377e 0e3b 9929 0abe c0c6 84bb 6be5 0d3c
000001c0: d497 24bb 3096 723b efa7 663a 1681 b7bd
000001d0: 5a91 a23a a114 a53b 0183 efbb c436 e0bb
000001e0: 07f9 833d c885 8d3d 6c02 303e bc08 87bb
000001f0: 052e a23a 75b5 823b eb23 ae3d 344c 34bb
00000200: a154 ecba bbcb 163a cce7 dabd c6f5 593a
00000210: f69d 783e 24c9 f03d af3f 52bb e27a fdb9
00000220: f176 6ebe 73df 07be 7613 f5b9 b134 773b
00000230: 0e43 c7ba 531e 7b3b 1ea4 15b9 15e3 d43d
00000240: c7f3 2c3a b43a a5bb 5c23 96b9 b53a 063e
00000250: 8edd a43b 60a3 17bd 5d34 903e 90d9 a13b
00000260: 4116 f3bb 18b0 253b 2259 473e bb9c fb3a
00000270: db43 8fbb 04dc 083e 41e2 bbbb 585c cb3a
00000280: 8c51 3ebe 82ed 05bb 3533 b5bb cdcf de3a
00000290: 2eff 5dbb 051c b43e 6313 8bbe fbf3 bf3a
000002a0: d183 353d caef 393e 1ce0 0a3b f891 8ebb
000002b0: eecd 4d3b a165 0abb 3564 35bc 5f22 b439
000002c0: ff00 06bd b81a 31bb 2a4f 9cbd ce14 b6bd
000002d0: 9e33 923a ba35 d23b 34af 8ebb bbb3 1b3b
000002e0: 9ced 793c 3649 09bd a9aa a6bb 9304 ff3b
000002f0: 65b7 45bb fb80 8ebb eec4 e53a a09e a5b9
00000300: 5cac 103b f274 f2b9 9a06 af3d 5014 0abe
00000310: 831b 2f3a 55fe 66bb 3ece 8f3a 1664 dbba
00000320: 6c06 a7bb 498d 7e3a d30a dd3d 3d19 2d3c
00000330: 0ce8 5b3e 79ce c6bd c442 6bbb 477a 23be
00000340: a4b9 22ba fa5c b2bd 9348 96bd a7b0 753b
00000350: 88de b139 90df f4bd 627e 0c3b 5800 afbd
00000360: ce3e b0bb 55e4 85be 746c e63a 4746 863b
00000370: e27d 283d 2fb9 9ebd 001e bebb 5059 303b
00000380: f89a 8cba faf3 74bb cf7e 563b c168 0abe
00000390: e4d7 c73d a97b b8bd caa8 76bb 4140 923b
000003a0: f449 cfba 525a 46b9 2d03 2fbb b293 1e3b
000003b0: 39ca 5f3c ff3d e9bd 868a e839 d24d 4f3b
000003c0: 4897 42bb 08c6 e6b9 da99 97b9 94f0 3a3e
000003d0: 5de2 723a 9994 d2ba 1eb2 c4bb 0d15 823a
000003e0: 5a24 8cbe 4ca2 87bb 775b 043e 40dd beba
000003f0: 824b e1ba bed3 b2bb f66f 5f3d 5fdc 2dbb
0.001496317 -0.0068689086 -0.13113841 0.008424516 -0.021640176 0.16246286 -0.003348349 -0.002590803
-0.15780966 -0.1452138 0.00011263974 -0.0020232208 -0.006973084 -0.00022881741 0.0015265536 0.075120725
0.008505493 -0.0055131046 0.005257621 0.15629111 0.0016010947 0.043416593 0.14388171 -0.009969118
0.0020029591 0.0030188828 -0.14223002 0.0011619558 0.0011206255 0.17192495 -0.0039525502 0.006663446
0.13428564 0.00024176703 0.0024203036 -2.2993605e-05 0.0003184661 -0.09806675 0.270774 0.001573121
-0.08084928 -0.16301598 -0.0064427024 -0.00576591 -0.0037146949 -0.005917158 0.00069140736 0.005144644
0.12478029 0.0016456266 -0.09454174 -0.12028302 0.008200783 -0.0066167857 -0.0005983943 0.00210191
-0.049512077 0.14563243 0.0041158963 -0.007019018 0.18107046 0.0030673516 0.008153837 0.00093190075
0.0029347006 -0.0009494676 0.115694806 -0.15464762 -0.0038094355 0.05991075 0.00061367266 -0.007653673
-0.00527175 0.002659679 0.13154627 -0.004625126 -0.11715273 -0.14096542 -0.010913786 -0.154563
0.0009954927 -0.1038906 0.0750652 0.0027822345 0.00011295375 -0.15674984 0.00491452 -0.11534238
2.9918592e-05 0.102188446 -0.00069794967 -0.004697423 -0.14833656 -0.11065771 -0.0015310682 0.0055669765
0.004596815 0.00448687 0.0064447373 -0.16065152 0.11744498 -0.11974569 0.0020795555 -0.0011863186
-0.0069147274 -0.008960971 0.0024862995 0.008388989 0.002174271 -0.13492431 -0.004052013 0.008660655
-0.002511491 0.0037015788 0.0008798828 -0.08960168 0.0012402937 0.0050378595 -0.007309318 -0.006842466
0.064439826 0.069102824 0.17188424 -0.0041209143 0.0012373334 0.0039889165 0.085029446 -0.002751124
-0.0018030592 0.0005752404 -0.10688743 0.0008314516 0.24279007 0.117571145 -0.0032081415 -0.00048347475
-0.2328756 -0.13268833 -0.0004674454 0.0037720616 -0.0015202479 0.0038317635 -0.00014270886 0.10394875
0.0006597605 -0.0050423983 -0.00028636574 0.13108332 0.005031294 -0.03702104 0.2816495 0.0049392655
-0.0074184244 0.0025281962 0.19467595 0.001919649 -0.0043721027 0.1336518 -0.0057337587 0.0015515191
-0.18585795 -0.0020435755 -0.005529786 0.0016999185 -0.0033874023 0.35177627 -0.27163228 0.0014644855
0.044315163 0.18157879 0.0021190709 -0.004350897 0.0031403261 -0.0021117704 -0.0110712545 0.00034357884
-0.032715794 -0.0027023982 -0.07632287 -0.08890687 0.0011154299 0.006415096 -0.004354382 0.002375825
0.015254404 -0.033517085 -0.0050862622 0.0077825277 -0.0030169126 -0.0043488718 0.0017530003 -0.00031589437
0.002207539 -0.00046244968 0.08546181 -0.13484311 0.000667982 -0.0035246809 0.0010971499 -0.0016738202
-0.005097201 0.0009710384 0.1079308 0.010565099 0.21475238 -0.0970735 -0.003589795 -0.15964614
-0.0006207472 -0.0870914 -0.07338061 0.0037489326 0.0003392587 -0.11956704 0.0021437635 -0.085449874
-0.0053785807 -0.26150766 0.0017579929 0.004097733 0.041135676 -0.07750165 -0.005801916 0.0026908703
-0.0010727337 -0.0037376867 0.0032729392 -0.13516523 0.09757975 -0.09007961 -0.0037637227 0.004463226
-0.0015814886 -0.00018916398 -0.0026704774 0.002419692 0.0136590535 -0.11388778 0.00044353696 0.0031632078
-0.0029692221 -0.00044016563 -0.00028915593 0.18255836 0.0009265298 -0.0016066014 -0.0060026785 0.0009924487
-0.27371484 -0.0041392203 0.12925516 -0.0014561787 -0.0017188641 -0.0054573705 0.054550134 -0.0026529056

i3.bias f4 [2]
00000000: 0aa9 08bd f913 abbd
-0.033364333 -0.08353419
