aes_rl/checkpoint/introducecharacter_seed1_fqe_q.ckpt (torch, 72471 bytes, 6 tensors)

q1.weight f4 [128, 6]
0	0xbeb6ed22	-0.35727793
1	0x3ea7c6b3	0.32768783
2	0xbea73460	-0.32657146
3	0xbe19bf4d	-0.15014382
4	0xbf0ebfe9	-0.5576158
5	0xbe8c5422	-0.27407938
6	0x3c6054fd	0.013692138
7	0x3f04e1e7	0.519072
8	0xbe98b9ba	-0.29829198
9	0xbf044e3d	-0.5168188
10	0xbe856ae5	-0.26058117
11	0xbee83a27	-0.45356867
12	0x3e9c2332	0.30495602
13	0xbe409334	-0.18806154
14	0x3de494db	0.111612044
15	0x3f492fd5	0.7858861
16	0xbed9ace2	-0.42514712
17	0xbc8a7867	-0.016903115
18	0x3eab50f5	0.33460203
19	0x3eee1ddf	0.46507165
20	0x3e1827e3	0.14858966
21	0xbf89458c	-1.0724349
22	0xbf56635e	-0.8374537
23	0xbf58cc16	-0.8468641
24	0xbffc8f60	-1.9731255
25	0xbf45406d	-0.7705143
26	0xbf6e6a66	-0.931311
27	0xbf0c649e	-0.5484103
28	0xbf57d900	-0.8431549
29	0xbfe8ea06	-1.8196418
30	0x3f9abc57	1.2088727
31	0x3fcaa489	1.5831462
32	0x3f7aa8a7	0.97913593
33	0x3f61e605	0.88241607
34	0x3e9ad784	0.3024255
35	0x3f2c0d55	0.67207843
36	0x3ea47ee7	0.3212807
37	0xbf1e02aa	-0.61722815
38	0x3ee499b7	0.44648525
39	0x3e595e21	0.21227314
40	0x3f0c1a32	0.5472747
41	0x3efe83d9	0.49709967
42	0xbd94f3e7	-0.07273083
43	0xbed80711	-0.4219289
44	0x3e1eb10a	0.15497223
45	0xbc933c2d	-0.01797303
46	0x3e32c178	0.17456615
47	0x3f0a5c10	0.54046726
48	0xbef55b41	-0.47921184
49	0xbdc5123f	-0.09622621
50	0xbe4c4f07	-0.19952022
51	0x3f4c2245	0.7973979
52	0xbebe965a	-0.37224084
53	0x3f28ccb5	0.6593736
54	0xbdf274fc	-0.11838719
55	0xbdc6774f	-0.09690725
56	0x3e5637b5	0.20919688
57	0x3df0c885	0.11756996
58	0x3f3df822	0.74206746
59	0x3f38724b	0.720494
60	0xbf33f4ac	-0.70295215
61	0xbef6ba69	-0.48189095
62	0x3e932248	0.28737092
63	0x3e9c22b9	0.3049524
64	0x3ec91b6c	0.39278734
65	0x3f26ccb6	0.65156114
66	0x3f47315e	0.77809703
67	0xbe964933	-0.29352722
68	0xbf3c053b	-0.7344548
69	0x3ef848a6	0.48492926
70	0x3f173099	0.5905853
71	0xbe5f534a	-0.21809116
72	0xbf02d4c3	-0.511059
73	0x3f086096	0.5327238
74	0xbecc2a7e	-0.3987617
75	0xbe578e02	-0.21050265
76	0xbf22a2ad	-0.63529474
77	0x3d7ee1ba	0.06222699
78	0xbe00ccf7	-0.12578188
79	0xbe8a9a3b	-0.27070794
80	0xbead4b73	-0.33846626
81	0xbe0776be	-0.1322889
82	0x3ec8a584	0.39188778
83	0x3e91faa4	0.28511536
84	0x3f495893	0.7865078
85	0xbdc4ba8b	-0.09605893
86	0xbe9c8561	-0.3057051
87	0x3f511d9d	0.8168581
88	0xbf2ce560	-0.675375
89	0xbdf174c1	-0.11789847
90	0xbf47c945	-0.7804149
91	0x3f072588	0.52791643
92	0x3eeab377	0.45840046
93	0xbee3b389	-0.44472912
94	0xbebdb258	-0.37050128
95	0xbdbb0d4c	-0.091333956
96	0xbed87814	-0.42279112
97	0x3ed9a137	0.4250581
98	0xbeead17c	-0.4586295
99	0xbf11a990	-0.56899357
100	0xbdb7cd58	-0.08974713
101	0x3e09375e	0.13400027
102	0x3f6f3d2b	0.9345271
103	0xbd9e831c	-0.07739851
104	0xbf4c84ce	-0.79890144
105	0x3f10f077	0.5661692
106	0x3dce784b	0.10081538
107	0x3ecabdd2	0.39597946
108	0xbf2dbce6	-0.6786636
109	0x3d2fbda3	0.04290546
110	0x3e61236c	0.21986169
111	0x3e7b49d4	0.24539882
112	0x3ee34e94	0.44395888
113	0xbf60940e	-0.87725914
114	0x3f2a6a93	0.6656887
115	0xbee50777	-0.44732258
116	0x3e1b5a49	0.1517116
117	0xbe3a94d4	-0.18220836
118	0xbd5c845b	-0.05383716
119	0x3f24fd49	0.6444898
120	0x3f93524c	1.150949
121	0x3e80a7e6	0.25128096
122	0xbf353e73	-0.70798415
123	0xbebda78b	-0.37041888
124	0x3e878102	0.26465613
125	0xbeb07145	-0.34461418
126	0xbedcb54d	-0.43107072
127	0x3eacb15e	0.3372907
128	0xbf1b6329	-0.6069818
129	0x3e73b877	0.23800837
130	0xbb6f20ce	-0.003648806
131	0x3e4a3ae7	0.19749032
132	0xbd4adbdc	-0.04952608
133	0xbee704d9	-0.45120886
134	0xbe8618e7	-0.26190874
135	0xbeff777e	-0.49895853
136	0x3f1bad28	0.6081109
137	0x3f39a557	0.72517914
138	0xbf753821	-0.9578877
139	0xbe6784fd	-0.22609325
140	0xbe7ac86b	-0.24490516
141	0x3f50f8b6	0.816295
142	0x3f66cac8	0.9015317
143	0xbf14d0da	-0.5813118
144	0x3ec6a428	0.38797116
145	0xbe23e39c	-0.16004795
146	0x3f329e6c	0.6977298
147	0xbe4daa3f	-0.20084475
148	0x3e865ea7	0.2624409
149	0xbeafe3c7	-0.34353468
150	0xbf389f31	-0.72117907
151	0x3e7675c8	0.24068367
152	0xbd05e283	-0.03268672
153	0xbd209065	-0.039200205
154	0x3e8f399b	0.27973637
155	0xbf0f95d7	-0.5608801
156	0x3ee96ccd	0.4559082
157	0x3f0019e1	0.5003949
158	0x3ed638fa	0.41840345
159	0x3e98f2ef	0.29872844
160	0xbf5ea94b	-0.8697707
161	0xbf29066b	-0.6602542
162	0xbd95ce2a	-0.07314713
163	0x3e86fc7d	0.26364508
164	0xbf312966	-0.69203794
165	0x3e76cc65	0.24101408
166	0xbea0056a	-0.3125413
167	0x3e3fbc30	0.18724132
168	0xbf6baa03	-0.9205629
169	0x3ea5d763	0.3239089
170	0xbd9c33ad	-0.07627044
171	0x3ef0f42f	0.47061297
172	0x3eb6924a	0.35658485
173	0xbf295a82	-0.6615373
174	0x3f52b30c	0.82304454
175	0xbf252a28	-0.6451745
176	0x3ec8afd0	0.39196634
177	0xbe289742	-0.1646395
178	0x3eca67c9	0.39532307
179	0x3ea04000	0.31298828
180	0x3d110433	0.035404395
181	0x3e7c3a36	0.2463158
182	0x3f9e56f9	1.2370292
183	0x3fd8307e	1.6889799
184	0xbf10d1c6	-0.5657009
185	0xbf36813c	-0.71290946
186	0x3f58c54e	0.84676063
187	0x3f0101a8	0.5039315
188	0x3f29f567	0.6639008
189	0x3f718be0	0.9435406
190	0x3fa081c6	1.2539604
191	0x3fecb815	1.8493677
192	0xbf5e654f	-0.86873335
193	0xbed3e9a8	-0.41389203
194	0x3f20cbea	0.6281115
195	0xbed2ab1f	-0.4114618
196	0x3ea53ed0	0.32274485
197	0x3f140bed	0.578307
198	0xbf83006f	-1.0234507
199	0xbe84a022	-0.25903422
200	0xbf3a609f	-0.7280368
201	0x3f1cd790	0.6126642
202	0x3e31e1f0	0.17371345
203	0x3f2832f2	0.65702736
204	0xbf0f7126	-0.56032026
205	0xbe1d5239	-0.15363397
206	0x3f416964	0.7555144
207	0xbedecc0a	-0.43515044
208	0xbf126eac	-0.5720012
209	0x3e987730	0.29778433
210	0x3f72ce82	0.94846356
211	0xbe9a7dab	-0.30174002
212	0xbf5474bc	-0.8299062
213	0x3f0b8fab	0.54516095
214	0x3d4640ea	0.04840175
215	0x3f0135e2	0.50472844
216	0x3fb249b5	1.3928744
217	0x3e0d7a0c	0.13816088
218	0xbf23558e	-0.6380242
219	0xbe9d585f	-0.30731484
220	0xbbff2697	-0.0077865827
221	0xbc90b17b	-0.017662754
222	0xbf107448	-0.5642743
223	0x3d8e8aa6	0.06960039
224	0xbe0a2f66	-0.13494644
225	0xbef43e85	-0.4770395
226	0x3ed09d75	0.4074513
227	0x3e315376	0.17316994
228	0x3f31ccc7	0.6945309
229	0x3ece9865	0.40350643
230	0xbed17e0c	-0.4091648
231	0xbf341d09	-0.70356804
232	0xbe46ae83	-0.19402508
233	0xbbb671ef	-0.005567781
234	0x3fe8bd20	1.8182716
235	0x3f6d09af	0.925929
236	0x3f660cbb	0.89863175
237	0x3ee01486	0.43765658
238	0x3f8e1fb5	1.1103426
239	0x400e6476	2.2248816
240	0xbf8109ce	-1.0081117
241	0x3e2b4cd0	0.1672852
242	0x3e8c80e3	0.27442083
243	0x3da5e994	0.08101192
244	0xbe8bd134	-0.27308047
245	0x3d98d328	0.0746215
246	0x3eaa031a	0.3320549
247	0xbec93e71	-0.39305452
248	0xbe11b362	-0.14228585
249	0x3f16d705	0.58921844
250	0xbee6290b	-0.44953188
251	0x3df24c91	0.1183101
252	0x3f5e14c3	0.8675043
253	0x3ea58fb9	0.32336214
254	0xbf44fde4	-0.76949906
255	0x3d9f8bec	0.0779036

q1.bias f4 [128]
0	0x3f263f33	0.64940184
1	0x3ebfeada	0.37483865
2	0xbec323a9	-0.38113144
3	0x3e2d7559	0.16939296
4	0xbefdc59a	-0.4956482
5	0x3fc95059	1.5727645
6	0xbf0afc2e	-0.54291046
7	0xbdd53642	-0.104107395
8	0xbebfd095	-0.37463823
9	0xbf3a7fd0	-0.72851276
10	0xbeb39ccf	-0.35080573
11	0x3ca35355	0.019937197
12	0x3ee8c6c9	0.4546416
13	0x3d281b99	0.041041944
14	0xbda1a8c9	-0.07893521
15	0x3c52eba3	0.012873563
16	0x3f2b0a63	0.66812724
17	0xbeb487b1	-0.35259774
18	0x3ebcd848	0.3688376
19	0xbf0ae3c4	-0.5425379
20	0x3e82b751	0.25530484
21	0x3d257574	0.040395215
22	0xbf03a60b	-0.51425236
23	0x3e13f932	0.14450529
24	0xbec855d4	-0.39127982
25	0x3de9333e	0.11386727
26	0x3d909496	0.070595905
27	0x3e8a02e0	0.26955318
28	0x3e71b21c	0.236031
29	0xbf11dd18	-0.5697799
30	0x3f198989	0.59975487
31	0x3e475f29	0.19469894
32	0xbcb9e938	-0.022694215
33	0x3e4f5289	0.20246328
34	0x3ea3992f	0.31952807
35	0xbe4d7d47	-0.20067321
36	0x3ebe6a64	0.37190545
37	0x3eba302f	0.36364886
38	0x3ea61ae6	0.32442397
39	0x3f5e5856	0.8685354
40	0xbddfd357	-0.10928982
41	0xbcc4bdcc	-0.024016283
42	0x3e6d7df9	0.23192586
43	0x3e8b4bb2	0.27206188
44	0xbe3d71c3	-0.18500428
45	0x3e4794a2	0.19490293
46	0x3e2eb34a	0.17060581
47	0xbf0265a6	-0.50936353
48	0x3efe0a49	0.49617222
49	0xbef06b93	-0.46957073
50	0xbd3d4187	-0.04620507
51	0xbe4a447a	-0.19752684
52	0xbd24f9c1	-0.040277246
53	0x3efe596a	0.49677593
54	0xbf16ba79	-0.58878285
55	0xbe05648c	-0.13026637
56	0x3e6506ee	0.22365925
57	0xbe8f384a	-0.27972633
58	0xbed44507	-0.41458914
59	0x3f2e97c5	0.6820033
60	0x3eeaf8e1	0.45893005
61	0x3e491f44	0.19640833
62	0x3ec6257c	0.38700473
63	0xbf243293	-0.6413967
64	0xbf321680	-0.6956558
65	0x3bcbf1d7	0.006223898
66	0x3d91f0cc	0.071260065
67	0xbe6fb018	-0.23407018
68	0x3e620a8d	0.22074337
69	0xbd768917	-0.060189333
70	0xbc22417d	-0.009903309
71	0xbf79d6ce	-0.9759339
72	0xbf211916	-0.62928903
73	0x3ee6c79f	0.45074174
74	0x3c8cab35	0.017171482
75	0x3e6f3612	0.2336047
76	0xbd8d152e	-0.06888805
77	0xbea8257d	-0.328411
78	0xbe214bda	-0.15751591
79	0x3e5bc65e	0.2146239
80	0x3e8a868c	0.27055776
81	0xbf3aa285	-0.72904235
82	0xbed27554	-0.4110514
83	0x3d36f636	0.0446684
84	0xbeb9fe54	-0.3632685
85	0x3eedac47	0.464205
86	0x3ec960b2	0.39331585
87	0x3f2ce335	0.6753419
88	0x3f0c5445	0.54816085
89	0xbf211b28	-0.6293206
90	0xbc3640d9	-0.011123859
91	0xbdd1f412	-0.10251631
92	0x3f2b3dda	0.66891253
93	0x3e9c3ba6	0.30514258
94	0xbee6be23	-0.45066938
95	0xbca7a336	-0.020463567
96	0xbe0f7d29	-0.14012589
97	0xbe87a65e	-0.26494116
98	0x3e6a2e0b	0.22869126
99	0x3dd22815	0.10261551
100	0xbcd09a02	-0.025464062
101	0xbf2c33b4	-0.6726639
102	0x3d85dd50	0.06536353
103	0x3f6725d5	0.902921
104	0xbed57fff	-0.41699216
105	0xbf1e1e8b	-0.61765355
106	0x3da61ab7	0.08110564
107	0xbe402d49	-0.18767275
108	0x3f895a6c	1.073072
109	0x3ea3fbd3	0.32028064
110	0xbe172efd	-0.14764018
111	0x3e99bba9	0.30025986
112	0x3ee4eea0	0.44713306
113	0x3f204fd3	0.626218
114	0xbef62d8b	-0.48081622
115	0xbe8e4d36	-0.27793282
116	0xbe0f8fad	-0.14019652
117	0xbec2b06e	-0.3802523
118	0xbeb683ca	-0.35647422
119	0xbf197168	-0.5993867
120	0xbedfdec2	-0.43724638
121	0xbec5471a	-0.3853081
122	0xbd338f30	-0.043837726
123	0x3e81cc39	0.25351122
124	0xbf009f71	-0.5024329
125	0xbf15cdb8	-0.58517027
126	0x3f13764a	0.5760237
127	0x3e8f1955	0.27949014

q2.weight f4 [128, 128]
0	0xbd6ff3b9	-0.05858204
1	0x3dedc10e	0.11609088
2	0xbd9ad289	-0.07559688
3	0xbf06dc1a	-0.526796
4	0xbf1c1c7e	-0.60980976
5	0x3f23edc0	0.6403465
6	0x3e51f00e	0.2050173
7	0x3e8727c2	0.2639752
8	0xbe1a3f12	-0.15063122
9	0x3e951f2a	0.2912534
10	0xbe6feb48	-0.23429596
11	0x3dc6df38	0.09710544
12	0xbe1023f7	-0.1407622
13	0xbe7e7733	-0.24850158
14	0xbe37e9d3	-0.1796029
15	0x3dca54b8	0.0987944
16	0x3e9bc44d	0.30423203
17	0x3cea6d1c	0.02861648
18	0x3ded93c0	0.11600447
19	0xbdcf034d	-0.101080514
20	0x3dcff53c	0.101541966
21	0xbec54bc7	-0.38534376
22	0xbedb8869	-0.4287751
23	0xbbfb9f03	-0.007678868
24	0x3cf83755	0.030299822
25	0xbea4f41d	-0.32217494
26	0x3d71aa3c	0.05900024
27	0xbe9c1fb2	-0.30492932
28	0xbd08c735	-0.033393104
29	0xbe046cd3	-0.12932138
30	0x3f09bfb1	0.5380812
31	0x3eee94f3	0.46598014
32	0xbe39ec4d	-0.18156548
33	0xbe2935e5	-0.16524465
34	0x3e38b9e3	0.1803966
35	0xbe0e1931	-0.13876797
36	0x3e869c89	0.26291302
37	0x3cf38cbf	0.029730199
38	0x3e94db4b	0.29073557
39	0x3f1d0ed8	0.61350775
40	0x3cd4c890	0.025974542
41	0xbe87398d	-0.26411095
42	0x3e316d2c	0.17326802
43	0xbde496f0	-0.111616015
44	0x3d513d66	0.051083945
45	0xbdb2b910	-0.08726704
46	0x3ed54282	0.41652304
47	0xbe879812	-0.26483208
48	0xbdabd762	-0.083906904
49	0x3ec5e57e	0.3865165
50	0x3e8ceb7e	0.27523416
51	0xbe66f83c	-0.22555631
52	0x3dcc8a3e	0.09987305
53	0xbda35baa	-0.07976468
54	0xbd4e7980	-0.05040884
55	0x3d50529a	0.050860025
56	0x3e494234	0.1965416
57	0x3e2a019e	0.1660218
58	0xbede3d6a	-0.4340623
59	0x3d785f47	0.06063774
60	0x3e48c1c5	0.19605167
61	0x3dd137a6	0.10215692
62	0x3f0d5ab6	0.5521654
63	0xbeffa492	-0.49930245
64	0xbd5ef02e	-0.054428272
65	0xbe452a54	-0.19254428
66	0x3cb5d19c	0.022194676
67	0x3db5a932	0.08870162
68	0x3e30f238	0.17279899
69	0x3e65b809	0.22433485
70	0xbea8dc66	-0.3298065
71	0xbf0868d8	-0.5328498
72	0xbeb11777	-0.34588215
73	0x3f098887	0.5372395
74	0x3d346ea1	0.044050816
75	0xbe7e71dd	-0.24848123
76	0xbe1d6c14	-0.1537326
77	0x3d78b414	0.06071861
78	0x3dc6cae2	0.097066656
79	0x3f00d673	0.50327224
80	0x3d267ba1	0.040645245
81	0xbef3c12b	-0.47608313
82	0xbe94d654	-0.2906977
83	0xbe6527e5	-0.223785
84	0xbcb14145	-0.021637568
85	0x3f00b5c2	0.5027734
86	0x3d97c6b1	0.07410944
87	0x3c91bf15	0.01779131
88	0x3e827fd0	0.25488138
89	0xbe85ceb8	-0.26134276
90	0xbe493b60	-0.19651556
91	0xbed7adc3	-0.42124757
92	0xbdd8b243	-0.10580876
93	0xbe24bae1	-0.16086914
94	0xbe503d87	-0.20335971
95	0xbd2a10a9	-0.041519795
96	0xbdd1f794	-0.102523
97	0x3ea62ed0	0.3245759
98	0x3e394b91	0.18095233
99	0x3ddc10fc	0.10745427
100	0x3cf78fa5	0.030219862
101	0xbe44b2ae	-0.19208786
102	0x3dcded53	0.100550316
103	0x3f0771db	0.52908105
104	0xbeaff9c3	-0.3437024
105	0xbe3720d7	-0.17883621
106	0xbe988a2c	-0.29792917
107	0xbe3bbcde	-0.18333766
108	0x3f2127fd	0.6295164
109	0x3cecff62	0.02893037
110	0x3daf6ba0	0.0856545
111	0x3ebb462d	0.36576977
112	0xbe1c508c	-0.15265101
113	0x3e3aa0ae	0.18225357
114	0x3ebd6be0	0.36996365
115	0xbdb5b541	-0.08872462
116	0x3e9ed560	0.31022167
117	0xbe122e0a	-0.14275375
118	0xbd403b37	-0.04693147
119	0xbf2084fc	-0.6270292
120	0x3c53b99e	0.012922673
121	0xbe2446f1	-0.16042687
122	0x3ddf38c5	0.108995
123	0x3d8c1c8d	0.06841383
124	0xbddb3701	-0.107038505
125	0xbdd44989	-0.10365588
126	0x3ed92c69	0.42416695
127	0x3cd5fdbc	0.026121967
128	0x3d9bc732	0.07606353
129	0xbddfce33	-0.10928001
130	0x3d8a0cf3	0.06740751
131	0x3ee180c6	0.4404356
132	0x3f001ae2	0.5004102
133	0xbf0b2324	-0.54350495
134	0xbd850474	-0.0649499
135	0xbe823db3	-0.25437698
136	0x3e5f7fbd	0.21826072
137	0xbeb40ca4	-0.35165894
138	0x3eadcd9a	0.33945924
139	0xbe15ca8b	-0.14628045
140	0x3c7d27be	0.01545137
141	0x3e3ea125	0.1861616
142	0x3e43178f	0.19051956
143	0xbe2a2151	-0.16614272
144	0xbdad5edb	-0.08465358
145	0x3c31f41f	0.010861426
146	0xbe2938c0	-0.16525555
147	0x3e8b4aee	0.27205604
148	0xbdf4f211	-0.11960233
149	0x3e83ae36	0.2571885
150	0x3e5bf4aa	0.2148005
151	0x3df72780	0.12068081
152	0xbc8846c6	-0.01663531
153	0x3e4b4da4	0.19853836
154	0xbd942ace	-0.07234727
155	0x3e9787a6	0.2959568
156	0xbdaf4e3a	-0.085598424
157	0x3e3b0177	0.18262278
158	0xbf185795	-0.5950864
159	0xbf26e12c	-0.65187335
160	0x3e3770aa	0.17914072
161	0x3e68037f	0.22657584
162	0xbe288da9	-0.16460289
163	0x3dcff2af	0.1015371
164	0xbe85782a	-0.2606824
165	0xbdc7ebc2	-0.09761764
166	0xbe9b0855	-0.30279794
167	0xbf09de2f	-0.5385465
168	0x3d096020	0.033538938
169	0x3ee9cd05	0.4566423
170	0xbe3310bf	-0.17486857
171	0x3e4804f7	0.19533144
172	0xbd6c11f8	-0.057634324
173	0x3e025430	0.12727427
174	0xbeef97ec	-0.46795595
175	0x3deb46d1	0.114881165
176	0x3d629b25	0.05532374
177	0xbe42a68e	-0.19008848
178	0xbdb1ba8a	-0.08678158
179	0x3e80bd72	0.25144535
180	0xbe35a467	-0.17738496
181	0x3cb99b3b	0.022657027
182	0x3d9ae980	0.07564068
183	0xbd195ef2	-0.037444063
184	0xbd0d809f	-0.03454649
185	0xbe070a5e	-0.13187549
186	0x3eee117d	0.46497717
187	0xbde4cd92	-0.11172022
188	0xbdedb4d0	-0.11606753
189	0xbd1b5381	-0.037921432
190	0xbeea6536	-0.45780343
191	0x3ef5c808	0.48004174
192	0x3e235149	0.15948977
193	0x3db40c25	0.08791379
194	0xbcaff892	-0.021480832
195	0xbe05faf9	-0.1308402
196	0xbe95707f	-0.2918739
197	0xbc8f2608	-0.01747419
198	0x3e897e9a	0.26854402
199	0x3f18c7d3	0.5967991
200	0x3e85627d	0.26051703
201	0xbf10d551	-0.56575495
202	0x3d237665	0.03990783
203	0x3ed44c36	0.41464394
204	0x3db8b634	0.090191275
205	0x3d42e082	0.04757739
206	0xbdfae669	-0.122509785
207	0xbeb0a2a2	-0.3449908
208	0xbbe4f7aa	-0.0069875317
209	0x3f19447f	0.5987014
210	0x3ef6cb57	0.4820201
211	0x3e29d85e	0.16586444
212	0xbd689cfc	-0.056790337
213	0xbeced6a7	-0.40398142
214	0xbc8a6fd9	-0.016899036
215	0x3e40cd42	0.188283
216	0xbe9c8f85	-0.30578247
217	0x3e1ad812	0.15121487
218	0x3e949473	0.29019508
219	0x3f184ad8	0.594892
220	0xbbec3435	-0.007208372
221	0xbbf2cee4	-0.007409917
222	0x3e86599b	0.2624024
223	0x3c7cd91b	0.015432621
224	0x3d234225	0.039858002
225	0xbde25a6e	-0.11052404
226	0xbe32dc22	-0.17466787
227	0xbe2fbddd	-0.17162271
228	0xbdbfef60	-0.09371829
229	0xbcb9b733	-0.022670364
230	0xbd975827	-0.073898606
231	0xbf03fdcd	-0.51559144
232	0x3eacfad2	0.3378511
233	0x3d9c573c	0.07633826
234	0x3e33390a	0.17502227
235	0x3e10f209	0.14154829
236	0xbf04792f	-0.5174741
237	0xbe61daf9	-0.22056188
238	0xbd43a180	-0.04776144
239	0xbeb675d6	-0.35636777
240	0xbd62f857	-0.055412617
241	0xbd585a2a	-0.052820362
242	0xbe8158e2	-0.25263125
243	0x3e39515c	0.18097442
244	0xbe601b61	-0.21885444
245	0x3e178b14	0.14799148
246	0x3de0d6c7	0.109784655
247	0x3f04c8c2	0.5186883
248	0x3daf8ccc	0.08571777
249	0x3e0130c9	0.12616266
250	0xbda734b8	-0.08164352
251	0xbe61fbbc	-0.22068685
252	0x3dc13cd9	0.09435434
253	0xbe52ce77	-0.20586573
254	0xbe8041ea	-0.25050288
255	0x3e05585d	0.13021989

q2.bias f4 [128]
0	0x3f0f6ca4	0.5602515
1	0xbf099aba	-0.5375172
2	0x3ef1ec02	0.47250372
3	0xbef26248	-0.47340608
4	0xbf059308	-0.52177477
5	0x3f084ec9	0.53245217
6	0xbf1e0612	-0.6172801
7	0xbe11ed9e	-0.142508
8	0xbeeb650b	-0.45975527
9	0xbe2c11dc	-0.16803688
10	0x3ee59736	0.44841927
11	0xbf159b31	-0.5843993
12	0x3f09804c	0.5371139
13	0xbf0a37f2	-0.53991616
14	0x3f0d7fc0	0.55273056
15	0x3dbf911a	0.09353848
16	0xbeadfd10	-0.33982134
17	0xbf0c7e03	-0.5487978
18	0x3d5ef691	0.054434363
19	0xbef9595f	-0.48700997
20	0xbf06a437	-0.5259432
21	0xbf1301eb	-0.574248
22	0xbee8eb57	-0.4549205
23	0xbf1a42b5	-0.60258037
24	0xbee94226	-0.4555828
25	0xbf0d7913	-0.5526287
26	0xbd64115d	-0.05568062
27	0xbf117a67	-0.56827396
28	0xbea8b215	-0.32948366
29	0x3ede80ff	0.4345779
30	0xbf0b136d	-0.54326516
31	0xbf0d0919	-0.55092007
32	0x3f1207af	0.57042974
33	0xbf071e74	-0.5278084
34	0xbeebb1cc	-0.46034086
35	0xbdff58ce	-0.1246811
36	0x3e6b8dbe	0.23003289
37	0x3f0d9838	0.5531039
38	0x3f2dea34	0.6793549
39	0x3e96929a	0.29408723
40	0xbf06b9af	-0.5262708
41	0xbf0365ef	-0.51327413
42	0x3e907589	0.28214672
43	0x3f0bf8b5	0.5467637
44	0xbf23fe51	-0.6405993
45	0xbf064ad8	-0.5245795
46	0x3ea35225	0.3189861
47	0xbef77c87	-0.48337194
48	0xbf06446a	-0.5244814
49	0x3ef1d9c8	0.47236466
50	0xbe0d8d2d	-0.13823386
51	0xbea98880	-0.33111954
52	0xbf1006a8	-0.56260157
53	0x3f0e77e9	0.5565172
54	0x3f151c4a	0.5824629
55	0x3efe6652	0.4968744
56	0x3ee4e3e8	0.4470513
57	0x3f19ab01	0.60026556
58	0x3e9202ee	0.2851786
59	0xbf0ba455	-0.54547626
60	0xbe4e898e	-0.2016966
61	0x3e92de49	0.28685215
62	0x3f21d786	0.6321949
63	0xbf023617	-0.50863785
64	0x3e0f942f	0.14021371
65	0x3f076c27	0.528994
66	0x3e84c488	0.2593119
67	0x3e1e6b29	0.15470566
68	0xbf196db9	-0.5993305
69	0x3f162ffa	0.58666956
70	0x3d799569	0.060933504
71	0xbe51c9a0	-0.2048707
72	0xbf15b9fc	-0.58486915
73	0xbef22b0e	-0.47298473
74	0x3f217451	0.6306811
75	0xbf0f4b8f	-0.5597467
76	0xbf0aedf0	-0.54269314
77	0x3f000503	0.5000765
78	0xbe19958d	-0.14998455
79	0xbf0eb6de	-0.55747783
80	0xbed42b2d	-0.4143919
81	0xbefbe816	-0.49200505
82	0xbef3324a	-0.47499305
83	0x3f1b378b	0.60631627
84	0xbe094bae	-0.13407776
85	0xbf0c377b	-0.54772156
86	0xbd9126ea	-0.070875004
87	0xbef91617	-0.48649666
88	0x3cb3758f	0.021906642
89	0xbf2c7754	-0.6736958
90	0x3ebfcabd	0.37459365
91	0xbe924659	-0.28569296
92	0xbf11f306	-0.5701145
93	0xbf02e04a	-0.5112349
94	0x3f05144a	0.51984084
95	0x3f18680b	0.59533757
96	0x3ed89cd1	0.4230714
97	0xbefbe2a4	-0.4919635
98	0x3ef96e1f	0.48716828
99	0x3e607dec	0.21923035
100	0xbe755938	-0.23959816
101	0x3f070936	0.5274843
102	0x3ef1a972	0.4719959
103	0x3ecc58ed	0.39911595
104	0xbf16e4c9	-0.5894285
105	0x3f092527	0.53572315
106	0xbf2848b4	-0.65735936
107	0x3ee14328	0.4399655
108	0x3f174fcd	0.5910614
109	0x3e86ff1a	0.26366502
110	0x3f0ca283	0.54935473
111	0x3eb146a3	0.34624204
112	0x3f12995f	0.57265276
113	0xbf1f5206	-0.6223453
114	0xbf01faa4	-0.5077307
115	0x3f0d5fd3	0.5522434
116	0xbf0bb831	-0.5457793
117	0x3f06a34e	0.52592933
118	0xbf12b374	-0.57305074
119	0xbf08d67f	-0.53452295
120	0xbe7b926f	-0.24567579
121	0xbe95f215	-0.29286256
122	0xbeffdb00	-0.4997177
123	0x3f05a9ee	0.5221242
124	0x3e00d6a8	0.12581885
125	0x3f162451	0.58649164
126	0xbe157704	-0.14596182
127	0xbf110322	-0.56645405

q3.weight f4 [2, 128]
0	0x3f7c7564	0.98616624
1	0xbf6b71bb	-0.91970414
2	0x3f3e9a45	0.74454147
3	0xbf2e97f1	-0.68200594
4	0xbf4d63c6	-0.8023037
5	0x3f879872	1.0593398
6	0xbf6c03d1	-0.92193323
7	0xbed9d0d0	-0.42542124
8	0xbf8221cf	-1.0166568
9	0xbf11ad6c	-0.56905246
10	0x3e967f49	0.29393986
11	0xbf4e2a7f	-0.80533594
12	0x3e887455	0.26651254
13	0xbf393fc8	-0.7236295
14	0x3e3a43cd	0.18189926
15	0xbdb4484a	-0.088028505
16	0xbe699315	-0.22810014
17	0xbf828fa0	-1.0200081
18	0x3ec201ad	0.37891904
19	0xbf3038a7	-0.68836445
20	0xbf0264aa	-0.5093485
21	0xbf876e20	-1.0580482
22	0xbe6f177f	-0.23348807
23	0xbf881a98	-1.0633116
24	0xbe8d9915	-0.27655855
25	0xbf7b8fab	-0.98266095
26	0xbec71f00	-0.3889084
27	0xbf9eda1a	-1.2410309
28	0xbf5291bd	-0.8225363
29	0x3f5939df	0.8485393
30	0xbf4aa731	-0.79161364
31	0xbf83ea62	-1.0305903
32	0x3f35a9dd	0.70962316
33	0xbf5d18fd	-0.86366254
34	0xbf05ccba	-0.5226551
35	0x3f0a45c4	0.54012704
36	0x3f105b6d	0.56389505
37	0x3f373d49	0.7157789
38	0x3f3055a7	0.68880695
39	0xbf149884	-0.5804522
40	0xbf7abe6b	-0.97946805
41	0xbf33529c	-0.70047927
42	0x3eb8309d	0.3597459
43	0x3ea198a0	0.31561756
44	0xbf2db86c	-0.6785953
45	0xbe1b2886	-0.15152177
46	0x3f1aa047	0.60400814
47	0xbf810cee	-1.0082071
48	0xbf30b573	-0.6902687
49	0x3f82eb3f	1.0228041
50	0xbefcb1b6	-0.49354333
51	0x3ef01e54	0.4689814
52	0xbf32220f	-0.6958322
53	0x3f2ac402	0.66705334
54	0x3f20dd1d	0.6283739
55	0x3f5e52d3	0.8684513
56	0x3fad2b60	1.3528862
57	0x3f163e8f	0.58689207
58	0x3ef532e1	0.4789038
59	0xbe794ef1	-0.2434652
60	0xbec0542b	-0.37564215
61	0x3eec15ef	0.46110484
62	0x3f3266eb	0.6968829
63	0xbf368265	-0.71292716
64	0x3ea37f46	0.3193304
65	0x3f7fe980	0.9996567
66	0x3ee5f783	0.449154
67	0x3f2d7050	0.677495
68	0xbf230c4a	-0.63690627
69	0x3f438bbb	0.76385087
70	0x3ee089b9	0.43855074
71	0x3dc2cfec	0.09512314
72	0xbf1664af	-0.5874738
73	0xbf7d0ed0	-0.9885073
74	0x3f4db90f	0.803605
75	0xbf828b32	-1.0198729
76	0xbf703bdf	-0.93841356
77	0x3de4376c	0.111433834
78	0xbea9a580	-0.3313408
79	0xbf827fe5	-1.019528
80	0xbe830c68	-0.25595403
81	0xbe671562	-0.2256675
82	0xbf76020b	-0.9609687
83	0x3f82aa43	1.020821
84	0xbec4cce7	-0.38437578
85	0xbf6a8cc9	-0.9162107
86	0xbdd054ae	-0.10172401
87	0xbf82b55a	-1.0211594
88	0xb9f4d802	-0.00046700245
89	0xbe838325	-0.25685993
90	0xbe8c1aed	-0.27364293
91	0xbef6ea58	-0.48225665
92	0xbf46ecad	-0.7770489
93	0xbf8029cb	-1.0012754
94	0x3f7b4d05	0.981644
95	0x3ecdbb85	0.4018213
96	0x3d161445	0.036640424
97	0xbf8212f7	-1.0162038
98	0xbdec80dc	-0.115480155
99	0x3f22f0e8	0.63648844
100	0xbee23f1b	-0.4418877
101	0xbe8e1cfd	-0.2775649
102	0x3f882920	1.063755
103	0x3efa260c	0.48857152
104	0xbfa5ce22	-1.2953532
105	0x3fa7558e	1.3072984
106	0xbf5f7363	-0.8728544
107	0x3f09e5d7	0.5386633
108	0x3f2ff9f9	0.68740803
109	0x3deca9bf	0.11555814
110	0x3e700e00	0.2344284
111	0x3e62593c	0.22104353
112	0x3f6fdfd1	0.9370089
113	0xbf7aa651	-0.9791003
114	0xbf7c9b7e	-0.9867476
115	0x3f3cb76b	0.73717374
116	0xbf68aaf5	-0.9088586
117	0x3f5ccd25	0.86250526
118	0xbf8b2306	-1.0870063
119	0xbde98f5b	-0.11404296
120	0x3e1be92b	0.15225665
121	0xbf0062c3	-0.501507
122	0xbe7ee00a	-0.24890152
123	0x3f3cdeb7	0.73777336
124	0x3f275909	0.6537023
125	0x3f494b77	0.78630775
126	0xbecb05cd	-0.39652863
127	0xbf4939a5	-0.78603584
128	0x3f0e27b1	0.55529314
129	0xbecde8ea	-0.40216762
130	0x3f80110d	1.0005203
131	0xbf780991	-0.968896
132	0xbf97e3ee	-1.1866434
133	0x3f51fb63	0.8202421
134	0xbf1dc60f	-0.6163034
135	0x3e8b15a5	0.2716495
136	0xbf3d2811	-0.7388926
137	0xbcc594a6	-0.024118733
138	0x3faf1f1a	1.3681366
139	0xbf98c90d	-1.1936356
140	0xbe420789	-0.18948187
141	0xbe4cfa42	-0.20017341
142	0x3f555590	0.83333683
143	0x3e85bbd3	0.2611986
144	0xbf7515b0	-0.9573622
145	0xbf479f2d	-0.7797726
146	0x3d9dcc8c	0.0770503
147	0xbf9817bf	-1.1882247
148	0xbdce9f2f	-0.100889556
149	0xbf402dc3	-0.75069827
150	0x3e265946	0.16244993
151	0xbf4a19db	-0.789457
152	0x3e05d8e2	0.13071015
153	0xbf171883	-0.59021777
154	0x3f48b6a2	0.78403676
155	0xbf29dc2b	-0.66351575
156	0xbf9600d6	-1.1719005
157	0x3ea3a507	0.31961843
158	0xbf9e5d4f	-1.2372226
159	0xbf3fad13	-0.74873465
160	0x3f7c8f5f	0.98656267
161	0xbf93de5d	-1.1552235
162	0xbfb3be26	-1.4042404
163	0x3ecac6ad	0.39604703
164	0x3c80b9df	0.01571363
165	0x3f93e7c7	1.1555108
166	0x3f995783	1.1979831
167	0x3faaf61c	1.3356357
168	0xbf2e10c5	-0.6799434
169	0xbe4d5b74	-0.20054418
170	0xbdf49d00	-0.11944008
171	0x3e146801	0.144928
172	0xbe181d24	-0.14854866
173	0x3e04fe6a	0.12987676
174	0x3fb61ef7	1.42282
175	0xbf56621b	-0.8374345
176	0xbe22ee3a	-0.15911189
177	0x3f40aca3	0.7526342
178	0xbde65e73	-0.112484835
179	0xbf6b0197	-0.917993
180	0xbf9187d1	-1.1369573
181	0x3da7063a	0.081554845
182	0x3f9a25d9	1.20428
183	0x3f8c9f7b	1.098617
184	0x3f9d1a32	1.2273619
185	0x3f5a85f1	0.8536063
186	0x3e021e5b	0.12706892
187	0x3e37965f	0.17928456
188	0x3e40994d	0.1880848
189	0x3e18ca83	0.14921002
190	0x3f9ea3c3	1.2393726
191	0xbf9c046b	-1.2188848
192	0x3c6055a2	0.013692291
193	0x3f447809	0.7674566
194	0xbda4e5be	-0.08051632
195	0x3f284731	0.6573363
196	0xbe21cc8b	-0.15800683
197	0x3f9f0c7d	1.2425686
198	0x3e82103c	0.2540301
199	0xbd6cc4b5	-0.057804782
200	0xbf8efd37	-1.1171025
201	0xbf1465f7	-0.57968086
202	0x3e5b9261	0.21442558
203	0xbf50c585	-0.8155139
204	0xbf31f245	-0.695103
205	0x3f467285	0.7751849
206	0x3db4a0c5	0.08819727
207	0xbf49b897	-0.78797287
208	0x3e326b4c	0.17423743
209	0x3e5977a9	0.21237053
210	0xbf1ffaad	-0.62491876
211	0x3f36d139	0.71413
212	0xbe2a6e25	-0.1664358
213	0xbf90bfcb	-1.130853
214	0x3e43f018	0.19134557
215	0xbf595c4f	-0.84906477
216	0xbe619608	-0.22029889
217	0xbf3073f6	-0.6892694
218	0x3fa50e11	1.2894918
219	0x3e6f40d3	0.23364572
220	0xbf95bca5	-1.1698195
221	0xbf36b6b5	-0.7137254
222	0x3f39773b	0.72447556
223	0x3e06f838	0.13180625
224	0x3ef869b5	0.48518148
225	0xbf39ffab	-0.72655743
226	0x3f519465	0.8186706
227	0x3e3f6cea	0.18693891
228	0x3d8962a1	0.06708265
229	0x3faeb7c6	1.3649833
230	0x3f2b93b5	0.6702226
231	0x3f3c9125	0.7365897
232	0xbf3d81bb	-0.7402608
233	0x3f8dc175	1.1074663
234	0xbe910dfc	-0.28330982
235	0x3fae799f	1.3630866
236	0x3f96d021	1.1782266
237	0xbe7b65fd	-0.24550624
238	0xbe5517cd	-0.2080986
239	0x3e73f2dd	0.23823114
240	0x3f962a75	1.1731707
241	0xbf236acb	-0.6383483
242	0xbf3ed177	-0.7453837
243	0x3e5f255a	0.21791592
244	0xbf8d1017	-1.1020535
245	0x3f996307	1.1983346
246	0xbf44dc5d	-0.7689875
247	0xbf222cac	-0.63349414
248	0xbf7e01fa	-0.99221766
249	0xbeb4f885	-0.35345855
250	0x3e45db90	0.19322038
251	0x3f7d90c3	0.99049014
252	0xbb2fdef0	-0.0026835762
253	0x3f9acf29	1.209447
254	0xba044fa5	-0.00050472684
255	0xbf92aca9	-1.1458942

q3.bias f4 [2]
0	0x3f44f2b3	0.7693283
1	0x3f6b7081	0.9196854
