aes_rl/checkpoint/providehint_seed1_fqe_q.ckpt (torch, 72471 bytes, 6 tensors)

q1.weight f4 [128, 6]
-0.39276162 0.4237961 -0.43093354 0.007102377 -0.60187757 -0.414184 -0.14464754 0.7051266
-0.29986167 -0.46534163 -0.28223693 -0.40500474 0.47464553 -0.19202003 0.24231353 0.76306415
-0.32564718 0.07375462 -0.03763542 0.46332592 -0.117481336 -0.7920785 -0.63952255 -0.9299106
-1.5880102 -0.50486463 -0.49169984 -0.65377724 -0.88669205 0.5075427 1.040311 0.7382623
0.51999956 0.530114 0.56409246 0.03911388 1.7274544 -0.28581116 0.5017801 0.2522251
0.6724443 0.2253406 -0.23067033 -0.36613283 0.33592394 -0.2974087 0.17477943 0.62120134
-0.2032844 -0.10768361 -0.051266283 0.5869902 -0.05990325 0.29559663 0.069490135 -0.2128874
0.23956823 -0.099372365 0.76238227 0.6685185 -0.7365937 -0.55018544 0.14754117 0.22305922
0.26468742 0.45256966 0.7401438 -0.31617332 -0.5137409 0.521182 0.9425893 -0.41861737
-0.72971344 0.539873 -0.26978335 -0.18158858 -0.6603486 0.1611293 -0.64503944 -0.20948234
-0.31490397 -0.2498161 0.5261837 0.1742558 1.0820272 -0.12580611 -0.22519733 0.7996373
-0.6231835 -0.08927616 -0.87891454 0.5697915 0.3194911 -0.4411402 -0.4085402 0.15422325
-0.4049299 0.45551816 -0.40100285 -0.51338094 -0.09769588 0.018701047 1.0495707 -0.124477
-0.4275239 0.4324425 0.10413236 0.17618829 -0.42150676 0.00089235004 0.083945654 2.7020178e-05
0.6563636 -0.73218524 0.6228142 -0.38166565 0.17467298 -0.053452473 -0.21761085 0.7234672
1.1427352 0.12869355 -0.5544888 -0.44081694 0.41627848 -0.25776953 -1.7723439 0.15896176
-0.7945608 0.13319854 0.09693574 0.21739775 0.30617917 -0.50608337 -0.08126081 -0.1372173
0.5086591 0.90229833 -0.6519578 -0.3968744 -0.1738217 0.7076506 0.6813359 -0.34332067
0.51483893 -0.11828287 0.6044385 -0.22232413 0.24850011 -0.031840492 -0.5011131 0.3549278
-0.16712044 0.1317755 0.26192123 -0.7521605 0.5877809 0.48060042 0.43668982 0.113706335
-0.97755665 -0.4620291 -0.34905693 0.15043269 -0.6860113 0.33527127 -0.24895762 -0.14789103
-0.82740384 0.35638908 0.0011670841 0.37937725 0.23662814 -0.5483589 0.7640035 -0.6543738
0.3787573 -0.23513167 0.36975372 0.446158 -0.02553613 -0.038614783 0.033684004 0.23427384
-0.12912413 -0.28182966 0.85115814 0.29405862 0.64526427 0.8416771 0.54810727 0.12772056
-0.9176423 -0.24364121 0.64087963 -0.41453883 -0.00010680649 0.58616763 -1.717195 -0.37529528
-0.7022479 0.31991932 0.30742738 0.38420355 -0.64164054 0.008034556 0.4897257 -0.7411662
-0.65947026 0.37920052 1.0244757 -0.35565636 -0.47867325 0.2774149 -0.044376027 0.38378593
0.9831999 0.015942475 -0.5072696 -0.29474705 0.22884104 -0.04317627 -0.8325063 0.060248457
-0.11435292 -0.45365828 0.35654482 0.15415272 0.32016084 0.45636672 -0.41069672 -0.6574744
-0.09214762 0.089151695 1.5108224 0.5889318 0.58422905 0.48072788 0.3407697 0.15590076
-1.3932083 0.29658023 0.19188295 0.1576309 -0.31413838 0.31556776 0.2625922 -0.32685888
-0.08333411 0.5639197 -0.35933524 0.005362438 0.9130147 0.23766561 -0.76746035 0.32374713
00000000: 0d18 c9be cdfb d83e 52a3 dcbe 0ebb e83b
00000010: a614 1abf ed0f d4be 7c1e 14be 2d83 343f
00000020: 7887 99be 4241 eebe 5c81 90be c85c cfbe
00000030: bd04 f33e e6a0 44be 0a21 783e 2c58 433f
00000040: 3abb a6be aa0c 973d 9927 1abd 0e39 ed3e
00000050: 0e9a f0bd a8c5 4abf c0b7 23bf 9f0e 6ebf
00000060: eb43 cbbf cf3e 01bf 15c0 fbbe f25d 27bf
00000070: 40fe 62bf 52ee 013f e928 853f c2fe 3c3f
00000080: b11e 053f 8db5 073f 5d68 103f e035 203d
00000090: 3a1d dd3f d755 92be a974 003f a623 813e
000000a0: 4f25 2c3f b0bf 663e d834 6cbe c375 bbbe
000000b0: 39fe ab3e f445 98be 61f9 323e 0d07 1f3f
000000c0: c929 50be 3989 dcbd 98fc 51bd fd44 163f
000000d0: 1c5d 75bd 7158 973e d850 8e3d 28ff 59be
000000e0: 6051 753e bd83 cbbd 7c2b 433f 0724 2b3f
000000f0: 6891 3cbf f4d8 0cbf 0815 173e a369 643e
00000100: 1c85 873e 36b7 e73e 107a 3d3f 78e1 a1be
00000110: 8684 03bf 2f6c 053f 884d 713f 0455 d6be
00000120: 80ce 3abf 1e35 0a3f 0b21 8abe 5bf2 39be
00000130: 9b0c 29bf 14ff 243e 4e21 25bf 8a82 56be
00000140: 183b a1be cbcf 7fbe fab3 063f 1d70 323e
00000150: de7f 8a3f 51d3 00be 219a 66be 08b5 4c3f
00000160: f488 1fbf 6bd6 b6bd 8b00 61bf dbdd 113f
00000170: 5694 a33e 21dd e1be 2e2c d1be b3ec 1d3e
00000180: f952 cfbe ad39 e93e 3f50 cdbe ef6c 03bf
00000190: c714 c8bd f032 993c 5558 863f cced febd
000001a0: 6ae4 dabe 1a69 dd3e 5943 d53d b46a 343e
000001b0: bccf d7be 99ec 693a b3eb ab3d 64a9 e237
000001c0: 7207 283f 7e70 3bbf c070 1f3f ae69 c3be
000001d0: 79dd 323e fbf0 5abd 61d5 5ebe 2535 393f
000001e0: 2645 923f 3ec8 033e faf2 0dbf c2b2 e1be
000001f0: 7422 d53e 5efa 83be 2adc e2bf dfc6 223e
00000200: 5668 4bbf 3365 083e 3f86 c63d 849d 5e3e
00000210: 84c3 9c3e ae8e 01bf 116c a6bd b182 0cbe
00000220: 7c37 023f 06fd 663f b5e6 26bf 1f33 cbbe
00000230: 51fe 31be 9728 353f 086c 2e3f bac7 afbe
00000240: 7ccc 033f 4a3e f2bd 7bbc 1a3f f0a8 63be
00000250: d076 7e3e 2d6b 02bd f348 00bf 19b9 b53e
00000260: 9f21 2bbe 28f0 063e 8a1a 863e 978d 40bf
00000270: cf78 163f 4211 f63e cf95 df3e dede e83d
00000280: 2741 7abf 148f ecbe 97b7 b2be 070b 1a3e
00000290: 709e 2fbf ada8 ab3e bfee 7ebe bf70 17be
000002a0: bdd0 53bf a178 b63e d8f8 983a bc3d c23e
000002b0: a64e 723e 4061 0cbf bc95 433f 0b85 27bf
000002c0: 7aec c13e 5bc6 70be 5c50 bd3e d26e e43e
000002d0: 2531 d1bc 892a 1ebd 3df8 093d 7be5 6f3e
000002e0: 1e39 04be fa4b 90be 80e5 593f da8e 963e
000002f0: 0a30 253f 2778 573f c250 0c3f 2ec9 023e
00000300: 9bea 6abf 157d 79be b010 243f 6f3e d4be
00000310: 4cfd dfb8 150f 163f 0ccd dbbf b426 c0be
00000320: 85c6 33bf 77cc a33e 1f67 9d3e 54b6 c43e
00000330: 8e42 24bf 5fa3 033c 54bd fa3e 11bd 3dbf
00000340: 0bd3 28bf 9226 c23e 0522 833f 9718 b6be
00000350: a914 f5be 5309 8e3e a3c3 35bd 977f c43e
00000360: fdb2 7b3f cb99 823c 6cdc 01bf 16e9 96be
00000370: 4e55 6a3e 9ad9 30bd 221f 55bf 16c7 763d
00000380: dd31 eabd e645 e8be 0b8d b63e 36da 1d3e
00000390: 1fec a33e e6a8 e93e d746 d2be 3e50 28bf
000003a0: e4b7 bcbd 2a95 b63d a162 c13f 3cc4 163f
000003b0: 0990 153f f721 f63e 5e79 ae3e 73a4 1f3e
000003c0: a654 b2bf 5dd9 973e f77c 443e ff69 213e
000003d0: bfd6 a0be 1992 a13e 7c72 863e 0c5a a7be
000003e0: 13ab aabd 0b5d 103f cafa b7be 64b7 af3b
000003f0: 55bb 693f 9d5e 733e 4878 44bf 2fc2 a53e

q1.bias f4 [128]
0.745511 0.560893 -0.3850932 0.1676358 -0.2300147 0.7278807 -0.21149348 -0.048313536
-0.38609347 -0.84449303 -0.41909468 -0.0027171103 0.46178764 0.102263466 -0.10868413 0.054749217
0.69859546 -0.39966738 0.32682604 -0.4768832 0.13271609 -0.13793485 -0.56912243 -0.026276665
-0.34950915 0.22810557 0.05080808 0.15634121 0.2685133 -0.5789827 0.31482616 -0.015172308
0.14755711 0.08620529 0.4811954 -0.25459316 0.2496884 0.35430166 0.37728384 0.5315363
0.020006968 0.04217901 0.1462235 0.2737968 -0.059705887 0.01680048 -0.05190959 -0.5454977
0.64948237 -0.48146117 -0.11198474 -0.21239035 0.037239816 0.5948664 -0.6519079 0.096447416
0.15384048 -0.40195766 -0.2803229 0.6734582 0.412588 0.16692325 0.7482154 -0.32517895
-0.73907816 0.117784604 0.1216985 -0.26933733 0.28037918 -0.018579522 0.04749145 -0.5707035
-0.48505378 0.21907637 0.020069195 0.29916218 0.018777814 -0.34441745 -0.1798126 0.061341763
0.32199132 -0.1691194 -0.31264105 0.11115242 -0.30049893 0.41331494 0.4159974 0.6867172
0.43747717 -0.6509613 0.03896467 0.1967354 0.6725113 0.34389547 -0.45894393 0.047200512
-0.17434508 -0.16475278 0.1833877 0.16729304 -0.0583671 -0.6747715 0.07006011 0.51513743
-0.2757593 -0.6694413 0.024360074 -0.052661393 0.72686857 0.39936295 -0.19837476 0.17683472
0.37828523 0.63764197 -0.5014866 -0.25966674 -0.362719 -0.2132839 -0.30703604 -0.7739202
-0.38694045 -0.3782076 -0.06776534 0.23264931 -0.5124328 -0.6498168 0.6110681 0.31765956
00000000: cfd9 3e3f af96 0f3f f02a c5be b8a8 2b3e
00000010: f988 6bbe 6456 3a3f bf91 58be 6ae4 45bd
00000020: 0bae c5be b230 58bf 9493 d6be 8c11 32bb
00000030: 6e6f ec3e 826f d13d c995 debd b740 603d
00000040: 27d7 323f 34a1 ccbe be55 a73e 092a f4be
00000050: bae6 073e cb3e 0dbe 02b2 11bf 2942 d7bc
00000060: ddf2 b2be 8294 693e 221c 503d e917 203e
00000070: 937a 893e 3638 14bf e530 a13e 4695 78bc
00000080: 3619 173e 668c b03d 3e5f f63e 095a 82be
00000090: 51ae 7f3e 0767 b53e 592b c13e c312 083f
000000a0: a7e5 a33c e6c3 2c3d 9dbb 153e 182f 8c3e
000000b0: 298e 74bd 29a1 893c 269f 54bd bda5 0bbf
000000c0: 7a44 263f 1482 f6be 4158 e5bd db7c 59be
000000d0: c788 183d 2a49 183f 70e3 26bf 3986 c53d
000000e0: 5c88 1d3e 65cd cdbe 7c86 8fbe c267 2c3f
000000f0: bc3e d33e eeed 2a3e 0b8b 3f3f db7d a6be
00000100: 3a34 3dbf 0e39 f13d 103d f93d 95e6 89be
00000110: dc8d 8f3e 1534 98bc 6586 423d a019 12bf
00000120: f858 f8be 8e55 603e 2768 a43c c92b 993e
00000130: eed3 993c 7c57 b0be cb20 38be 8041 7b3d
00000140: 0cdc a43e a32d 2dbe 7d12 a0be e1a3 e33d
00000150: ffda 99be 049e d33e 9cfd d43e b3cc 2f3f
00000160: 02fd df3e 66a5 26bf 6b99 1f3d 0175 493e
00000170: b329 2c3f 1113 b03e b3fa eabe 5355 413d
00000180: 8487 32be f4b4 28be fcc9 3b3e de4e 2b3e
00000190: 5712 6fbd d3bd 2cbf ad7b 8f3d 0ce0 033f
000001a0: 5330 8dbe 8160 2bbf c78e c73c 79b3 57bd
000001b0: 0f14 3a3f 4d79 cc3e c122 4bbe 2914 353e
000001c0: 9aae c13e 813c 233f 6d61 00bf 0af3 84be
000001d0: 4eb6 b9be 1867 5abe d433 9dbe a21f 46bf
000001e0: 0f1d c6be 6da4 c1be 8ec8 8abd 9f3b 6e3e
000001f0: cc2e 03bf 655a 26bf f66e 1c3f 46a4 a23e

q2.weight f4 [128, 128]
1.3790007 0.67998415 0.17510092 -0.13185574 -0.4636801 0.48894316 0.1599846 -0.5122437
-0.04399708 -0.7825378 -1.6766798 0.35106108 0.2979408 -0.56004304 0.42233557 -0.2373829
0.14367728 0.3767791 -0.24948156 -0.0317504 0.85665137 -0.20422387 -0.935453 -0.21558236
-0.3859828 0.114586025 0.986487 0.19097151 -0.07545631 -0.44598168 0.27186516 0.30472043
-1.1417567 -0.59571475 -0.42798233 0.22680405 0.62405735 -0.3306294 0.25019947 0.46231425
-0.33929095 0.1293282 0.8192393 -0.19632731 0.026107842 0.7100137 0.2185534 -0.22383346
1.0068654 -0.51546884 -0.6646338 0.46519148 -0.0676445 0.4384661 -0.8516172 0.11207396
0.5174294 -0.39806503 -0.104589306 0.013020833 0.7432961 0.75492287 0.4141048 -0.2324751
-0.6818543 -0.72304624 0.5910785 0.3530011 0.061927106 -0.34437597 0.44762945 -0.3922603
-0.1680583 0.31480956 0.068769984 0.2397708 -0.71122956 -0.10547517 -0.33465868 0.65890193
1.082103 -0.27009568 0.15102606 0.10723989 -0.17516401 0.06472019 0.8110626 0.30689815
-0.1863975 -1.0777547 0.049220644 -0.23308648 -0.013270018 0.040591534 -0.18075857 0.5118423
0.21330532 0.18255983 0.6446338 -0.08426445 0.08216148 0.15547498 -0.43051985 0.36275014
-0.9083275 -1.0515403 0.22604066 -0.67859256 0.4871799 0.43661293 0.104606055 0.33055046
0.038999032 0.08357636 -0.61171144 -0.101691656 -0.18840508 0.07132009 -0.31097025 -0.49587157
-0.7057747 -0.17112812 0.4998228 -0.17196603 -0.7992269 -0.4417941 0.29445967 0.08531858
0.95106393 0.22456759 -0.21685448 0.6380036 0.28346834 -0.31369665 -0.37396935 -0.56543034
0.042726878 -0.8604967 0.1028582 -0.31249875 0.5149933 0.070545666 0.18430646 -0.09503398
0.32515746 0.0963767 -0.048892777 -0.27459353 0.5121243 0.80758107 -0.5874097 0.15322681
-0.6202785 0.2574989 0.022781389 0.6500087 0.06334291 -0.46842062 -0.12700075 -0.45774812
-0.20603287 0.8768972 0.018963158 0.11710216 0.6178817 -0.009997392 0.3183621 -0.31670114
-0.15046723 0.21749488 0.47094372 0.3022369 -0.5130978 0.7631927 0.14511758 -0.19992492
0.3203773 -0.8009764 -0.6319486 0.5023655 0.014168074 0.42440277 -0.6551657 0.17530982
0.33500633 0.0485257 0.24008554 0.2654906 0.6847916 0.51460314 -0.22366248 0.25868616
-0.37049973 -0.75758433 0.017242428 -0.22901805 -0.094528556 -0.08269681 1.0028632 0.37379965
-0.099553965 -0.4107308 -0.18592411 0.2815125 -0.31143278 0.13471715 -0.20769714 0.115975045
0.22555627 0.46625784 0.17324252 -0.034380574 -0.258688 0.58712137 0.58823305 0.5964511
0.22351012 -0.6616295 0.7428721 0.7178585 0.4618155 0.7258277 -0.039691534 0.1326107
-0.08566922 -0.19942853 0.25295997 -0.3084149 0.040511046 -0.5065676 0.25062883 -0.38553467
-0.20535378 -0.7129597 0.38758996 0.10512103 -0.28698233 0.17707692 0.04427712 0.045811515
0.7392339 0.09834969 -0.80722535 -0.6876042 -0.13294207 -0.12468015 -0.31335464 0.26473725
-0.7558626 -0.03354999 -0.10798912 -0.070107944 0.071150295 -0.79889154 -0.06562827 0.37739438
00000000: 1883 b03f 7113 2e3f a84d 333e 3105 07be
00000010: 7a67 edbe c256 fa3e 01d3 233e 6722 03bf
00000020: 4836 34bd 6654 48bf 729d d6bf 47be b33e
00000030: b28b 983e fb5e 0fbf 5e3c d83e 8114 73be
00000040: 2320 133e 31e9 c03e 1878 7fbe b50c 02bd
00000050: 814d 5b3f 1020 51be d979 6fbf 9fc1 5cbe
00000060: 8a9f c5be 14ac ea3d 698a 7c3f 098e 433e
00000070: d688 9abd b657 e4be e931 8b3e 5104 9c3e
00000080: 1525 92bf c380 18bf 8020 dbbe 523f 683e
00000090: 39c2 1f3f 4248 a9be 251a 803e 74b4 ec3e
000000a0: 8bb7 adbe 9d6e 043e abb9 513f 070a 49be
000000b0: 1de0 d53c 75c3 353f 76cc 5f3e 9934 65be
000000c0: f7e0 803f c4f5 03bf 7125 2abf 942d ee3e
000000d0: 3389 8abd a17e e03e 9603 5abf 0887 e53d
000000e0: 4176 043f 2ecf cbbe eb32 d6bd 5555 553c
000000f0: a748 3e3f a042 413f 8b05 d43e f40d 6ebe
00000100: 018e 2ebf 8f19 39bf ec50 173f 8fbc b43e
00000110: 47a7 7d3d 0c52 b0be b02f e53e 58d6 c8be
00000120: 7a17 2cbe b82e a13e 47d7 8c3d 7a86 753e
00000130: 2413 36bf 5e03 d8bd 6258 abbe ccad 283f
00000140: 5a82 8a3f fb49 8abe 93a6 1a3e 96a0 db3d
00000150: 325e 33be 058c 843d cca1 4f3f c121 9d3e
00000160: fcde 3ebe def3 89bf 969b 493d 39ae 6ebe
00000170: 7d6a 59bc 4f43 263d c618 39be 1908 033f
00000180: b66c 5a3e f7f0 3a3e b906 253f d792 acbd
00000190: 4744 a83d d534 1f3e 196d dcbe 63ba b93e
000001a0: 2788 68bf df98 86bf 3477 673e 3eb8 2dbf
000001b0: a56f f93e bb8b df3e b33b d63d e93d a93e
000001c0: 73bd 1f3d 152a ab3d 1f99 1cbf b743 d0bd
000001d0: 43ed 40be 4410 923d 7e37 9fbe e1e2 fdbe
000001e0: a7ad 34bf 363c 2fbe c6e8 ff3e dd17 30be
000001f0: 229a 4cbf d632 e2be 6bc3 963e 82bb ae3d
00000200: ed78 733f 0cf5 653e 1a0f 5ebe 3454 233f
00000210: c322 913e d99c a0be e978 bfbe 0bc0 10bf
00000220: 6102 2f3d 8349 5cbf 52a7 d23d d6ff 9fbe
00000230: 9ad6 033f 3f7a 903d d5ba 3c3e 2da1 c2bd
00000240: 0a7b a63e 2661 c53d cb43 48bd 8697 8cbe
00000250: 941a 033f a2bd 4e3f 7b60 16bf 7de7 1c3e
00000260: 92ca 1ebf e5d6 833e 09a0 ba3c f866 263f
00000270: edb9 813d d4d4 efbe 7c0c 02be f65d eabe
00000280: 48fa 52be 567c 603f a058 9b3c 42d3 ef3d
00000290: 7f2d 1e3f 1acc 23bc 5b00 a33e a726 a2be
000002a0: 1514 1abe fab6 5e3e 891f f13e ccbe 9a3e
000002b0: 615a 03bf 9960 433f b499 143e 1eb9 4cbe
000002c0: 7e08 a43e ca0c 4dbf 62c7 21bf 079b 003f
000002d0: 3621 683c 524b d93e f0b8 27bf 6b84 333e
000002e0: f385 ab3e e2c2 463d fcd8 753e 62ee 873e
000002f0: 814e 2f3f 08bd 033f c707 65be 8372 843e
00000300: 24b2 bdbe 0cf1 41bf fe3f 8d3c b583 6abe
00000310: 3098 c1bd f25c a9bd d25d 803f ab62 bf3e
00000320: f3e2 cbbd 4f4b d2be e462 3ebe 6822 903e
00000330: 1e74 9fbe 4bf3 093e 8fae 54be 5384 ed3d
00000340: 39f8 663e 59b9 ee3e 7d66 313e a5d2 0cbd
00000350: c172 84be 964d 163f 7196 163f 05b1 183f
00000360: d6df 643e 8d60 29bf de2c 3e3f 93c5 373f
00000370: 1573 ec3e d8cf 393f 9793 22bd 19cb 073e
00000380: 5873 afbd fe36 4cbe f883 813e 8fe8 9dbe
00000390: e9ee 253d 6aae 01bf 6c52 803e cd64 c5be
000003a0: 4348 52be 8784 36bf 3172 c63e b249 d73d
000003b0: 59ef 92be a753 353e ed5b 353d dba4 3b3d
000003c0: 6f3e 3d3f 906b c93d 52a6 4ebf d406 30bf
000003d0: f721 08be 4e58 ffbd 0570 a0be a48b 873e
000003e0: 3680 41bf b76b 09bd 6629 ddbd c194 8fbd
000003f0: 3fb7 913d 2884 4cbf 1d68 86bd d639 c13e

q2.bias f4 [128]
0.43071818 -0.29549596 0.363316 -0.5303163 -0.5145973 0.59894836 -0.4777215 -0.2557445
-0.49523392 -0.39424545 0.5807564 -0.56782657 0.3554664 -0.41323537 0.083182484 -0.30971968
-0.5631368 -0.6125259 -0.3982063 -0.54276097 -0.36499664 -0.6202127 -0.60049224 -0.65629166
-0.34216365 -0.34656683 0.19826888 -0.3405095 -0.5233738 -0.027545422 -0.55075353 -0.59739053
0.088006996 -0.5866336 -0.65464526 0.30841973 0.015365815 0.6054977 0.71031 0.33500558
-0.041497774 -0.3995144 0.5494792 0.4721265 -0.3790159 -0.5501428 0.3707739 -0.5118621
-0.40294296 0.54718643 0.29657674 0.0441229 -0.522366 0.62975657 0.618681 0.56287956
0.3853879 -0.14171575 0.3342076 -0.55567425 -0.18345459 0.5312824 0.64359957 -0.4859949
0.00025088407 0.5800366 0.13204667 0.23891866 -0.67091 0.64152294 0.5023282 0.5940856
-0.5851732 -0.57483363 0.48801085 -0.586326 -0.5882278 0.61033285 -0.14688563 -0.61846054
-0.34127656 -0.3858164 -0.5229563 0.6430723 0.0031204529 -0.6161277 -0.3244844 -0.5383275
0.26471335 0.028774874 0.6299996 0.5080165 -0.5606461 -0.563229 0.5662672 0.67565
0.5579389 -0.52630174 0.61935127 0.16530517 -0.4765201 0.6528412 -0.18830465 -0.44421053
0.030003428 0.5582928 -0.5032136 0.58493346 0.24015935 0.35293797 0.5372298 -0.09405966
0.27982813 -0.6615658 0.2143883 0.4484133 -0.58155173 0.5653447 -0.61631846 -0.359272
-0.76503116 -0.5920533 -0.4168604 0.5042823 -0.583655 0.41508743 -0.3065084 -0.62080175
00000000: 1887 dc3e 3f4b 97be 8e04 ba3e cfc2 07bf
00000010: a6bc 03bf ae54 193f ea97 f4be f1f0 82be
00000020: 4d8f fdbe 8ada c9be 74ac 143f 155d 11bf
00000030: b1ff b53e 9693 d3be 945b aa3d 9493 9ebe
00000040: bc29 10bf 7fce 1cbf b2e1 cbbe 62f2 0abf
00000050: d7e0 babe 42c6 1ebf dcb9 19bf bb02 28bf
00000060: 1330 afbe 3571 b1be ff06 4b3e 4357 aebe
00000070: d3fb 05bf f0a6 e1bc 2ffe 0cbf 96ee 18bf
00000080: 033d b43d 9f2d 16bf d596 27bf 31e9 9d3e
00000090: e6c0 7b3c e601 1b3f e0d6 353f da85 ab3e
000000a0: 92f9 29bd 278d ccbe abaa 0c3f 91ba f13e
000000b0: 5f0e c2be 29d6 0cbf 14d6 bd3e 6509 03bf
000000c0: 8a4e cebe 6914 0c3f e8d8 973e 37ba 343d
000000d0: c7b9 05bf ba37 213f e161 1e3f e018 103f
000000e0: 9051 c53e ef1d 11be 421d ab3e ab40 0ebf
000000f0: 85db 3bbe 2002 083f f1c2 243f 53d4 f8be
00000100: 1789 8339 477d 143f 3e37 073e 18a7 743e
00000110: c2c0 2bbf d93a 243f 9598 003f fe15 183f
00000120: e9cd 15bf 4c28 13bf 8fdc f93e 7619 16bf
00000130: 1996 16bf c63e 1c3f 3069 16be 6e53 1ebf
00000140: cdbb aebe ba89 c5be 77e0 05bf 63a0 243f
00000150: 8380 4c3b 8cba 1dbf d222 a6be d5cf 09bf
00000160: 8288 873e 49b9 eb3c a747 213f 5f0d 023f
00000170: 8186 0fbf c72f 10bf e3f6 103f 66f7 2c3f
00000180: 15d5 0e3f b6bb 06bf ce8d 1e3f c245 293e
00000190: 71fa f3be 9a20 273f efd2 40be 906f e3be
000001a0: c0c9 f53c 47ec 0e3f 9bd2 00bf 33be 153f
000001b0: 55ec 753e 49b4 b43e e487 093f 5aa2 c0bd
000001c0: a245 8f3e 605c 29bf 9b88 5b3e 6e96 e53e
000001d0: 93e0 14bf 6eba 103f 0cc7 1dbf 80f2 b7be
000001e0: 15d9 43bf ce90 17bf ba6e d5be a518 013f
000001f0: 6a6a 15bf 5786 d43e abee 9cbe ddec 1ebf

q3.weight f4 [2, 128]
0.6828663 -0.646527 0.7092613 -0.644226 -0.6530305 1.0078347 -0.60508007 -0.32306713
-0.9786028 -0.5264867 0.14979579 -0.72612286 0.3935916 -0.6414588 -0.42089897 -0.137479
0.13583976 -1.0029689 -0.07937145 -0.6082744 -0.5285779 -1.0133688 -0.34851184 -1.0288515
-0.5901042 -0.6727045 0.06758423 -1.0470219 -0.7403676 0.50256974 -1.1041162 -0.90356404
-0.20083767 -0.67407566 -0.7456705 1.0435272 0.78101176 0.58963794 0.6610059 0.41198123
-0.5623394 -0.6210513 0.4404083 0.51633376 -0.31150043 -0.34316552 0.79721785 -0.9562972
-0.62480336 0.98721904 -0.33796725 0.87345934 -0.68366694 0.42263392 0.72029597 0.6392315
0.735202 -0.018777188 0.62306684 -0.43123496 -0.39473003 0.689326 0.72827417 -0.6742246
0.61942387 0.8861565 0.5880534 0.9197833 -0.4933066 0.7960749 1.0711803 0.6486384
-0.19910373 -1.1177192 0.6285614 -0.9705369 -0.81040543 0.1458794 -0.6176986 -0.9743572
-0.5075792 -0.3771109 -0.9179366 0.96764356 -0.7921946 -0.72809 -0.5138154 -1.0056474
0.50393593 0.4512183 0.2017297 0.14176339 -0.66577387 -0.9585256 0.92492694 0.45344603
-0.15680006 -0.9701275 0.11564968 0.4521901 -0.63157874 0.17174987 0.94835675 -0.15062205
-0.5817221 1.0988808 -0.6273331 0.28174534 0.7667699 0.15914854 0.41182715 -0.10035204
0.37364674 -0.985023 -0.40401542 0.62265307 -0.8556376 0.8486331 -1.0363562 0.41117764
0.16724278 -0.9835629 -0.35457832 0.643429 -0.3744705 0.7529726 -0.1384794 -0.5738022
0.11300632 0.5405381 1.1366372 -1.1343951 -1.1826304 0.78525513 -0.11538764 0.07443763
-0.6818082 -0.10106534 0.9524718 -1.1658711 -0.008691275 -0.15685955 0.4360898 0.18115927
-0.7434526 -0.74826413 -0.7092925 -1.1495597 -0.06299408 -0.73845595 0.107649975 -0.7541551
-0.061937295 -0.3679363 0.6778504 -1.0948563 -0.8957479 -0.3435947 -1.0686736 -0.49532437
-0.2996082 -1.1585844 -1.1027508 1.0766674 0.08504201 1.1266503 1.1501491 0.17123033
0.12627532 -0.11437577 -0.16254981 0.15392457 0.047094364 0.19654281 1.1319758 -0.8166049
-0.09635042 0.74297935 0.8858451 -0.14605056 -1.1091979 -0.10938942 1.1470594 1.1234891
1.175093 0.005836554 0.12223095 0.17048422 -0.047869492 0.37589538 1.1684785 -1.1724696
0.31067935 0.47712266 -0.30965814 0.9530214 -0.12193508 1.1530809 0.9504598 1.1083922
-1.0416803 -0.75904197 0.08995764 -0.7337169 -0.48981506 1.0949607 0.22021152 -0.72596914
-0.03917429 0.14397284 -0.5828118 0.60899657 -0.07201679 -1.1514902 -6.290958e-05 -0.7528928
-0.011722391 -0.6182111 1.0568513 1.0031826 -1.157121 -0.69762856 0.59799653 0.025153954
0.53309155 -0.68322283 1.1202874 -0.12400335 -0.13652913 0.9014641 0.27785653 -0.6113346
-1.0728585 1.0534155 -0.08527791 1.0542824 1.1851863 -0.29616216 -0.18292055 -0.14546055
0.6270139 -0.6476708 0.44628227 0.09524976 -1.0988162 1.1566591 -0.6989204 -0.7552634
-0.5849789 -1.054827 0.15112716 1.1506602 -0.87849104 1.1500189 0.26214448 -1.1084595
00000000: 53d0 2e3f cb82 25bf 2692 353f ffeb 24bf
00000010: 022d 27bf ba00 813f 87e6 1abf 0e69 a5be
00000020: b785 7abf d5c7 06bf 1164 193e 30e3 39bf
00000030: d784 c93e a536 24bf 1280 d7be 4cc7 0cbe
00000040: 9419 0b3e 4961 80bf 808d a2bd dfb7 1bbf
00000050: e250 07bf 12b6 81bf 2570 b2be 68b1 83bf
00000060: 1211 17bf 5d36 2cbf 9a69 8a3d d004 86bf
00000070: bb88 3dbf 69a8 003f ae53 8dbf f94f 67bf
00000080: 64a8 4dbe 3990 2cbf 43e4 3ebf 4d92 853f
00000090: 63f0 473f 83f2 163f af37 293f 34ef d23e
000000a0: 7af5 0fbf 38fd 1ebf 327d e13e 732e 043f
000000b0: fc7c 9fbe 64b3 afbe 7816 4c3f e5cf 74bf
000000c0: 1df3 1fbf 63ba 7c3f 0b0a adbe 089b 5f3f
000000d0: cc04 2fbf 7963 d83e 5165 383f ada4 233f
000000e0: 3336 3c3f 9ed2 99bc 4f81 1f3f d4ca dcbe
000000f0: 0e1a cabe ab77 303f 2d70 3a3f fc99 2cbf
00000100: 9092 1e3f 27db 623f ab8a 163f eb76 6b3f
00000110: af92 fcbe 91cb 4b3f 701c 893f 2b0d 263f
00000120: d9e1 4bbe 6c11 8fbf 66e9 203f 1b75 78bf
00000130: bb76 4fbf 6961 153e 7f21 1ebf 796f 79bf
00000140: b6f0 01bf ae14 c1be e5fd 6abf 7db7 773f
00000150: 44cd 4abf 1b64 3abf 6889 03bf 0eb9 80bf
00000160: f201 013f 1606 e73e 3b92 4e3e 6c2a 113e
00000170: 2870 2abf ef61 75bf 03c8 6c3f 142a e83e
00000180: 3290 20be 475a 78bf bdd9 ec3d 7685 e73e
00000190: 25af 21bf 33df 2f3e 82c7 723f ab3c 1abe
000001a0: bdeb 14bf 20a8 8c3f e798 20bf ed40 903e
000001b0: 084b 443f d6f7 223e 02db d23e 5f85 cdbd
000001c0: a04e bf3e 782a 7cbf 1cdb cebe 3166 1f3f
000001d0: 110b 5bbf 0540 593f 52a7 84bf e085 d23e
000001e0: b141 2b3e c7ca 7bbf 4a8b b5be c3b7 243f
000001f0: 99ba bfbe d0c2 403f 8bcd 0dbe b3e4 12bf
00000200: dc6f e73d b460 0a3f 547d 913f dc33 91bf
00000210: 6f60 97bf 7b06 493f 5b50 ecbd c272 983d
00000220: fb8a 2ebf 58fb cebd 31d5 733f 443b 95bf
00000230: d965 0ebc ca9f 20be 2a47 df3e d181 393e
00000240: e952 3ebf 3d8e 3fbf 3194 35bf c624 93bf
00000250: 0a03 81bd 730b 3dbf 9777 dc3d 4f10 41bf
00000260: f6b1 7dbd 2662 bcbe 9b87 2d3f 4024 8cbf
00000270: bc4f 65bf a5eb afbe 4cca 88bf 289b fdbe
00000280: 3f66 99be 7e4c 94bf f026 8dbf 3dd0 893f
00000290: 812a ae3d 1436 903f 1638 933f 0157 2f3e
000002a0: 514e 013e d83d eabd 7573 26be 679e 1d3e
000002b0: 05e6 403d 8542 493e 95e4 903f 050d 51bf
000002c0: 5e53 c5bd e533 3e3f bfc6 623f 478e 15be
000002d0: 32fa 8dbf 8f07 e0bd d8d2 923f 7ece 8f3f
000002e0: 7369 963f 9040 bf3b 3854 fa3d 6a93 2e3e
000002f0: cd12 44bd 5c75 c03e b490 953f 7c13 96bf
00000300: 5d11 9f3e 6c49 f43e 838b 9ebe 36f9 733f
00000310: 19b9 f9bd 2898 933f 5551 733f ccdf 8d3f
00000320: c855 85bf 9350 42bf b63b b83d dfd4 3bbf
00000330: 0ac9 fabe ac27 8c3f 217f 613e 1dd9 39bf
00000340: 3875 20bd 9e6d 133e 2733 15bf 33e7 1b3f
00000350: 8a7d 93bd 0864 93bf 53ee 83b8 95bd 40bf
00000360: 450f 40bc 1543 1ebf e746 873f 4a68 803f
00000370: 8a1c 94bf c997 32bf 4d16 193f aa0f ce3c
00000380: b078 083f b1e7 2ebf 9465 8f3f 78f5 fdbd
00000390: 4bce 0bbe 5ac6 663f 3643 8e3e 6d80 1cbf
000003a0: 6d53 89bf 52d6 863f 2fa6 aebd baf2 863f
000003b0: 2fb4 973f 91a2 97be 864f 3bbe 9cf3 14be
000003c0: fc83 203f c1cd 25bf 1c7f e43e 4e12 c33d
000003d0: 02a6 8cbf 680d 943f 73ec 32bf f158 41bf
000003e0: 2dc1 15bf 9204 87bf 14c1 1a3e d548 933f
000003f0: cae4 60bf d233 933f cd37 863e 00e2 8dbf

q3.bias f4 [2]
0.6725007 0.8276359
00000000: 0229 2c3f f2df 533f
