aes_rl/checkpoint/providehint_seed1_bcq_bc.ckpt (torch, 72471 bytes, 6 tensors)

i1.weight f4 [128, 6]
0	0xbc07b24f	-0.008282258
1	0x3da12c43	0.078697704
2	0x3c444cae	0.0119811725
3	0x3d31cc3c	0.043407664
4	0xbca3a31f	-0.019975243
5	0x3c992d1d	0.01869827
6	0x3d867c9f	0.06566738
7	0xbe60944b	-0.2193157
8	0xbe43aabf	-0.19108103
9	0xbe0456c4	-0.12923723
10	0x3d963294	0.07333866
11	0x3e54edef	0.2079389
12	0x3f4a00a2	0.78907216
13	0x3e1575a7	0.14595662
14	0x3e1f4a36	0.15555653
15	0xbe40e196	-0.18836054
16	0xbecc5eae	-0.39915985
17	0x3eca62aa	0.395284
18	0x3e11c3b2	0.14234808
19	0xbec52f69	-0.38512734
20	0x3f58fd60	0.8476162
21	0x3f155b3b	0.5834233
22	0x3f266619	0.6499954
23	0x3f5c3773	0.8602211
24	0xbdf7271c	-0.120680064
25	0x3daa8dde	0.0832784
26	0x3aead593	0.0017916433
27	0x3eac7556	0.3368327
28	0x3f1f7b93	0.62297934
29	0xbf22bf47	-0.63573116
30	0x3f3bd170	0.7336645
31	0xbe338c97	-0.175341
32	0xbeb06785	-0.3445398
33	0xbe9dc911	-0.30817464
34	0xbde1a4cb	-0.1101776
35	0x3e9fdc46	0.31222743
36	0x3d5240a8	0.051331192
37	0x3e79d945	0.24399288
38	0xbe26edc4	-0.16301638
39	0x3e8e3bc0	0.2777996
40	0x3ebe81e1	0.37208465
41	0xbe85f213	-0.2616125
42	0x3ef5ced3	0.48009357
43	0xbe4e1c40	-0.20127964
44	0xbe134c71	-0.14384629
45	0xbe82734e	-0.25478595
46	0xbe569a5f	-0.20957325
47	0x3e4d220f	0.20032524
48	0x3ee4f3a7	0.44717142
49	0xbeadde68	-0.33958745
50	0xbd475cfb	-0.048672657
51	0xbd9adb73	-0.07561388
52	0x3ee62c70	0.44955778
53	0x3e1f5c05	0.15562446
54	0xbbecc71f	-0.0072258855
55	0xbcac135c	-0.021005325
56	0x3c6c71e8	0.014431454
57	0xbc86df6e	-0.016463961
58	0x3c885aab	0.016644796
59	0x3b14b74f	0.0022692268
60	0x3c48b670	0.012250528
61	0xbe161ab9	-0.14658631
62	0x3e09ca72	0.13456133
63	0xbe1244a4	-0.14283997
64	0x3bfd5e9b	0.007732225
65	0xbdb9f6a3	-0.09080245
66	0x3c1ddfcd	0.009635878
67	0xbd8dd07a	-0.069245294
68	0xbd4de914	-0.05027111
69	0x3dad2dd7	0.08456009
70	0xb9a22542	-0.00030926807
71	0x3d596456	0.053074203
72	0x3eeab6fb	0.45842728
73	0xbe99a221	-0.30006507
74	0x3e84fa93	0.25972423
75	0x3d04b5e9	0.032400046
76	0x3dc6d4b0	0.09708536
77	0xbe14b439	-0.14521874
78	0x3f3b18d2	0.7308475
79	0xbda45343	-0.080236934
80	0x3f511c2a	0.816836
81	0x3f4eb1ec	0.8074024
82	0x3f2eb11c	0.68239
83	0x3f5bf7d6	0.8592504
84	0x3f02098f	0.50795835
85	0xbcfd4f19	-0.030921506
86	0x3f0fc964	0.5616667
87	0xbebb87aa	-0.3662694
88	0x3d6053bf	0.054767366
89	0xbe5ee64f	-0.21767543
90	0xbc8188cc	-0.0158123
91	0x3e2ef22f	0.17084573
92	0x3e2e83b6	0.17042431
93	0xbe8e1152	-0.2774759
94	0x3dedfe7b	0.11620804
95	0xbde8ee6c	-0.113736
96	0xbc27b8f2	-0.0102369655
97	0x3e95b8e6	0.2924263
98	0x3d772c96	0.060345255
99	0xbcaafd44	-0.02087272
100	0xbd2634f2	-0.040577836
101	0xbd1569ed	-0.03647797
102	0x3bf196ee	0.0073727285
103	0x3dfadfe9	0.12249739
104	0xbc842f98	-0.016135976
105	0xbd6f629a	-0.058443643
106	0x3d38d566	0.045125388
107	0xbd500f83	-0.050796043
108	0xbf353552	-0.70784485
109	0xbe5522e9	-0.20814098
110	0x3f9de8a9	1.2336627
111	0xba87e002	-0.0010366442
112	0x3f11a10b	0.5688636
113	0x3ff5fa4b	1.9217008
114	0x3be1cd6e	0.006890944
115	0xbcaf47bc	-0.02139651
116	0xbbcf03cf	-0.0063175927
117	0x3d0f49ae	0.034982376
118	0xbcb1760f	-0.02166274
119	0xbb11254d	-0.0022147477
120	0xbe442889	-0.19156088
121	0x3df2e8fd	0.11860845
122	0xbea099bc	-0.3136729
123	0x3e623bce	0.22093126
124	0xba80f829	-0.0009839582
125	0x3cc88c48	0.024480954
126	0x3f18d193	0.59694785
127	0xbed6f17f	-0.41981122
128	0x3e60d439	0.21955957
129	0x3f0c802e	0.54883087
130	0x3dae2539	0.085031934
131	0xbecc3e06	-0.3989107
132	0x3c319a4a	0.010840008
133	0x3e11feff	0.1425743
134	0xbdb09a5a	-0.0862319
135	0xbd105899	-0.035240743
136	0x3dd87ed3	0.10571065
137	0x3c880f03	0.01660872
138	0x3cbf83d4	0.02337829
139	0x3e74f54e	0.23921701
140	0xbc30d7a3	-0.010793599
141	0x3d503273	0.050829362
142	0xbc22bc8c	-0.009932648
143	0x3c9decdb	0.01927798
144	0x3e15440f	0.14576744
145	0x3d55aab9	0.052164767
146	0x3ecac982	0.39606863
147	0x3c009ab7	0.007849387
148	0x3e09e2b3	0.13465385
149	0xbeac8e70	-0.3370242
150	0x3c6b8db8	0.01437705
151	0xbd4e3ee6	-0.050352953
152	0xbc89b920	-0.016811907
153	0x3c1f3954	0.009718258
154	0x3c7b2a28	0.015329875
155	0x3d17de5a	0.037077285
156	0xba8f0e6c	-0.0010914332
157	0xbe27c275	-0.16382773
158	0xbce12447	-0.027483119
159	0xbd230b90	-0.03980595
160	0xbc00ea8b	-0.007868419
161	0x3bef4eea	0.0073031085
162	0x3e98520a	0.2975009
163	0xbe0e5307	-0.1389886
164	0xbebfb1cf	-0.37440345
165	0xbf189b83	-0.5961229
166	0xbf48c333	-0.7842285
167	0x3f58fb39	0.84758335
168	0xbcbcea04	-0.023060806
169	0x3e8b79e0	0.2724142
170	0x3d8d3253	0.06894364
171	0xbd101324	-0.035174504
172	0x3be0c17a	0.0068590017
173	0xbd91b73f	-0.071150295
174	0x3eba530d	0.36391488
175	0xbd171baa	-0.036891617
176	0x3e0720fd	0.13196178
177	0x3e59e7f4	0.2127989
178	0x3e3b5a59	0.18296184
179	0xbe87ddfc	-0.26536548
180	0xbeb79a2e	-0.35859817
181	0x3d6fe28c	0.05856566
182	0xbeda5f22	-0.42650706
183	0xbefe2f5f	-0.49645516
184	0x3e22c18e	0.15894148
185	0x3f0777e4	0.52917314
186	0x3ed81888	0.42206216
187	0x3c4e8ffd	0.012607572
188	0x3e82db0f	0.25557753
189	0xbe96c05a	-0.29443628
190	0x3ecab19f	0.3958864
191	0xbe37154f	-0.17879222
192	0x3c164112	0.009170787
193	0xbd9be2b4	-0.076115996
194	0xbaa1922c	-0.0012326888
195	0xbc3edc78	-0.0116492435
196	0x3b36c622	0.0027889092
197	0x3c07029f	0.008240371
198	0x3e89c5c6	0.26908702
199	0xbe80b434	-0.25137484
200	0xbe66b08b	-0.22528283
201	0x3e277103	0.16351704
202	0xbe6ea110	-0.23303628
203	0x3e4843f9	0.1955718
204	0x3cca5d66	0.024702739
205	0xbe999cf0	-0.30002546
206	0xbc558b64	-0.013033722
207	0x3ccc934f	0.024972586
208	0xba9e7c90	-0.0012091566
209	0x3d1886e2	0.03723801
210	0x3e9b6fd5	0.3035876
211	0xbdf06fa3	-0.11740043
212	0x3bb35b75	0.005473549
213	0x3eda08b6	0.4258477
214	0x3e4180af	0.18896745
215	0xbeb8f0d9	-0.36121252
216	0x3b7fc58a	0.0039027655
217	0x3de18cfd	0.110132195
218	0xbbd0a6bb	-0.006367532
219	0xbc8fa89e	-0.017536458
220	0x3a952b39	0.0011380679
221	0xbd3c458a	-0.045964755
222	0x3e7c7a16	0.24655947
223	0xbdaf4cde	-0.08559583
224	0xbf2cf493	-0.6756069
225	0xbf24fa0e	-0.64444053
226	0xbf21da0e	-0.6322335
227	0x3f5f24dc	0.8716562
228	0x3e7c0116	0.24609789
229	0xbe816dd1	-0.25279096
230	0x3e1295ec	0.14315003
231	0xbe6774c7	-0.22603141
232	0x3e98f566	0.29874724
233	0x3e2bbe86	0.16771898
234	0x3e243529	0.16035904
235	0xbdd22878	-0.10261625
236	0x3ef79299	0.48354033
237	0x3d5dd50f	0.054158267
238	0xbe92ac03	-0.2864686
239	0xbeb488d7	-0.3526065
240	0x3bf49f17	0.007465254
241	0x3e347630	0.1762321
242	0x3cb67d2e	0.022276487
243	0x3c376e2e	0.0111957025
244	0xbc1eea77	-0.009699455
245	0xbc2677fc	-0.010160442
246	0x3c04bdbe	0.008101879
247	0xbdfdb99e	-0.12388919
248	0xbdac177b	-0.08402916
249	0xbe96761f	-0.29386994
250	0xbe878043	-0.26465043
251	0x3ea1f4af	0.3163199
252	0x3c4217c9	0.011846491
253	0xbe2cd81c	-0.16879314
254	0xbc1562a4	-0.009117756
255	0x3d136e29	0.03599373

i1.bias f4 [128]
0	0xbd70908d	-0.058731604
1	0x3e847703	0.2587205
2	0xbe9454ed	-0.28971043
3	0x3d4f2c39	0.050579283
4	0x3c704243	0.0146642355
5	0x3ead272b	0.33818945
6	0xbec06b0b	-0.37581667
7	0x3ea667ba	0.32501012
8	0xbe636571	-0.22206666
9	0x3ca6cae1	0.020360412
10	0x3ddab0c7	0.10678249
11	0x3da4bb74	0.08043566
12	0xbe6325b8	-0.22182357
13	0xbeab53d5	-0.33462396
14	0xbe8802a0	-0.26564503
15	0xbe234b2a	-0.15946642
16	0xbe91c048	-0.2846701
17	0xbe19690a	-0.14981475
18	0x3d80b8ee	0.062852725
19	0x3c45e250	0.012077883
20	0x3dda4936	0.10658495
21	0xbecf54e8	-0.40494466
22	0xbe161db8	-0.14659774
23	0xbe712810	-0.23550439
24	0xbea2e344	-0.31814015
25	0x3d640de5	0.055677313
26	0x3e3bce5d	0.1834044
27	0x3de8214d	0.113344766
28	0xbe965ffa	-0.293701
29	0xbeae7996	-0.34077138
30	0x3eabbb51	0.3354135
31	0xbec7f2b5	-0.39052358
32	0x3d5b8507	0.05359366
33	0x3e998860	0.29986858
34	0x3e9f8c4e	0.3116173
35	0xbe2da419	-0.1695713
36	0xbdf15e3f	-0.11785554
37	0x3e9953bb	0.29946694
38	0xbe4a0cca	-0.19731441
39	0x3dc19cc7	0.09453731
40	0xbe30dade	-0.17270991
41	0x3eabdb27	0.33565637
42	0x3e1e8658	0.15480936
43	0x3da51d77	0.080622606
44	0x3e5d3ae0	0.2160449
45	0xbd361931	-0.04445762
46	0xbd8100d7	-0.06298988
47	0xbecb7788	-0.39739633
48	0x3e2931f2	0.16522959
49	0xbe015c3a	-0.12632838
50	0xbc811910	-0.015759021
51	0x3e107af2	0.141094
52	0x3d8107b5	0.06300298
53	0xbd866bc9	-0.06563527
54	0x3d4c0725	0.0498115
55	0x3e092a5c	0.13395065
56	0x3b16d3c2	0.00230144
57	0x3cacd68a	0.021098394
58	0xbe008dcb	-0.1255409
59	0x3db05893	0.08610644
60	0xbeab72df	-0.33486077
61	0xbeb3e4e4	-0.35135567
62	0x3e3f323e	0.1867151
63	0xbd87b83b	-0.06626936
64	0xbe447487	-0.19185077
65	0xbe08833f	-0.13331316
66	0x3e459e61	0.19298698
67	0x3e12752a	0.14302507
68	0x3d6ae9ef	0.057352003
69	0xbe7a94b4	-0.24470788
70	0x3d99bb37	0.075064115
71	0xbda3cd20	-0.07998109
72	0xbbfa78c7	-0.0076437923
73	0x3e1b6de0	0.15178633
74	0xbd96023a	-0.073246434
75	0xbdcee945	-0.101030864
76	0x3e06ea6d	0.13175364
77	0xbe8a0fd7	-0.2696521
78	0x3d985648	0.07438332
79	0x3d616d8b	0.05503611
80	0x3d9b2b08	0.07576567
81	0x3c47da8c	0.012198102
82	0x3dbabf17	0.09118479
83	0x3d0c55b5	0.034261424
84	0xbe2533ef	-0.16133092
85	0x3d8eeaaf	0.06978356
86	0xbe26a44f	-0.16273616
87	0xbe755852	-0.23959473
88	0xbe55a8af	-0.20865129
89	0xbde7b343	-0.11313488
90	0xbdb2f8dd	-0.08738873
91	0xbe9d00a9	-0.30664566
92	0xbea777b4	-0.32708514
93	0xbe7c3f40	-0.24633503
94	0xbe63b379	-0.22236432
95	0xbd63400a	-0.055480994
96	0x3e77fad6	0.2421678
97	0xbd5e5621	-0.054281358
98	0x3dc60a2f	0.09669911
99	0xbe007b3e	-0.12547013
100	0xbd671739	-0.05641863
101	0x3d96ab43	0.07356884
102	0xbc6f1b93	-0.014593977
103	0x3dfc496f	0.12318694
104	0xbe12de68	-0.14342654
105	0x3cd7ed38	0.026358232
106	0x3d362ca5	0.04447617
107	0xbde5728c	-0.11203489
108	0xbe07b9ad	-0.13254423
109	0x3c330eb0	0.010928795
110	0xbde04450	-0.109505296
111	0xbcd12471	-0.025530072
112	0x3c5314e8	0.012883402
113	0x3d459e59	0.048246715
114	0xbe8a56b5	-0.27019277
115	0xbe40af57	-0.18816887
116	0x3c08eb2e	0.008356852
117	0x3e4729c6	0.19449529
118	0x3cc23767	0.023708059
119	0x3deefcfd	0.116693474
120	0x3dd5d27c	0.10440537
121	0x3d213002	0.039352424
122	0xbe6dd114	-0.23224288
123	0x3e8687c5	0.2627546
124	0x3df65dab	0.120295845
125	0x3ca93be8	0.020658448
126	0xbe4196e2	-0.18905213
127	0xbd63a2e7	-0.055575278

i2.weight f4 [128, 128]
0	0xbc807e62	-0.015685264
1	0xbcb48410	-0.022035629
2	0xbc876d75	-0.016531685
3	0xbd5cb92e	-0.05388754
4	0xbd2ca293	-0.04214723
5	0xbd565fc7	-0.052337434
6	0x3dab8b00	0.083761215
7	0xbcc7d6e1	-0.024394454
8	0x3ce1e53c	0.027575128
9	0x3bfae549	0.0076567275
10	0xbd50dd75	-0.050992448
11	0x3c4f39f1	0.012648092
12	0x3c80ab79	0.015706765
13	0x3d39e572	0.04538483
14	0xbcff47e4	-0.03116221
15	0xbd800296	-0.06250493
16	0x3b9c7a0b	0.004775291
17	0x3cf387bb	0.029727807
18	0x3cb2ab9b	0.021810343
19	0x39ed37d6	0.00045245764
20	0xbd811c9f	-0.06304287
21	0x3c46a7a5	0.0121249305
22	0xbca300b2	-0.019897792
23	0xbad06c34	-0.0015901388
24	0xbcc95f22	-0.024581496
25	0xbc5a9af6	-0.01334261
26	0x3d267064	0.040634528
27	0x3c95dcba	0.018293727
28	0x3d4d2448	0.05008343
29	0xbd0af4aa	-0.033924736
30	0x3d4de244	0.05026461
31	0xbd5efab7	-0.05443832
32	0xbd5d949e	-0.05409681
33	0x3d8bec8d	0.06832228
34	0x3af41576	0.0018622119
35	0xbc9c8840	-0.019107938
36	0x3d8b54e3	0.068033
37	0xbd645512	-0.055745192
38	0x3d149a57	0.036280002
39	0xbdc083ee	-0.094001636
40	0x3d60538c	0.054767177
41	0x3d42aef9	0.04753015
42	0xbcc362c1	-0.0238508
43	0xbc8ef643	-0.017451411
44	0x3d3f9c25	0.04677977
45	0xbdafc972	-0.085833445
46	0x3cb039f0	0.021512002
47	0xbd701f24	-0.058623448
48	0x3d32251c	0.04349242
49	0xbda691ba	-0.08133264
50	0xbd280e0a	-0.041029014
51	0xbc4d851a	-0.012543941
52	0xbd7ec267	-0.062197115
53	0x3c327d57	0.010894141
54	0x3d794856	0.06086
55	0x3cc4d37f	0.02402663
56	0x3d219794	0.039451197
57	0x3d39ad83	0.04533149
58	0x37bfa7b0	2.284706e-05
59	0xbbcf1b52	-0.0063203955
60	0x3d1180b6	0.03552314
61	0x3d5fbe95	0.054625113
62	0x3d1afe88	0.037840396
63	0x3d095519	0.03352842
64	0xbc9c7f47	-0.01910366
65	0x3afdd527	0.0019365893
66	0xbd8948fe	-0.06703375
67	0x3cc564b7	0.024095876
68	0x3d173b7e	0.03692197
69	0x3aaef69e	0.0013348644
70	0xbbfa2a96	-0.007634471
71	0xbabb6cf9	-0.0014299444
72	0x3d49ea7f	0.0492959
73	0xbcf8eca1	-0.030386271
74	0xbcf866a5	-0.030322382
75	0x3d0aa252	0.033846207
76	0x3c89343c	0.01674854
77	0xbdaad96c	-0.08342251
78	0xbc0856cc	-0.008321475
79	0xbd42c5ff	-0.047552105
80	0xbd601b4b	-0.05471353
81	0xbcade01a	-0.021225024
82	0xbd2e879a	-0.04260979
83	0x3b90bda6	0.004417139
84	0x3d6e03ff	0.05810928
85	0xbceba2f0	-0.028764218
86	0x3d827782	0.063704506
87	0xbb3b5a4c	-0.0028587757
88	0xbd25a1bf	-0.040437456
89	0x3da95b9c	0.08269426
90	0xbdabff2f	-0.08398282
91	0x3d195b5c	0.037440643
92	0xbd6ca924	-0.057778493
93	0xbabfadbc	-0.001462392
94	0x3d9012c7	0.070348315
95	0x3cf0dddb	0.029402664
96	0xbd553d23	-0.052060258
97	0xbc2be30a	-0.010491142
98	0xbc164132	-0.009170817
99	0xbcb69194	-0.022286214
100	0x3b8ec67a	0.0043571563
101	0xbd4dd2a6	-0.050249718
102	0xbd804f27	-0.06265097
103	0x3d1dfce0	0.03857124
104	0x3dc3f99d	0.09569094
105	0x3d2a629b	0.041597944
106	0xbc7e0c1f	-0.01550582
107	0x3cfd912f	0.030953018
108	0x3daed343	0.08536389
109	0x3d1f6cde	0.038922183
110	0xbc874d60	-0.016516387
111	0x3d976a2b	0.07393297
112	0xbd2b10fd	-0.04176425
113	0xbd960d00	-0.07326698
114	0xbce8b707	-0.028407587
115	0xbcd88f11	-0.026435407
116	0x3c3f57e5	0.0116786705
117	0x3c552d38	0.013011269
118	0x3c6404d0	0.013917163
119	0xbc8b0e06	-0.01697446
120	0x3daccbc0	0.084373
121	0xbd081869	-0.033226404
122	0x3ce9fa76	0.028561812
123	0x3d3ec230	0.04657191
124	0xbc0fb88b	-0.008772026
125	0x3be31d3a	0.0069309743
126	0x3c5b56e8	0.013387419
127	0x3d343f16	0.044005476
128	0xbc5dd8f0	-0.013540491
129	0xbd87085e	-0.06593393
130	0xbba9d0c0	-0.0051823556
131	0xbdae482e	-0.08509861
132	0x3d820701	0.06348992
133	0x3c4957fc	0.0122890435
134	0xbd44798e	-0.047967486
135	0xbc884da3	-0.016638583
136	0x3cfbca03	0.030735975
137	0xbd12b592	-0.03581769
138	0xbbfc67aa	-0.0077027874
139	0x3d9e5fd1	0.07733119
140	0x3cf2fc54	0.029661335
141	0x3cbe8b81	0.02325988
142	0x3d72a52b	0.059239548
143	0x3c7f1a6c	0.015570264
144	0xbbf0a6ea	-0.0073441165
145	0xbd659529	-0.056050453
146	0xbd8437b9	-0.06455941
147	0x3d188538	0.037236422
148	0x3d44b455	0.04802354
149	0xbb1323dd	-0.0022451796
150	0xbd2a9a40	-0.04165101
151	0xbd7594f5	-0.05995651
152	0xbda58d93	-0.08083644
153	0x3d3bb989	0.045831237
154	0xbc35eb1c	-0.011103418
155	0xbb377e59	-0.0027998893
156	0xbddf1161	-0.10891987
157	0x3d1bccda	0.03803716
158	0xbd1ee7c5	-0.03879525
159	0xbd159cd3	-0.036526512
160	0x3c800643	0.015627986
161	0xbca0b18a	-0.019615907
162	0x3c3f7548	0.011685677
163	0xbd59e747	-0.05319908
164	0xbd5f3963	-0.054498088
165	0xbc98bfcf	-0.018646149
166	0x3d078cc2	0.03309322
167	0x3cb543a7	0.022126986
168	0x3ccd8a2b	0.025090298
169	0xbbeb238a	-0.0071758674
170	0x3d2766c2	0.04086948
171	0xbd94a54d	-0.07258091
172	0xbd62d917	-0.055382814
173	0xbcc3b882	-0.023891691
174	0xbbc4e8be	-0.0060091903
175	0xbc492db9	-0.012278968
176	0x3a92fff8	0.0011215201
177	0x3d28b81c	0.041191205
178	0x3d7d5ea8	0.06185785
179	0xbd6d06af	-0.057867702
180	0xbc86936c	-0.016427718
181	0x3bbd888a	0.005784099
182	0xbd7641e8	-0.060121447
183	0x3c830d32	0.015997503
184	0xbddff46e	-0.10935293
185	0xbd9e2b29	-0.07723076
186	0x3c3a624a	0.011375973
187	0x3cea24ba	0.028581966
188	0x3daee031	0.08538855
189	0xbd5d3cc8	-0.054013044
190	0xbd10d871	-0.035362665
191	0x3d040403	0.03223039
192	0x3d5afd08	0.053463966
193	0xbd84ba1e	-0.064808115
194	0x3ceb75ed	0.028742755
195	0x3cb4f414	0.022089042
196	0x3d05f12e	0.03270071
197	0x3bf75f4a	0.007549201
198	0xbd8c12a3	-0.06839492
199	0xbc579b81	-0.013159634
200	0x3c1d6f6d	0.0096090855
201	0xbd1f8480	-0.03894472
202	0xbca88bc4	-0.020574458
203	0x3d27b785	0.040946502
204	0x3c46d7a8	0.012136377
205	0x3c0f28a3	0.008737716
206	0x3c378041	0.011200012
207	0xbd7f9335	-0.062396247
208	0x3d80bc87	0.06285959
209	0x3d326a95	0.043558676
210	0x3d87a352	0.06622948
211	0x3cfd078f	0.030887393
212	0x3c95047a	0.018190611
213	0x3daa8559	0.08326215
214	0x3aeac0f0	0.0017910283
215	0x3c9022b2	0.017594669
216	0xbcbd9842	-0.023143891
217	0xbd800a59	-0.06251974
218	0x3d170280	0.03686762
219	0xbce6421c	-0.028107695
220	0xbd308931	-0.043099586
221	0xbda05715	-0.078291096
222	0x3cc5a95d	0.02412861
223	0x3c5ada45	0.013357704
224	0xbcbaf975	-0.022824029
225	0xbcb04a49	-0.021519797
226	0xbce254f4	-0.0276284
227	0xbd19246d	-0.037388254
228	0xbd49f896	-0.049309336
229	0x3ba83f67	0.0051345113
230	0x3ce27ccc	0.027647398
231	0xbd91678c	-0.07099828
232	0xbd8a214a	-0.06744631
233	0xbd657733	-0.05602188
234	0x3d8a2b74	0.06746569
235	0x3cc68eaf	0.024237959
236	0x3d81830e	0.06323825
237	0x3d31cba3	0.043407094
238	0xbd20b3aa	-0.03923384
239	0x3cc1d2dd	0.023660118
240	0x3c556779	0.013025158
241	0xbc47dfbf	-0.012199341
242	0x3cd6a7de	0.026203092
243	0xbca994f4	-0.02070091
244	0xbd1af83e	-0.0378344
245	0xbdaed223	-0.08536174
246	0xbd9957ff	-0.07487487
247	0xbcd90929	-0.026493626
248	0xbd066ff6	-0.032821618
249	0x3b849f50	0.004047312
250	0x3a26289a	0.00063384476
251	0x3d802b20	0.062582254
252	0xbd063f1e	-0.032775037
253	0x3c4f7681	0.012662531
254	0x3d098ad5	0.033579666
255	0x3c738847	0.014864034

i2.bias f4 [128]
0	0x3d16af60	0.036788344
1	0x3d89c795	0.067275204
2	0x3de97714	0.113996655
3	0xbcc6ce30	-0.02426824
4	0xbf88cf1c	-1.0688205
5	0xbf9f4365	-1.2442442
6	0xbbd079c5	-0.0063621723
7	0xbc0b035f	-0.00848469
8	0xbbf55a13	-0.0074875443
9	0x3f037ce8	0.51362467
10	0xbc644b29	-0.013933935
11	0x3d79004d	0.060791302
12	0x3a0a7a9e	0.00052825536
13	0x3d5aec64	0.053448096
14	0x3b7a75ed	0.0038217262
15	0xbecd1246	-0.40053004
16	0x3d0c0b33	0.034190368
17	0xbcc69673	-0.024241662
18	0xbbc73cf9	-0.0060802666
19	0xbfa5db68	-1.2957582
20	0x3d0d9937	0.034569945
21	0x3cbb6824	0.022876807
22	0x3f017ab1	0.5057784
23	0x3d26d67f	0.040731903
24	0x3c59833d	0.013275919
25	0x3c941f4f	0.018081335
26	0xbd590fd6	-0.052993618
27	0x3d84ba69	0.064808674
28	0x3b59bdee	0.003322478
29	0xbfadfd91	-1.3593007
30	0xbd3695c2	-0.044576414
31	0xbd053caa	-0.032528557
32	0xbe08f756	-0.13375601
33	0x3c9c2b38	0.019063577
34	0x3da84cf9	0.08217806
35	0x3c72e8a6	0.0148259755
36	0xbca4fc5e	-0.02013987
37	0x3c8b6bff	0.01701927
38	0xbc60e26e	-0.01372586
39	0x3e056c44	0.13029581
40	0xbc8bff9f	-0.017089663
41	0x3c88c78f	0.01669672
42	0xbc3ce122	-0.011528285
43	0xbc982b0a	-0.01857521
44	0xbd110522	-0.035405286
45	0xbd723e67	-0.059141543
46	0xbc04365f	-0.008069604
47	0x3b5843da	0.0032999427
48	0x3caf993a	0.021435369
49	0xbcfb9a81	-0.030713322
50	0x3ee32e1b	0.44371113
51	0x3f8d336b	1.1031317
52	0x3cf6a9ac	0.030110203
53	0x3bb58d2c	0.0055405106
54	0x3bf05e12	0.007335433
55	0x3a84a64c	0.0010120361
56	0xbb3b9863	-0.0028624765
57	0xbbcae439	-0.006191757
58	0x3d3ceec7	0.046126153
59	0xbd00832a	-0.031375088
60	0x3cb386af	0.021914808
61	0x3d02392e	0.031792812
62	0x3da10a80	0.07863331
63	0x3d43a076	0.04776045
64	0x3d707780	0.058707714
65	0xbd1f97cf	-0.038963135
66	0xbf916149	-1.1357814
67	0x3fa2a949	1.2707912
68	0x3dad5ada	0.08464594
69	0xbf9eba19	-1.2400542
70	0x3d6c469a	0.05768452
71	0xbd203466	-0.03911247
72	0x3d1073f7	0.035266843
73	0x3b7caaf9	0.0038554056
74	0xbc74af1a	-0.014934326
75	0xbc3514f9	-0.011052364
76	0xbc1a5a12	-0.0094208885
77	0x3f9a0d92	1.2035391
78	0x3b95408b	0.0045548133
79	0x3d3d4a5d	0.046213496
80	0xbbb9083c	-0.0056467336
81	0x3f937a19	1.1521636
82	0x3c55572e	0.013021274
83	0xbd37441c	-0.04474269
84	0xbd0dc9c4	-0.034616247
85	0x3f9f9344	1.2466817
86	0x3d779b26	0.060450695
87	0x3f924259	1.1426498
88	0x3c189381	0.009312511
89	0xbe125308	-0.14289486
90	0xbd8b665c	-0.06806633
91	0x3d27c32b	0.04095761
92	0xbd4c5755	-0.049887974
93	0x3ce81717	0.028331323
94	0xbc373b49	-0.011183568
95	0x3d38f8d5	0.04515918
96	0xbb71f636	-0.0036920435
97	0x3f084acb	0.53239125
98	0x3d1ee671	0.038793985
99	0x3e6d450e	0.23170874
100	0xbfa41b20	-1.2820778
101	0x3ec28e48	0.37999177
102	0xbcb581da	-0.022156645
103	0x3d95e234	0.073185354
104	0x3d93eac2	0.07222511
105	0x3c96b98d	0.018399024
106	0xbd6e10d4	-0.058121517
107	0x3d149996	0.036279283
108	0x3dbbd4fe	0.091714844
109	0x3f225cb4	0.63422704
110	0x3bfab41e	0.007650866
111	0xbcd1f635	-0.025630096
112	0x3c334acc	0.010943126
113	0xbe4f6a88	-0.20255482
114	0x3c8ad0d8	0.016945288
115	0xbd340a54	-0.043955162
116	0x3a6dce94	0.0009071615
117	0x3b3c41fe	0.0028725858
118	0xbc151a88	-0.009100564
119	0x3d83fee7	0.06445103
120	0xbb40e44e	-0.0029432955
121	0xbfa381a1	-1.2773935
122	0x3e44eb64	0.1923042
123	0xbc474bea	-0.012164095
124	0x3a6aee2d	0.00089618826
125	0x3cce8091	0.02520779
126	0xbf8ede40	-1.1161575
127	0x3bc70423	0.006073491

i3.weight f4 [2, 128]
0	0xbb3b0625	-0.0028537598
1	0xbaf74020	-0.0018863715
2	0x3d655dcd	0.05599766
3	0x3b07d395	0.0020725478
4	0x3e0fb6f3	0.14034633
5	0x3e6aef7a	0.22942916
6	0xbb605bff	-0.0034234521
7	0xb7ef6870	-2.8539653e-05
8	0x3c1ffab2	0.00976436
9	0x3c67a7cb	0.014139126
10	0x388b9b83	6.657003e-05
11	0xba272ae2	-0.00063769345
12	0xbadf778d	-0.0017049179
13	0xb99f7a6a	-0.0003041805
14	0xbc016c5b	-0.007899369
15	0x3d338ce0	0.04383552
16	0xba93e0e2	-0.001128223
17	0xba0af3b5	-0.00053005974
18	0xbbb1a578	-0.0054213367
19	0x3e5cef93	0.21575765
20	0xbaa51d48	-0.0012597227
21	0x3de43dc3	0.111445926
22	0x3ba0f33d	0.0049118088
23	0xbb813289	-0.003942792
24	0x3a94f1b0	0.0011363532
25	0x3a9ef5fa	0.001212775
26	0xbd10c4c6	-0.035343908
27	0x3b80274a	0.0039109336
28	0x3b7ee5c9	0.0038894287
29	0x3e707eb2	0.2348583
30	0xbb37303b	-0.0027952332
31	0xba97a8c0	-0.0011570677
32	0x3e7aee3d	0.24504943
33	0xbac35e7e	-0.001490548
34	0xba89d26b	-0.001051498
35	0x3ad6f2ea	0.0016399298
36	0x3a9d8f86	0.0012020923
37	0x3b253fe2	0.002521508
38	0x3a2e1ab4	0.00066415523
39	0x3e282e15	0.16423829
40	0xbb0c706b	-0.002142931
41	0x39e2de56	0.00043271732
42	0xbb67d76e	-0.0035376209
43	0x3a0a257a	0.00052698667
44	0x3b8075c0	0.003920287
45	0xba4480b8	-0.0007495987
46	0xbaafacc6	-0.0013402931
47	0xbb4929f1	-0.0030695165
48	0x3a85f3b3	0.0010219723
49	0xba414661	-0.0007372853
50	0x3e993741	0.29924968
51	0xbe32ad7f	-0.17448996
52	0xb90944d6	-0.00013090982
53	0xb965cce8	-0.00021915475
54	0xba83d274	-0.0010057227
55	0xbae4c36d	-0.0017453261
56	0xbaa00cbd	-0.0012210828
57	0x3b6e65c3	0.0036376573
58	0xbb8df02f	-0.0043316106
59	0xbb89c4bf	-0.004204362
60	0xba4481da	-0.0007496156
61	0x39e8d40c	0.00044408476
62	0xbb12b672	-0.0022386578
63	0x3b039e45	0.002008335
64	0x3b1235e9	0.0022309965
65	0x3b4723ae	0.0030386257
66	0x3e2978ae	0.16549942
67	0xbe54c60a	-0.20778671
68	0xbb60a18e	-0.0034275982
69	0x3e4a2b22	0.19743016
70	0xbb3f1e16	-0.002916222
71	0x3b1bb90b	0.0023761417
72	0x3ba66538	0.005077984
73	0x3b051a1a	0.0020309747
74	0xba7f0d28	-0.00097294385
75	0x3b30be37	0.0026968846
76	0xbbaff9f4	-0.005370373
77	0xbe5a17a5	-0.21298082
78	0x3aa1413d	0.0012302768
79	0x3b0a2c6d	0.0021083609
80	0xbb21f8a9	-0.0024714863
81	0xbe4ac5fd	-0.19802089
82	0x3b40a52c	0.0029395325
83	0x3b5e56ba	0.0033926205
84	0x398a28d7	0.0002635184
85	0xbe69e1e1	-0.22840072
86	0xbba30a87	-0.00497562
87	0xbe2f10c8	-0.17096245
88	0xbbbc6361	-0.0057491516
89	0x3e896c55	0.26840463
90	0x3a305f6d	0.0006728087
91	0x3a68f03b	0.0008885895
92	0x3b4fdb0d	0.0031716258
93	0x389c310a	7.447794e-05
94	0x3a8087c8	0.0009806091
95	0x3ace5d57	0.001574437
96	0x3b8719fd	0.004122971
97	0xbb1479f8	-0.0022655707
98	0x384c8834	4.876424e-05
99	0xbe264326	-0.16236553
100	0x3e4720c0	0.19446087
101	0x3b93e50d	0.004513389
102	0xbad8d601	-0.001654327
103	0x3b4b65a8	0.0031035934
104	0xbb8ef902	-0.00436318
105	0x39c461b7	0.00037456836
106	0xbb08becb	-0.0020865675
107	0xbb23257b	-0.0024894166
108	0xbe7260c9	-0.23669733
109	0x3c9ebac8	0.019376174
110	0xba0f9aed	-0.0005478103
111	0x3a807651	0.0009800886
112	0xbac4d528	-0.0015017139
113	0x3e89cb46	0.26912898
114	0x3b860c6a	0.0040908353
115	0xbdcc6388	-0.099799216
116	0x3b3ef722	0.0029139002
117	0x3a0fcf44	0.0005485902
118	0xbb59c5e4	-0.0033229524
119	0xba71ee20	-0.0009228904
120	0xbb7d7824	-0.0038676346
121	0x3e4befc8	0.19915688
122	0x3ea4a479	0.32156733
123	0xbb6846f9	-0.0035442694
124	0xba46a922	-0.00075783033
125	0x3aa32fab	0.0012450119
126	0x3e2d9177	0.16950022
127	0xbae52b10	-0.0017484147
128	0xbabb91d2	-0.0014310426
129	0x3af8c243	0.0018978793
130	0xbe93d9fa	-0.2887724
131	0xbb25ee0e	-0.0025318894
132	0x3d880ff3	0.06643667
133	0x3df9cc37	0.12197154
134	0xba55bfef	-0.00081539055
135	0x3b5e0b91	0.0033881406
136	0x3a352ebf	0.0006911568
137	0xbd9ec684	-0.077527076
138	0x3a2b426a	0.0006533029
139	0x3ba21d9b	0.004947377
140	0xbab6a4c2	-0.00139346
141	0xba1be64c	-0.00059470977
142	0x3b83aae4	0.0040181745
143	0x3db6c9d4	0.089252144
144	0x3b86b207	0.004110578
145	0xba971582	-0.0011526796
146	0x3b86bdea	0.004111995
147	0x3e0d50c7	0.13800345
148	0xbaadc23a	-0.0013256737
149	0xbdb43a2c	-0.08800158
150	0x3e6f2115	0.23352464
151	0x3b8c95fb	0.00429034
152	0xbad21048	-0.0016026581
153	0xbaa86550	-0.0012847576
154	0x3dbbdad5	0.09172598
155	0xbb961172	-0.0045797164
156	0xb9844ed2	-0.00025235728
157	0x3e0e8f91	0.13921954
158	0xbadb9902	-0.0016753974
159	0x3b24bb01	0.0025135877
160	0xbd29e6d9	-0.04147992
161	0xba71e125	-0.00092269696
162	0x39c92107	0.00038362315
163	0xb96bd3a6	-0.00022490192
164	0xb9f2ca38	-0.00046308502
165	0xb782a3fc	-1.5573569e-05
166	0x39e0df1f	0.00042890848
167	0x3c9bc46f	0.019014565
168	0x3a695ef8	0.0008902396
169	0x3a8b8423	0.0010644238
170	0xbb2d61a8	-0.0026455913
171	0xb9c273ff	-0.00037088987
172	0x3b4ebd0b	0.0031545784
173	0x39488612	0.00019123431
174	0xb977504f	-0.00023585673
175	0x3ad07b98	0.0015905974
176	0x3a0a5115	0.00052763644
177	0xba5f290c	-0.00085128914
178	0xbe3b4008	-0.18286145
179	0xbd914d88	-0.07094866
180	0x395cdca7	0.00021063034
181	0x3a074e63	0.0005161522
182	0x3ae61b56	0.0017555754
183	0xba8fe406	-0.001097799
184	0x3b9d2b19	0.0047963974
185	0xbbe975d5	-0.0071246424
186	0xb9050593	-0.00012685945
187	0x3b085436	0.0020802147
188	0x3b2696d1	0.0025419483
189	0xbaea3d54	-0.001787106
190	0xbb039b58	-0.0020081606
191	0xba6b3ad8	-0.0008973307
192	0xbbc1e25a	-0.005916876
193	0xba7cf73c	-0.0009649878
194	0x3daca5b2	0.084300414
195	0xbe0a8b1e	-0.13529631
196	0xbb833498	-0.0040040724
197	0x3da3d642	0.07999851
198	0xba52859b	-0.0008030773
199	0xbafe0047	-0.0019378745
200	0x3902fd30	0.00012492086
201	0x3a1f3b6a	0.0006074222
202	0xbad27158	-0.0016055508
203	0xbba1284c	-0.004918134
204	0xbad3a8e5	-0.0016148357
205	0xbdc355d2	-0.09537853
206	0xbc3635da	-0.011121238
207	0x391e1103	0.00015074392
208	0x3ad49d01	0.0016221107
209	0xbdcad1b3	-0.09903278
210	0xba600e64	-0.0008547066
211	0x389cb136	7.471668e-05
212	0x3a800244	0.00097663
213	0xbe00bfc6	-0.12573156
214	0xb78fa780	-1.7124927e-05
215	0xbda79118	-0.08181971
216	0xbb5543d1	-0.0032541642
217	0xbd8dfcd7	-0.06932991
218	0xb9f0c2d8	-0.00045921537
219	0x38b36690	8.554489e-05
220	0x3a205074	0.0006115504
221	0x3a86fe61	0.00102992
222	0xb99621b4	-0.0002863534
223	0xbb69bc7b	-0.0035665322
224	0x3af70913	0.0018847309
225	0x3e4a447c	0.19752687
226	0xbb89647b	-0.0041928864
227	0xbd9b9eb1	-0.07598627
228	0x3dd857c0	0.10563612
229	0xbd7d7630	-0.06188029
230	0xb8fa992e	-0.00011949461
231	0xbbaad59d	-0.005213453
232	0x3bacd544	0.0052744467
233	0xb8c26334	-9.269119e-05
234	0x3a8e6289	0.0010863106
235	0xba92cb9e	-0.0011199599
236	0x3df19a75	0.117970385
237	0xbdc478b9	-0.095933385
238	0xbb3b78e7	-0.0028606
239	0x3863b9b2	5.429396e-05
240	0x3a38a989	0.00070443057
241	0xbdffed99	-0.1249649
242	0x3819800a	3.659729e-05
243	0x3d3f26c9	0.046667848
244	0xbb7769ac	-0.0037752194
245	0x3b49b1cd	0.0030776144
246	0x3b808b04	0.003922822
247	0xb9e42d1e	-0.00043521164
248	0xb9ab7363	-0.0003270163
249	0x3dbeed3b	0.09322592
250	0x3b8cc39b	0.004295779
251	0xb91289a4	-0.0001397492
252	0x3ae25cae	0.0017270052
253	0x3a8f2c7c	0.0010923292
254	0x3d65831d	0.056033242
255	0xba9218a0	-0.0011146255

i3.bias f4 [2]
0	0xbdb495ca	-0.088176325
1	0xbdc5f7bc	-0.09666392
