aes_rl/checkpoint/providehint_seed1_bcq_q.ckpt (torch, 72471 bytes, 6 tensors)

q1.weight f4 [128, 6]
-0.7411339 0.6521778 -0.5583482 -0.13686597 0.06710319 -0.47512147 1.1357666 0.096027635
0.24569514 -0.14725707 0.24994905 -0.48507276 -0.2866169 -0.09248222 0.6238408 -0.6252631
0.049020167 -0.038729407 -0.27322477 -0.14336714 0.31335208 0.65384454 -0.12327046 -0.38895264
0.91091704 -0.52362114 -0.54859024 0.03989586 0.49192795 0.27501628 0.8107456 0.27928215
0.24177262 -0.40035993 -0.3360232 -0.69164926 1.0942982 -0.09512719 -0.079485804 -0.033106387
-0.17708562 0.4177141 0.0070337905 0.66885585 -0.5106366 -0.10056142 -0.5727783 -0.5692329
-0.12794705 -0.44817078 -0.08823576 -0.2659887 0.29627937 0.08333664 -0.67051685 0.38370517
0.2000118 0.04428272 -0.37735432 -0.023646098 -0.04355623 -0.58617824 0.09585953 0.113095604
0.7554818 0.66716194 -0.3210093 -0.031259734 -0.2662764 -0.77873605 0.27997038 0.370678
0.57863265 0.7572246 -0.046365887 0.3321935 0.15255912 0.1733513 0.82957387 -0.59689635
-0.5681426 0.53660417 0.6105808 -0.14609058 -0.9864448 0.1777403 0.6796457 -0.48429957
-0.44832826 0.49706846 -1.1423717 -0.070810504 0.08620633 0.02985779 0.54707247 -0.4835905
-0.8278185 -0.15096934 -0.52456653 -0.054951668 0.61311597 0.37098163 0.023383727 0.45744434
-0.51111436 0.40489677 -0.6297423 -0.15903468 -0.21394402 -0.21183795 -0.035215896 0.31451035
0.19176283 -0.6092617 -0.7134201 0.34914288 -0.4182046 -0.23597544 0.24281606 0.14141716
-0.1503991 0.27183303 -0.5477963 0.008708806 -0.26634693 0.38013136 1.1506848 -0.35541853
-0.0012935086 0.3130749 -0.2829998 0.3081986 -0.7663524 -0.27815497 -0.078217715 -0.11156023
-0.15879324 0.5713625 -0.20635833 -0.100844756 0.43673447 -0.20167857 0.70746726 -0.49833024
1.0577551 -0.37798458 -0.15670997 0.39305624 -0.31630135 0.38184866 -0.050435532 -0.49775818
0.516844 -0.17966817 0.66536725 0.56221384 0.7103058 0.05706679 -0.23006219 -0.33261493
0.20813188 -0.03577221 -0.7080732 -0.016234428 -0.25835168 -0.6473235 0.31993276 -0.2158397
0.63264537 -0.499952 0.4495724 0.5636607 -0.08590322 0.0042299572 0.42086586 -0.3042365
0.4681431 0.664265 -0.1440514 0.4035403 0.6622464 -0.4850776 -0.521982 -0.2505407
0.051327143 0.80190104 -0.09220983 -0.30270773 0.012713016 0.09758576 0.6417721 0.41919106
0.85447395 0.6786476 0.32461888 -0.1554853 0.29544637 0.25431377 0.33121693 0.16454223
-0.6272357 -0.47906378 0.11749251 -0.023110168 -0.27338627 0.60569745 0.1633339 -0.60010076
-0.36649734 -0.24815738 -0.28421056 -0.5081729 0.7719622 0.50677496 -0.14369437 -0.10287367
0.8943022 -0.45615482 -0.06874258 0.5074221 0.13277376 -0.06690762 -0.28181735 0.5358248
0.23652314 -0.17846368 -0.274862 -0.5609703 0.17264493 -0.2738929 0.427462 0.32373658
-0.4133586 -0.34819603 0.4297387 -0.71786207 0.41148484 0.5311517 0.3542809 0.06080945
-0.093299866 -0.4966775 0.052954234 0.13039562 0.4918897 0.72698 -0.9928751 -0.027884472
-0.2662068 -0.025579145 0.6128016 0.3767905 0.008839666 0.5622718 -0.19175263 -0.44280535
00000000: f4ba 3dbf 20f5 263f e8ef 0ebf 9826 0cbe
00000010: 666d 893d 1f43 f3be cd60 913f 23aa c43d
00000020: 8297 7b3e 8fca 16be a5f2 7f3e 755b f8be
00000030: 73bf 92be 5167 bdbd 08b4 1f3f 3e11 20bf
00000040: 5fc9 483d baa2 1ebd 1ee4 8bbe d6ce 12be
00000050: af6f a03e 5b62 273f 3975 fcbd cd24 c7be
00000060: dc31 693f 090c 06bf 6970 0cbf d769 233d
00000070: fbdd fb3e efce 8c3e 068d 4f3f 12fe 8e3e
00000080: 3e93 773e fafb ccbe 3c0b acbe ed0f 31bf
00000090: f711 8c3f 0bd2 c2bd 74c9 a2bd 909a 07bd
000000a0: ef55 35be 9fde d53e b67b e63b 233a 2b3f
000000b0: 15b9 02bf 25f3 cdbd 99a1 12bf 3fb9 11bf
000000c0: 8d04 03be a476 e5be f3b4 b4bd ac2f 88be
000000d0: eeb1 973e 66ac aa3d fea6 2bbf 0175 c43e
000000e0: e5cf 4c3e cc61 353d 9634 c1be 76b5 c1bc
000000f0: 0468 32bd c70f 16bf 0052 c43d ab9e e73d
00000100: 4167 413f 20cb 2a3f 555b a4be 350a 00bd
00000110: 6155 88be 3f5b 47bf 4758 8f3e 82c9 bd3e
00000120: 4521 143f 79d9 413f 28ea 3dbd 4415 aa3e
00000130: 7538 1c3e 0183 313e f45e 543f 33ce 18bf
00000140: cb71 11bf e45e 093f 064f 1c3f c598 15be
00000150: a587 7cbf 8e01 363e 43fd 2d3f 1df6 f7be
00000160: 488b e5be c27f fe3e 3c39 92bf 1905 91bd
00000170: f28c b03d 5398 f43c f10c 0c3f 2d99 f7be
00000180: eaeb 53bf b597 1abe fe49 06bf 0015 61bd
00000190: 2bf5 1c3f 4ef1 bd3e 3b8f bf3c 2536 ea3e
000001a0: 64d8 02bf a14e cf3e cb36 21bf fdd9 22be
000001b0: 2414 5bbe 0cec 58be 8b3e 10bd 8007 a13e
000001c0: 7a5d 443e 93f8 1bbf b3a2 36bf dbc2 b23e
000001d0: ea1e d6be 8ca3 71be c6a4 783e a9cf 103e
000001e0: 3902 1abe b32d 8b3e 613c 0cbf 61af 0e3c
000001f0: a05e 88be 94a0 c23e a449 933f 6bf9 b5be
00000200: f28a a9ba 5a4b a03e 5ae5 90be 35cc 9d3e
00000210: ac2f 44bf 546a 8ebe 9c30 a0bd b179 e4bd
00000220: b29a 22be d044 123f 994f 53be b287 cebd
00000230: a99b df3e d484 4ebe 931c 353f 2425 ffbe
00000240: 8564 873f 3287 c1be 9478 20be ab3e c93e
00000250: 40f2 a1be ab81 c33e 7d95 4ebd 29da febe
00000260: e34f 043f effa 37be 8255 2a3f 3fed 0f3f
00000270: 9ad6 353f debe 693d 6c95 6bbe 814c aabe
00000280: 8620 553e e285 12bd 4944 35bf 10fe 84bc
00000290: ac46 84be feb6 25bf 3ace a33e 1505 5dbe
000002a0: 0cf5 213f b5f9 ffbe 5b2e e63e 114c 103f
000002b0: 07ee afbd 749b 8a3b bb7b d73e e3c4 9bbe
000002c0: 74b0 ef3e 450d 2a3f 3682 13be d69c ce3e
000002d0: fb88 293f 175c f8be 9da0 05bf df46 80be
000002e0: 693c 523d 6349 4d3f 82d8 bcbd 82fc 9abe
000002f0: 414a 503c 0bdb c73d 2d4b 243f 36a0 d63e
00000300: cebe 5a3f d9bb 2d3f 7234 a63e 8a37 1fbe
00000310: bf44 973e 6a35 823e 4495 a93e c27d 283e
00000320: 8592 20bf d947 f5be ea9f f03d 8951 bdbc
00000330: 49f9 8bbe fd0e 1b3f 0041 273e 34a0 19bf
00000340: 8aa5 bbbe f81c 7ebe 0c84 91be 9f17 02bf
00000350: 519f 453f 01bc 013f 9e24 13be 6eaf d2bd
00000360: fdf0 643f 208d e9be e9c8 8cbd 6ae6 013f
00000370: d8f5 073e dd06 89bd 5d4a 90be d02b 093f
00000380: 1f33 723e 2fbf 36be b6ba 8cbe c09b 0fbf
00000390: d5c9 303e b13b 8cbe 4ddc da3e cdc0 a53e
000003a0: bda3 d3be c046 b2be b606 dc3e cfc5 37bf
000003b0: 24ae d23e 8ff9 073f 4e64 b53e 5413 793d
000003c0: 0014 bfbd 834c febe 8ae6 583d 6e86 053e
000003d0: f7d8 fb3e 5c1b 3a3f 102d 7ebf fa6d e4bc
000003e0: 424c 88be 5b8b d1bc 91e0 1c3f afea c03e
000003f0: 3fd4 103c 0bf1 0f3f cd5a 44be 62b7 e2be

q1.bias f4 [128]
0.38324448 -0.4511288 0.08673631 -0.02612122 0.124506235 0.33881637 -0.46162394 0.4300341
-0.6257463 -0.01068045 -0.52903855 0.52820355 0.68560874 0.107340716 0.044942196 0.100235365
0.38649523 0.23406312 0.28545955 0.3182982 0.08075568 -0.13158995 0.4467682 -0.5032802
-0.0065451493 -0.32637778 0.0989155 0.6889588 -0.38233662 -0.75604165 -0.017106052 -0.589278
0.14937063 0.35040477 0.6581691 0.06395862 -0.37246203 0.003058697 -0.49069783 -0.46900114
-0.48487675 0.068503685 0.49285525 0.2644513 -0.5096794 -0.39938676 -0.2264101 0.4883943
-0.041040838 0.95501715 0.16617514 -0.36508474 0.45402333 0.1507728 0.24100678 0.25475076
-0.43940052 -0.35347828 -0.5033375 -0.08625639 0.053867783 -0.5897552 0.2897859 0.0011339042
0.5053685 0.390432 -0.48675293 0.03867219 -0.9211811 -0.21522877 -0.23346595 -0.1550068
-0.39992887 -0.12172802 0.79252183 -0.22563903 -0.2504187 0.391902 0.50149226 0.18812335
0.38110584 -0.27387643 -0.22495525 -0.4966901 0.57967544 -0.0022474655 0.31657764 -0.43727726
0.101270914 0.10221335 -0.020796474 0.27843326 -0.0017701824 0.6938666 -0.007168739 0.36249074
0.014208765 0.7465426 0.12560485 -0.06335637 -0.46091932 -0.14889991 -0.8206878 -0.6354725
-0.23727937 0.5551937 -0.17766088 0.25792292 -0.05001446 0.35619974 -0.3728044 -0.52843064
-0.024916697 -0.19417211 0.17542401 0.28993696 -0.21307369 -0.6155348 -0.5014764 0.7481113
0.25912523 -0.90439916 -0.5141702 -0.2610952 0.39777637 -0.43167305 -0.30684906 0.40907937
00000000: 9f38 c43e 5bfa e6be cea2 b13d 2bfc d5bc
00000010: 20fd fe3d 5779 ad3e f959 ecbe 6e2d dc3e
00000020: e930 20bf 0efd 2ebc 126f 07bf 5938 073f
00000030: 0e84 2f3f 73d5 db3d 4f15 383d 3348 cd3d
00000040: b4e2 c53e 3eae 6f3e c127 923e fbf7 a23e
00000050: 3c63 a53d 84bf 06be cdbe e43e f9d6 00bf
00000060: b178 d6bb fd1a a7be 3694 ca3d 9b5f 303f
00000070: a0c1 c3be f28b 41bf fe21 8cbc ecda 16bf
00000080: 9df4 183e 4168 b33e c57d 283f bdfc 823d
00000090: 58b3 bebe 6c74 483b bf3c fbbe eb20 f0be
000000a0: c441 f8be a94b 8c3d 8657 fc3e 2966 873e
000000b0: 597a 02bf 6c7c ccbe 0dd8 67be d10e fa3e
000000c0: 701a 28bd 017c 743f d129 2a3e 63ec babe
000000d0: bf75 e83e 2f64 1a3e 7bca 763e b16e 823e
000000e0: 1bf9 e0be 1bfb b4be bada 00bf 31a7 b0bd
000000f0: 77a4 5c3d 32fa 16bf d15e 943e 839f 943a
00000100: d45f 013f b4e6 c73e ae37 f9be bb66 1e3d
00000110: 86d2 6bbf ee64 5cbe b311 6fbe 1aba 1ebe
00000120: 7ac3 ccbe 8a4c f9bd b6e2 4a3f eb0d 67be
00000130: e136 80be 61a7 c83e cc61 003f 68a3 403e
00000140: 4e20 c33e 8839 8cbe ab5a 66be 2a4e febe
00000150: 9c65 143f 374a 13bb 7716 a23e cee2 dfbe
00000160: 2067 cf3d 3c55 d13d 5e5d aabc ce8e 8e3e
00000170: 7705 e8ba 3ea1 313f bee7 eabb 6398 b93e
00000180: e1cb 683c 6a1d 3f3f 8f9e 003e fcc0 81bd
00000190: 9efd ebbe 3879 18be 9818 52bf 53ae 22bf
000001a0: 5df9 72be 2d21 0e3f bcec 35be 790e 843e
000001b0: f6db 4cbd d05f b63e 38e0 bebe 3b47 07bf
000001c0: 1a1e ccbc 0ed5 46be 5aa2 333e 9e72 943e
000001d0: fd2f 5abe b093 1dbf c260 00bf 3984 3f3f
000001e0: 10ac 843e b486 67bf a9a0 03bf 45ae 85be
000001f0: 58a9 cb3e 4004 ddbe 521b 9dbe da72 d13e

q2.weight f4 [128, 128]
-0.18638088 0.21905425 -0.12196568 -0.2907071 0.07000775 -0.21350504 0.12921016 -0.062629014
0.5980162 -0.29842317 -0.05634296 -0.08953681 -0.599127 0.18044674 -0.022965424 0.06053422
-0.16046225 -0.58748126 -0.0081774695 -0.3532006 0.4193505 -0.34056795 -0.14165406 0.39710018
-0.23221526 -0.13077983 -0.53106046 0.32924116 -0.15745756 -0.22305804 0.16423526 0.26165816
-0.71776855 0.23941343 -0.39114374 -0.24900179 0.28613535 0.20530361 0.5674787 0.17485397
0.12679815 0.087624066 -0.2678492 -0.08518318 0.2988344 0.14508112 0.026396666 -0.08321135
0.5778206 -0.5126456 -0.14480436 0.1897446 -0.25885347 -0.39133805 -0.18803683 0.2763025
0.5704304 0.016871829 -0.14398728 0.11599631 -0.033249374 -0.108200155 0.18469988 0.13631277
-0.27634707 -0.0693545 -0.26063052 -0.6513143 0.5807063 0.09536187 -0.19608589 -0.15942599
0.070110746 -0.3192744 0.38730043 -0.28251866 0.196737 0.052220788 -0.40459517 -0.14857094
-0.10983314 0.077781856 0.14786775 -0.33510447 0.025225984 -0.46199661 0.50134355 0.18867941
0.28439948 -0.50394344 0.47523597 0.2104542 0.082616 -0.19714217 -0.33379787 -0.4212808
-0.35257578 -0.21987712 -0.26428917 0.042907275 0.41825053 0.2933439 -0.23918791 0.517565
0.07006383 -0.25326353 0.033716775 -0.17420086 -0.10932851 0.08192819 0.08195131 0.093806595
0.14689681 0.14597188 -0.66618055 0.30377427 0.62645173 0.24466132 0.27900305 -0.602435
-0.5377556 0.530488 0.27302384 -0.13839804 0.079095244 0.07455358 0.018156769 -0.1525676
0.7510344 -0.40689957 0.19880012 0.257046 -1.1405535 0.10449173 -0.728771 0.10379502
0.013466056 0.5069254 -0.31319654 -0.18249293 -0.115174785 -0.89370716 0.5337535 0.24515992
0.30399406 -0.17847715 0.03893745 0.38625154 -0.026168704 -0.6950127 0.32106686 0.1431161
-0.70393527 0.10477158 -0.4156013 0.4383832 -0.17501317 -0.264233 -0.460186 -0.40211928
-0.13918817 -0.2744613 0.40865982 0.28130513 -0.75604385 0.38610706 0.08168031 -0.6811872
-0.36853355 0.31046194 0.3814358 0.2808371 -0.4410529 -0.3553705 -0.079740345 0.5480185
0.11649246 -0.04330348 -0.2792249 -0.9061406 0.39473504 -0.8153685 0.94160885 0.07675493
0.082592525 0.40512455 -0.91552556 -0.33142626 0.19287929 -0.83508855 0.17070979 -0.2827204
0.24976741 -0.23003985 0.016762096 -0.29864123 -0.01955299 0.0041605085 -0.06718359 -0.103598155
0.27612925 -0.45381632 0.028968958 -0.086012356 -0.21042313 -0.111561045 0.22366427 -0.16590081
0.039282814 -0.7231702 0.3462442 0.022431811 0.46420428 -0.5839899 0.13342133 -0.5385254
-0.050483674 0.12502934 0.17756236 1.0842253 -0.020416409 0.9005072 -0.22330901 -0.01577378
-0.05954275 0.93635625 -0.53183705 -0.19287355 -0.45975128 -0.041958794 -0.26453415 0.010162722
-0.947035 0.50570256 -0.44569254 0.5891275 -0.41108584 0.063804366 -0.31758788 -0.35508353
0.14145288 0.16522217 -0.18909055 -0.07134381 0.0867575 -0.4207247 -0.5722966 -0.14652938
0.2949739 0.04847941 -0.41156957 0.14691478 0.041290585 -0.035969194 -0.56397784 -0.06531528
00000000: a1da 3ebe c24f 603e 24c9 f9bd 90d7 94be
00000010: 3960 8f3d 11a1 5abe ab4f 043e a443 80bd
00000020: 9717 193f ecca 98be e0c7 66bd 135f b7bd
00000030: 6360 19bf 08c7 383e fc21 bcbc bbf2 773d
00000040: 3750 24be 2c65 16bf cbfa 05bc b6d6 b4be
00000050: 1cb5 d63e ec5e aebe c30d 11be b750 cb3e
00000060: d6c9 6dbe 26eb 05be 94f3 07bf 4c92 a83e
00000070: 8e3c 21be 5469 64be 4a2d 283e 0ff8 853e
00000080: aebf 37bf cb28 753e fe43 c8be 53fa 7ebe
00000090: 5580 923e 1c3b 523e 4946 113f eb0c 333e
000000a0: 60d7 013e 3f74 b33d 8823 89be 8574 aebd
000000b0: d300 993e 2590 143e d23d d83c b66a aabd
000000c0: 0dec 133f be3c 03bf 9847 14be 694c 423e
000000d0: 7188 84be 765d c8be ba8c 40be 8577 8d3e
000000e0: ba07 123f ca36 8a3c 6771 13be 798f ed3d
000000f0: 7f30 08bd 0b98 ddbd f721 3d3e 9395 0b3e
00000100: 5d7d 8dbe bb09 8ebd 5d71 85be 89bc 26bf
00000110: 2ba9 143f 164d c33d bdca 48be 9140 23be
00000120: 3996 8f3d ef77 a3be 3e4c c63e 49a6 90be
00000130: 6d75 493e 77e5 553d 1927 cfbe fb22 18be
00000140: 33f0 e0bd 184c 9f3d a56a 173e d092 abbe
00000150: b9a6 ce3c d28a ecbe 0d58 003f 2d35 413e
00000160: cf9c 913e 7002 01bf 2152 f33e 4e81 573e
00000170: 9432 a93d a3df 49be 8ee7 aabe 1eb2 d7be
00000180: d084 b4be 7827 61be e950 87be 8abf 2f3d
00000190: ef24 d63e 2c31 963e aded 74be 247f 043f
000001a0: a07d 8f3d c2ab 81be 9a1a 0a3d b661 32be
000001b0: a0e7 dfbd f8c9 a73d 17d6 a73d ac1d c03d
000001c0: 1e6c 163e a779 153e cf8a 2abf 4d88 9b3e
000001d0: 245f 203f 7f88 7a3e 7dd9 8e3e 2e39 1abf
000001e0: 5aaa 09bf 10ce 073f c8c9 8b3e 37b8 0dbe
000001f0: b0fc a13d 8caf 983d 81bd 943c ae3a 1cbe
00000200: ca43 403f 2455 d0be 4292 4b3e 899b 833e
00000210: a8fd 91bf c3ff d53d bc90 3abf 7c92 d43d
00000220: bca0 5c3c ddc5 013f 4c5b a0be 6ddf 3abe
00000230: c2e0 ebbd fec9 64bf 12a4 083f 340b 7b3e
00000240: 1ca5 9b3e b7c2 36be e07c 1f3d c3c2 c53e
00000250: c05f d6bc 5aec 31bf e062 a43e 078d 123e
00000260: 1a35 34bf 7b92 d63d b2c9 d4be c373 e03e
00000270: a736 33be 8c49 87be 809d ebbe 94e2 cdbe
00000280: 5887 0ebe 3186 8cbe dc3b d13e 3a07 903e
00000290: 178c 41bf d3af c53e 0248 a73d 4962 2ebf
000002a0: 6eb0 bcbe def4 9e3e 8e4b c33e e1c9 8f3e
000002b0: b0d1 e1be 1ff3 b5be e84e a3bd f14a 0c3f
000002c0: 9993 ee3d fd5e 31bd 91f6 8ebe d5f8 67bf
000002d0: b61a ca3e fdbb 50bf 470d 713f b031 9d3d
000002e0: 4526 a93d 7c6c cf3e e25f 6abf b4b0 a9be
000002f0: 2682 453e 5dc8 55bf 8cce 2e3e bac0 90be
00000300: 07c3 7f3e 918f 6bbe aa50 893c 81e7 98be
00000310: 982d a0bc e054 883b 8d97 89bd 452b d4bd
00000320: d060 8d3e 9d5a e8be 4f50 ed3c 3f27 b0bd
00000330: 2979 57be 1e7a e4bd 3f08 653e e7e1 29be
00000340: 04e7 203d af21 39bf eb46 b13e ebc2 b73c
00000350: 2fac ed3e 5d80 15bf 9a9f 083e cddc 09bf
00000360: f8c7 4ebd b107 003e e8d2 353e e5c7 8a3f
00000370: 5040 a7bc a487 663f 1eab 64be 0438 81bc
00000380: 19e3 73bd 0bb5 6f3f 7926 08bf a580 45be
00000390: 8564 ebbe fcdc 2bbd 0571 87be 8c81 263c
000003a0: e370 72bf b975 013f d031 e4be 0fd1 163f
000003b0: d879 d2be ddab 823d e19a a2be 82cd b5be
000003c0: 06d9 103e 0030 293e f4a0 41be b41c 92bd
000003d0: ebad b13d 3a69 d7be 0882 12bf cc0b 16be
000003e0: d206 973e 5992 463d 3fb9 d2be d470 163e
000003f0: 5120 293d 6f54 13bd da60 10bf 04c4 85bd

q2.bias f4 [128]
-0.5825909 -0.03976366 0.3640757 -0.589233 -0.5043592 0.45383972 -0.45433185 -0.21944265
-0.42198747 0.45369273 0.5636722 0.62237424 -0.28645808 0.26555565 -0.5858783 0.64008063
0.6361597 -0.11219468 0.10930857 0.4229164 0.4479315 0.53684586 -0.27979416 0.0026956468
-0.6492021 0.53386295 -0.46663103 -0.38648102 -0.5566318 0.46403018 0.5093234 -0.5601046
0.6348822 -0.50697535 -0.43586627 -0.6437917 0.42713776 -0.104483575 -0.4936165 -0.5630043
-0.55114025 0.48771915 0.49774072 -0.6127742 0.59214395 0.3581856 -0.381164 -0.6668186
-0.25199732 0.36057106 -0.41753477 0.47305566 -0.5600496 -0.6092951 0.7077109 0.50508
-0.66281617 0.51174015 -0.00080282753 -0.6611715 0.20525065 -0.50027853 -0.683445 -0.43984908
-0.11648916 -0.26475987 -0.4672244 0.47879282 -0.06924842 0.043731883 0.68379986 -0.66272414
0.64273626 -0.6465627 -0.5517089 0.5647625 0.5254437 0.5571431 -0.59758955 -0.33735177
-0.21423097 0.64697945 0.33087313 0.07591968 -0.4860132 0.39003077 0.5514465 -0.4942782
0.6082548 -0.6264189 0.53779244 -0.6574958 -0.61455065 0.5768761 0.55294406 0.6019929
0.57966024 0.61716837 -0.6003716 0.52205265 0.58501655 0.55155325 -0.43050855 -0.65667236
-0.23327085 0.3485033 -0.23277865 -0.63593 0.37539878 0.2887688 0.067820854 0.6334521
-0.62211144 0.31510395 0.60211307 0.58783466 0.007048247 0.5454679 -0.6084604 0.29911953
0.62063235 0.6579195 0.5806056 -0.56039345 -0.5597009 -0.5799231 -0.22118135 0.6339593
00000000: ad24 15bf 38df 22bd 2168 ba3e f9d7 16bf
00000010: af1d 01bf ae5d e83e 2f9e e8be 93b5 60be
00000020: be0e d8be 6a4a e83e d24c 103f eb53 1f3f
00000030: a2aa 92be e9f6 873e 1ffc 15bf 53dc 233f
00000040: 5ddb 223f 53c6 e5bd 2cdd df3d 8088 d83e
00000050: 4757 e53e bb6e 093f 2e41 8fbe 73a9 303b
00000060: 1c32 26bf 3eab 083f 43ea eebe d7e0 c5be
00000070: 6c7f 0ebf 5d95 ed3e 0563 023f 0463 0fbf
00000080: a487 223f 23c9 01bf dd29 dfbe 88cf 24bf
00000090: cdb1 da3e 7cfb d5bd 4dbb fcbe 0d21 10bf
000000a0: 8717 0dbf 53b6 f93e dfd7 fe3e c5de 1cbf
000000b0: bf96 173f 1a64 b73e ee27 c3be a0b4 2abf
000000c0: cb05 81be c59c b83e 1ec7 d5be 5a34 f23e
000000d0: 695f 0fbf c4fa 1bbf 8b2c 353f ec4c 013f
000000e0: 52ae 29bf 6701 033f d874 52ba 8942 29bf
000000f0: 3a2d 523e 4112 00bf 40f6 2ebf e633 e1be
00000100: de91 eebd 9b8e 87be 0938 efbe 5524 f53e
00000110: 1ed2 8dbd 3420 333d 820d 2f3f 4aa8 29bf
00000120: 5d8a 243f 2285 25bf cb3c 0dbf 4694 103f
00000130: 7a83 063f eea0 0e3f a1fb 18bf 5fb9 acbe
00000140: 5d5f 5bbe 72a0 253f 3468 a93e c77b 9b3d
00000150: b9d6 f8be 1db2 c73e 992b 0d3f 0812 fdbe
00000160: 96b6 1b3f fd5c 20bf c4ac 093f a551 28bf
00000170: 3153 1dbf 27ae 133f be8d 0d3f 351c 1a3f
00000180: 9d64 143f bffe 1d3f f4b1 19bf 3ea5 053f
00000190: a5c3 153f 9832 0d3f 9e6b dcbe ae1b 28bf
000001a0: 8ede 6ebe 066f b23e 875d 6ebe 4fcc 22bf
000001b0: 4534 c03e 81d9 933e a9e5 8a3d eb29 223f
000001c0: b242 1fbf 4e55 a13e 1524 1a3f 557c 163f
000001d0: fbf4 e63b c9a3 0b3f 10c4 1bbf 3226 993e
000001e0: c3e1 1e3f 6a6d 283f 92a2 143f f275 0fbf
000001f0: 8f48 0fbf d775 14bf 5d7d 62be 284b 223f

q3.weight f4 [2, 128]
-0.85432136 -0.5510871 0.6987136 -0.89901996 0.105696164 0.5148934 -0.044984244 -0.40812078
-0.09392585 0.1623053 0.9857131 0.9386287 -0.5103557 0.6192239 -0.6385255 0.89394665
0.90779114 -0.2953652 0.6444288 0.69972855 0.51465267 0.8215158 -0.48500437 -0.6022373
-0.63968325 0.6000049 -0.08378166 -0.93176055 -0.46883583 0.9225522 -0.10231137 0.008786734
0.47645864 -0.5967175 -0.45477876 -0.48748237 0.5021437 -0.13506754 -0.3981223 -0.3564596
-0.53706914 0.4395971 0.8778707 -0.69910836 0.8338212 -0.32156512 -0.00574567 -0.61878586
-0.4865129 0.66313016 -0.5527056 0.54690176 -0.9002514 -0.82310593 0.28854853 0.6837559
-0.75967956 -0.028584654 0.5421089 -0.40416354 -0.7227458 -0.8768978 -0.038644806 -0.49138853
-0.57712734 -0.50975454 0.18499681 0.49910858 -0.46100348 0.663122 0.40651065 -0.947719
0.6516434 -0.88986015 -0.4260213 0.9079608 0.9071046 0.89255345 -0.92002237 -0.90084636
-0.43306622 0.7869376 0.8570597 0.48930675 -0.95421994 0.29791796 1.1497835 0.5111466
0.74595785 -0.99956477 0.9287543 -0.44689304 -0.45896912 0.79869175 0.83606017 0.6363332
0.8666054 0.8961574 -0.93383336 0.9012687 0.929356 0.73389375 -0.45125732 -0.87260807
-0.41701186 0.6200472 -0.75654435 -0.21045864 0.6497551 0.52689964 0.4924214 -0.11255038
0.08573475 0.6784043 0.08874662 0.90743935 0.5092036 0.40358117 -0.7665299 -0.46963608
0.91887844 0.9185678 0.8050368 -0.85662115 0.23128201 -0.8905287 -0.5193613 0.8554263
-0.681979 -0.35297188 0.03302575 -0.7581063 -0.7938724 0.14331737 -0.7519928 -0.060541566
-1.1445086 0.9470274 0.7818509 0.73433346 -0.65259266 0.93601507 -1.0887599 0.70282584
0.90171915 -0.05375238 0.012875746 0.014984027 0.03864031 0.4847952 -0.10136347 -0.85086495
-0.17393012 1.0921736 -0.9320062 -0.9574774 -1.0143526 0.75856465 0.70693415 -0.7601692
0.10312926 -0.49724686 -0.070106015 -1.1339805 0.030786857 -0.63812 -0.12705296 -0.055636283
-0.043412607 0.0899162 0.5733116 -1.1092231 0.68716294 0.7331263 -0.67796504 -1.149173
-0.19996984 0.026852474 -0.06520983 0.0037626256 -0.72041005 -0.58840495 0.9556975 1.0753419
-0.31398934 0.83828646 -0.13611168 -1.0239893 -0.7319115 -0.63739055 -0.50355065 -0.14344315
-0.3333242 -0.24163042 -0.48996466 0.047942203 -0.27680567 0.14038824 1.0741158 -0.7275929
1.0491309 -0.60999256 -0.08674207 0.57772714 0.7033953 0.62932163 -0.6599942 -0.56504446
-0.5241612 0.40230396 0.9986578 0.08605416 -0.7197936 0.19574673 0.9313907 -0.35178
0.3210755 -0.9582352 0.6561704 -1.0213356 -1.0947881 1.0089637 1.0505962 1.0488758
0.5501812 0.67542213 -0.6522486 0.5912245 0.7220519 1.0544488 -0.13827546 -0.62260216
-0.045697287 0.10581025 -0.6290217 -0.8519562 0.057440728 0.02837299 0.13648178 0.8698097
-1.2187829 0.14161755 1.0915515 0.70050305 0.19018942 0.06838214 -1.0563096 -0.30810684
0.7145862 0.6147266 1.0188779 -0.6976755 -1.1642847 -0.6801 -0.06410841 0.7635928
00000000: ceb4 5abf 0b14 0dbf e5de 323f 2c26 66bf
00000010: 3b77 d83d 0ed0 033f 6641 38bd 35f5 d0be
00000020: 325c c0bd 5c33 263e b257 7c3f f849 703f
00000030: aca6 02bf 7585 1e3f 6876 23bf b0d9 643f
00000040: 0065 683f 1c3a 97be 49f9 243f 6921 333f
00000050: 47c0 033f dc4e 523f 7e52 f8be 392c 1abf
00000060: 48c2 23bf ec99 193f b895 abbd dc87 6ebf
00000070: 400b f0be 622c 6c3f a088 d1bd 3cf6 0f3c
00000080: 63f2 f33e 7ac2 18bf c3d8 e8be 4a97 f9be
00000090: 7d8c 003f 254f 0abe b0d6 cbbe df81 b6be
000000a0: 5d7d 09bf df12 e13e 22bc 603f c4f8 32bf
000000b0: 4e75 553f 2fa4 a4be 2c46 bcbb c068 1ebf
000000c0: 3818 f9be e6c2 293f 1d7e 0dbf c101 0c3f
000000d0: e076 66bf 12b7 52bf a2bc 933e a00a 2f3f
000000e0: 5c7a 42bf 5d2a eabc a6c7 0a3f 86ee cebe
000000f0: de05 39bf 607c 60bf 044a 1ebd 4797 fbbe
00000100: 9ebe 13bf 467f 02bf ce6f 3d3e 298b ff3e
00000110: a608 ecbe 5dc2 293f 2a22 d03e b69d 72bf
00000120: 1ad2 263f e0cd 63bf 771f dabe 1e70 683f
00000130: 0238 683f 627e 643f 9686 6bbf de9d 66bf
00000140: dbba ddbe be74 493f 4468 5b3f 6a86 fa3e
00000150: c247 74bf b488 983e 1b2c 933f 81da 023f
00000160: 18f7 3e3f 7ae3 7fbf d8c2 6d3f 2acf e4be
00000170: 00fe eabe 1077 4c3f 0a08 563f bce6 223f
00000180: dad9 5d3f 926a 653f b40f 6fbf 8cb9 663f
00000190: 46ea 6d3f 76e0 3b3f 330b e7be 3e63 5fbf
000001a0: 9482 d5be 6abb 1e3f e4ac 41bf 7882 57be
000001b0: 5a56 263f e5e2 063f a81e fc3e d080 e6bd
000001c0: b395 af3d e7ab 2d3f cac0 b53d f24d 683f
000001d0: 2b5b 023f 31a2 ce3e 4e3b 44bf 2474 f0be
000001e0: 9e3b 6b3f 4227 6b3f e416 4e3f 864b 5bbf
000001f0: 31d5 6c3e b0f9 63bf ddf4 04bf 38fd 5a3f
00000200: 2d96 2ebf bbb8 b4be 0246 073d 4113 42bf
00000210: 393b 4bbf cac1 123e 9a82 40bf 6ffa 77bd
00000220: 427f 92bf 6370 723f 6127 483f 47fd 3b3f
00000230: 5010 27bf af9e 6f3f 7c5c 8bbf 65ec 333f
00000240: 11d7 663f 752b 5cbd cbf4 523c 907f 753c
00000250: 4d45 1e3d 1437 f83e a797 cfbd 49d2 59bf
00000260: bd1a 32be 58cc 8b3f f597 6ebf 3d1d 75bf
00000270: 4ed6 81bf 4b31 423f a3f9 343f 739a 42bf
00000280: 6f35 d33d 2497 febe be93 8fbd 4626 91bf
00000290: b834 fc3c d55b 23bf 2c1a 02be dfe2 63bd
000002a0: 6bd1 31bd fc25 b83d 8dc4 123f 06fb 8dbf
000002b0: e9e9 2f3f 2aae 3b3f 1e8f 2dbf 1a18 93bf
000002c0: e5c4 4cbe b8f9 db3c bb8c 85bd 6296 763b
000002d0: cb6c 38bf b5a1 16bf 97a8 743f cea4 893f
000002e0: 36c3 a0be f199 563f dc60 0bbe 1512 83bf
000002f0: 8d5e 3bbf 072c 23bf b2e8 00bf c3e2 12be
00000300: 78a9 aabe f76d 77be a6dc fabe 0b5f 443d
00000310: 79b9 8dbe efc1 0f3e a07c 893f 8743 3abf
00000320: ec49 863f 7928 1cbf d4a5 b1bd ede5 133f
00000330: b711 343f 391b 213f 61f5 28bf c1a6 10bf
00000340: 6e2f 06bf c9fa cd3e 0aa8 7f3f 2a3d b03d
00000350: 6544 38bf d571 483e 9f6f 6e3f 821c b4be
00000360: 0264 a43e e74e 75bf c9fa 273f 20bb 82bf
00000370: 0422 8cbf b925 813f f079 863f 9041 863f
00000380: add8 0c3f 77e8 2c3f c4f9 26bf 7d5a 173f
00000390: 65d8 383f 2ef8 863f 1598 0dbe db62 1fbf
000003a0: 142d 3bbd 0bb3 d83d 9107 21bf cd19 5abf
000003b0: f846 6b3d 796e e83c e1c1 0b3e d9ab 5e3f
000003c0: 1401 9cbf 3104 113e f6b7 8b3f 2b54 333f
000003d0: 04c1 423e ef0b 8c3d 2735 87bf 2ec0 9dbe
000003e0: 1fef 363f b95e 1d3f 976a 823f dd9a 32bf
000003f0: 4807 95bf 091b 2ebf 454b 83bd d17a 433f

q3.bias f4 [2]
0.5606396 0.90461695
00000000: 1486 0f3f fa94 673f
